model/model.pth (torch, 73543 bytes, 6 tensors)

layer1.weight f4 [128, 5]
-0.18862613 -0.13752227 -0.5146696 0.11831331 0.07719838 -0.23914346 -0.4137109 -0.23146653
-0.33224016 0.35721773 0.39949477 -0.06085415 0.5690407 0.75979245 0.65913945 -0.11921611
-0.16035643 -0.39859208 -0.052146237 -0.28553703 0.20543782 0.6747719 0.011455682 0.023589063
0.7435003 -0.058662474 -0.2493896 -0.28567323 -0.36460242 0.33853835 -0.0585527 -0.10223511
-0.4514133 0.10139996 -0.52642447 -0.11172435 0.01362114 -0.39889878 0.03057807 -0.4053827
0.34018356 0.27711886 -0.007744267 -0.1527003 0.20516063 -0.5205084 -0.29622793 -0.26123407
-0.31942394 0.19740319 0.03697956 -0.5607224 -0.3315803 -0.03411983 -0.019801565 0.31677228
0.017655088 0.18955159 0.18221854 0.40674093 -0.6087422 -0.12907441 -0.15757781 0.044516694
-0.017387046 -0.18091194 -0.71096647 0.050166797 -0.5436504 -0.6594637 -0.18200968 0.28646833
0.33490884 -0.31660983 0.013761478 0.29980704 0.11560728 0.40088302 -0.18494251 0.49892315
-0.5080471 -0.34520972 0.030251466 -0.22237246 -0.24478474 0.0063595236 -0.024171155 0.9083862
0.739978 0.5847999 -0.034480102 -0.03825084 -0.3463971 -0.5911964 -0.02803085 0.8350213
0.42891824 -0.037099574 0.5109245 0.035647664 -0.72102743 -0.38637537 0.03121329 -0.08003429
-0.22804779 0.09791372 0.045910664 0.047799658 0.23820494 0.47337732 -0.14205074 0.26672477
0.46844575 -0.41680273 0.15547751 0.38871747 0.15726176 0.35103378 0.008555885 -0.08563526
-0.35119262 -0.13465625 -0.07770266 0.3306859 0.10813697 -0.01644584 -0.037699174 -0.16222835
0.60434836 -0.56871915 -0.20936066 -0.2790843 -0.40450537 -0.44298372 -0.32127297 -0.0298459
-0.005178023 -0.26614675 -0.3666548 -0.26337892 0.086016566 0.13295597 0.5061791 -0.060847193
0.63447917 0.4260422 0.07502027 0.3935662 -0.2684345 0.4846565 0.07493609 -0.4283349
-0.18098709 -0.14930564 0.051671237 -0.32815492 -0.17468855 -0.076101266 -0.0583254 -0.60267293
-0.17437553 -0.035155267 -0.06316918 0.1353476 -0.25515777 0.27760255 -0.47718844 -0.41464892
-0.013181024 -0.31205705 -0.17087635 -0.008921027 -0.42284057 0.21356982 -0.34840617 0.49189898
0.1797576 0.69203424 -0.10216752 0.0056351055 -0.15222467 0.11727518 0.51206446 0.18039282
0.3580319 0.1440184 0.02261122 0.39185196 0.4172955 0.3765765 -0.35366404 0.018952452
-0.7780935 -0.51544523 -0.12826625 0.22663891 0.37716538 0.08125139 -0.04389099 -0.20535925
0.279496 -0.007450074 0.44201458 -0.0059509575 0.22769839 0.12863837 -0.031536486 0.46548265
0.2856541 0.5006731 0.04821399 -0.26089162 -0.3206054 0.13411683 -0.39512902 0.12715189
-0.3430972 -0.08994023 -1.0157869 -0.7291013 0.1198104 -0.20540372 -0.26306707 -0.030236045
-0.35222808 -0.14195327 -0.4188472 0.041248802 -0.56206703 -0.22140223 0.12537023 -0.16702834
-0.6954903 0.22462115 -0.46704832 0.285232 0.34940135 0.37646288 0.00027775764 -0.2748353
0.01332104 0.54645777 0.16658221 0.20433758 0.4432489 -0.41439265 0.015283073 -0.77251506
-0.7518807 -0.1365524 0.22047693 0.4433759 0.030354857 0.30269438 -0.022616088 0.6426325
00000000: 3527 41be a3d2 0cbe 63c1 03bf 404e f23d
00000010: 2f1a 9e3d 06e2 74be ead1 d3be 9005 6dbe
00000020: 621b aabe 3ee5 b63e 948a cc3e 3442 79bd
00000030: a7ac 113f c281 423f 5dbd 283f 9327 f4bd
00000040: 7a34 24be 4314 ccbe 4b97 55bd e931 92be
00000050: 4b5e 523e dabd 2c3f 9db0 3b3c da3d c13c
00000060: 0956 3e3f 1048 70bd fd5f 7fbe c343 92be
00000070: 2bad babe e654 ad3e f5d4 6fbd a460 d1bd
00000080: a51f e7be c8aa cf3d c1c3 06bf bccf e4bd
00000090: 342b 5f3c 763c ccbe dc7e fa3c 528e cfbe
000000a0: 8a2c ae3e 86e2 8d3e 9fc3 fdbb 785d 1cbe
000000b0: a115 523e 0a40 05bf 30ab 97be 79c0 85be
000000c0: 898b a3be 1024 4a3e e177 173d 818b 0fbf
000000d0: e5c4 a9be 3cc1 0bbd e436 a2bc fa2f a23e
000000e0: 67a1 903c d019 423e 7f97 3a3e 5940 d03e
000000f0: 87d6 1bbf 152c 04be 145c 21be 2357 363d
00000100: 476f 8ebc fb40 39be e601 36bf b37b 4d3d
00000110: ac2c 0bbf 9dd2 28bf bf60 3abe faab 923e
00000120: 2c79 ab3e af1a a2be d277 613c 4f80 993e
00000130: 82c3 ec3d 8a40 cd3e 9261 3dbe db72 ff3e
00000140: 600f 02bf 54bf b0be ecd1 f73c 9bb5 63be
00000150: daa8 7abe 8d63 d03b 9602 c6bc ff8b 683f
00000160: 336f 3d3f 72b5 153f 023b 0dbd eaac 1cbd
00000170: f65a b1be a658 17bf f4a0 e5bc f5c3 553f
00000180: 2c9b db3e b9f5 17bd f3cb 023f 4903 123d
00000190: 4195 38bf fed2 c5be 03b3 ff3c 05e9 a3bd
000001a0: 5c85 69be fd86 c83d d20c 3c3d 93c9 433d
000001b0: ffeb 733e 835e f23e c075 11be 2690 883e
000001c0: 1fd8 ef3e 2b67 d5be 7f35 1f3e fa05 c73e
000001d0: 3a09 213e b3ba b33e fc2d 0c3c 8a61 afbd
000001e0: 85cf b3be 54e3 09be 9222 9fbd aa4f a93e
000001f0: ea76 dd3d 6db9 86bc 736a 1abd 301f 26be
00000200: 93b6 1a3f 9497 11bf a462 56be 23e4 8ebe
00000210: 541b cfbe c3ce e2be e47d a4be 647f f4bc
00000220: 68ac a9bb 6344 88be 2eba bbbe 9ad9 86be
00000230: 7429 b03d 9c25 083e f494 013f e83a 79bd
00000240: 3a6d 223f 3422 da3e 3aa4 993d 8281 c93e
00000250: 3f70 89be e624 f83e 1878 993d b64e dbbe
00000260: ae54 39be 94e3 18be 38a5 533d ec03 a8be
00000270: 8ee1 32be fbda 9bbd 9de6 6ebd c648 1abf
00000280: 808f 32be f8fe 0fbd d85e 81bd 9098 0a3e
00000290: 0aa4 82be ec21 8e3e 0b52 f4be dd4c d4be
000002a0: 39f5 57bc f1c5 9fbe 36fa 2ebe 8029 12bc
000002b0: 8f7e d8be 0cb2 5a3e 4b62 b2be 2fda fb3e
000002c0: 6012 383e 2829 313f 343d d1bd b1a6 b83b
000002d0: c9e0 1bbe f82d f03d a816 033f e5b8 383e
000002e0: f54f b73e 8f79 133e 2a3b b93c d2a0 c83e
000002f0: c1a7 d53e a3ce c03e 7413 b5be 2c42 9b3c
00000300: 2331 47bf 38f4 03bf 3a58 03be 0814 683e
00000310: d21b c13e 2167 a63d 0ac7 33bd b249 52be
00000320: 1a1a 8f3e c01f f4bb bc4f e23e 4000 c3bb
00000330: c429 693e c7b9 033e 672c 01bd be53 ee3e
00000340: 4141 923e 1d2c 003f 087c 453d 9693 85be
00000350: 6426 a4be ec55 093e 5a4e cabe 1b34 023e
00000360: 70aa afbe 9532 b8bd 4e05 82bf 62a6 3abf
00000370: 285f f53d 5a55 52be bab0 86be 95b1 f7bc
00000380: 3d57 b4be 335c 11be 2473 d6be 81f4 283d
00000390: a0e3 0fbf 44b7 62be 0e61 003e 7a09 2bbe
000003a0: a70b 32bf 1603 663e f520 efbe ee09 923e
000003b0: bce4 b23e bebf c03e 00a0 9139 36b7 8cbe
000003c0: 7e40 5a3c a8e4 0b3f 8794 2a3e df3d 513e
000003d0: 85f1 e23e 462b d4be db65 7a3c 8cc3 45bf
000003e0: 417b 40bf 64d4 0bbe b4c4 613e 2a02 e33e
000003f0: c0aa f83c c2fa 9a3e 6045 b9bc 9083 243f

layer1.bias f4 [128]
0.26217332 -0.31570026 0.6901519 -0.8189749 -0.055253267 -0.40666336 -0.17979997 0.12612166
-0.209071 0.14277512 0.054917857 -0.102591015 -0.41560218 -0.824365 0.059936248 0.16867827
0.32645857 0.65726554 -0.111784585 0.1589601 -0.22306089 0.07958526 0.29139584 0.20788275
-0.48056343 -0.4469841 0.30274302 -0.13557684 0.26564354 0.06606534 0.20850378 -0.13946928
-0.36251503 0.027933734 0.025314718 -0.19804455 0.49630806 0.11073878 -0.091592565 0.07166613
0.15591115 0.20878978 0.40167314 0.00551228 0.34751195 -0.22005984 -0.19927767 -0.13716504
0.6875926 -0.209582 0.31957716 -0.07164383 0.03901371 -0.03775364 0.42282635 -0.4498829
-0.36260435 -0.33324426 0.4425751 -0.12988624 0.14907096 -0.42081285 -0.27962402 0.23098984
0.031871885 0.394833 0.4881091 0.19572337 0.04794918 0.25502336 -0.017914802 0.40600932
0.059530392 0.23800224 -0.14118445 0.09219493 -0.84458166 0.6435161 -0.0385137 0.791987
0.23456727 -0.13166553 -0.1683573 -0.047644865 0.61656016 0.84127074 0.13289624 0.21582139
0.42019892 0.1697859 -0.50778294 -0.582734 -0.77255654 0.21611118 -0.06397055 0.07813185
0.016614601 -0.38621348 -0.047797736 -0.7825352 0.42159674 -0.28483796 0.15258284 -0.48703334
-0.21002822 -0.65383404 -0.07380478 0.801178 -0.040180687 0.0653868 0.26516077 0.079891115
-0.09591762 -0.13858613 -0.059206456 0.40004116 -0.0887957 -0.14516687 0.27018097 -0.38668454
0.46254936 -0.41840366 -0.044306964 0.14525944 -0.040501244 -0.35349235 -0.7568022 -0.094202965
00000000: 953b 863e 77a3 a1be cbad 303f 57a8 51bf
00000010: 4051 62bd 2e36 d0be 7c1d 38be 0926 013e
00000020: b516 56be a433 123e 8cf1 603d 3d1b d2bd
00000030: cfc9 d4be 9609 53bf b67f 753d ffb9 2c3e
00000040: 9425 a73e 8e42 283f 51ef e4bd 70c6 223e
00000050: 136a 64be 99fd a23d d631 953e 37df 543e
00000060: 690c f6be 1adb e4be 2201 9b3e a8d4 0abe
00000070: 6e02 883e 444d 873d 0482 553e 09d1 0ebe
00000080: 929b b9be 49d5 e43c d060 cf3c 31cc 4abe
00000090: 171c fe3e 03cb e23d e294 bbbd b1c5 923d
000000a0: 2ca7 1f3e fdcc 553e 1aa8 cd3e 5ba0 b43b
000000b0: 16ed b13e 5e57 61be 720f 4cbe fe74 0cbe
000000c0: 1206 303f aa9c 56be 9e9f a33e 00ba 92bd
000000d0: d7cc 1f3d 90a3 1abd b27c d83e 0d57 e6be
000000e0: 47a7 b9be fe9e aabe 3499 e23e e600 05be
000000f0: 0fa6 183e c874 d7be e12a 8fbe 9a88 6c3e
00000100: 188c 023d 8d27 ca3e 70e9 f93e b56b 483e
00000110: 5c66 443d 6c92 823e 10c2 92bc 74e0 cf3e
00000120: 24d6 733d dcb6 733e a892 10be b2d0 bc3d
00000130: 8136 58bf 79bd 243f 8bc0 1dbd a9bf 4a3f
00000140: 6732 703e 54d3 06be db65 2cbe 4327 43bd
00000150: e3d6 1d3f 855d 573f f415 083e 4800 5d3e
00000160: 5024 d73e 5bdc 2d3e 10fe 01bf 0e2e 15bf
00000170: 44c6 45bf 404c 5d3e fe02 83bd 9703 a03d
00000180: 581b 883c c6bd c5be 8fc7 43bd 3a54 48bf
00000190: 87db d73e 48d6 91be ad3e 1c3e 6f5c f9be
000001a0: a311 57be ab61 27bf f626 97bd 001a 4d3f
000001b0: 8194 24bd 84e9 853d 27c3 873e f49d a33d
000001c0: 7570 c4bd 86e9 0dbe 7882 72bd 32d2 cc3e
000001d0: 85da b5bd a0a6 14be 2955 8a3e 84fb c5be
000001e0: 45d3 ec3e 0139 d6be 387b 35bd e4be 143e
000001f0: a2e4 25bd f3fc b4be cabd 41bf 7ced c0bd

layer2.weight f4 [128, 128]
0.02709245 -0.06910726 -0.07769823 0.0732715 0.051717617 0.031054683 -0.038931087 0.052908935
-0.060984787 0.034331843 -0.040352162 0.004575957 -0.032124713 -0.0056176498 -0.05565203 0.026303599
0.011250761 -0.07233787 0.013914473 -0.08642792 -0.02381025 -0.08046614 0.054342337 -0.04138109
0.07775279 -0.059206154 0.02643057 0.06416998 0.018686404 -0.02506782 -0.077478126 -0.08957933
0.037950985 0.0662901 0.04942388 -0.021154566 -0.024667254 0.037444014 0.0803506 -0.08602227
-0.071090356 -0.030602437 -0.03663208 0.04934261 -0.0066230074 0.043260146 -0.060052745 -0.055896636
0.0152785005 0.014729962 -0.07550172 -0.05533273 -0.07174799 -0.046954088 0.030378263 0.056055974
-0.104222685 -0.050286792 -0.02523879 0.05110563 -0.03543689 0.06828182 0.00910915 -0.012157604
0.029151872 -0.07489381 -0.066300854 0.020558124 0.07098814 0.0036500574 0.01676803 0.02636429
0.00029655546 -0.047725596 0.008713449 0.029535323 -0.08102493 0.055407237 -0.066018045 -0.07204487
-0.01282191 -0.05953138 -0.049616933 -0.069229804 -0.025262274 -0.061812565 0.025115749 0.00553667
0.035119556 -0.014770143 0.06621503 0.025744952 0.02223628 0.03555686 -0.024283864 -0.020989222
-0.07759206 0.01663068 0.0048770052 0.07914869 0.009809327 -0.11171616 0.017074458 -0.048568122
0.019091815 0.06104312 -0.010480255 -0.066106945 -0.090038456 -0.0815224 -0.05189006 0.018762147
-0.056501843 -0.07346614 -0.039112274 0.055301555 -0.025749214 -0.08429269 -0.09349088 -0.061220616
-0.015083514 -0.06345542 -0.09035478 0.006617151 0.012569501 -0.011528936 0.03399141 0.011926241
0.059147693 0.057531334 0.030589502 -0.04639497 0.05296042 0.0013694167 0.036035247 0.032623924
-0.053401306 -0.014350086 0.02431789 0.016000919 0.050133117 -0.019891554 -0.024835195 -0.0038452272
-0.018819723 -0.052475985 -0.040042613 -0.042971883 -0.07368667 -0.08426994 -0.10107467 -0.06760667
0.0047211545 -0.020594351 0.01605133 -0.054454792 -0.03101215 0.022577971 0.052409388 0.01703509
0.057557724 -0.05131245 -0.04787609 0.03200647 -0.017960114 -0.055407774 0.08388161 0.009103373
-0.031821117 -0.11373352 0.03676138 0.036470037 -0.07889496 -0.037199404 -0.084308825 -0.048226874
0.038448397 0.03377541 -0.029986808 0.048814125 -0.06493699 -0.03153216 0.035372745 0.04468139
0.039363075 -0.09486374 0.024836153 0.022460327 0.02415771 0.038099684 -0.030902976 -0.0649534
0.03169907 0.073502265 -0.042678643 -0.07803561 0.055141307 -0.0034603288 0.0119795455 0.08664521
0.047455765 -0.018477036 0.039421443 0.041488998 -0.09145254 0.059519492 0.022389099 -0.055217408
-0.0880536 -0.0661466 0.0052633905 -0.08975428 0.073994674 -0.052120678 -0.0075648273 -0.06653674
-0.0035528243 -0.013426423 -0.02437625 0.062005423 -0.05920366 0.03808605 -0.07247441 -0.09468958
-0.06099874 0.050648488 -0.049116764 -0.013819501 0.03677724 0.005313977 -0.0053966097 -0.017200917
-0.038410973 0.0012035593 0.0502358 0.088335566 0.020964967 -0.0024618404 -0.05005683 -0.11751679
-0.009422824 -0.01669132 -0.07271147 0.06550982 0.02466508 0.049800433 -0.10734511 0.046346437
-0.046528537 -0.08119761 0.009395503 0.04668706 0.001320797 -0.098231524 0.006177537 -0.030346435
00000000: fcf0 dd3c 1b88 8dbd 4020 9fbd 5e0f 963d
00000010: dad5 533d 6466 fe3c 3476 1fbd 0ab7 583d
00000020: 2fcb 79bd 8c9f 0c3d 4f48 25bd e9f1 953b
00000030: 3495 03bd 4314 b8bb 62f3 63bd a57a d73c
00000040: 1d55 383c e125 94bd 88f9 633c 1f01 b1bd
00000050: b70d c3bc 6ecb a4bd 1296 5e3d 387f 29bd
00000060: db3c 9f3d 2782 72bd ec84 d83c 8d6b 833d
00000070: 3b14 993c 075b cdbc daac 9ebd 5e75 b7bd
00000080: 7e72 1b3d 1bc3 873d b270 4a3d 574c adbc
00000090: fb12 cabc e55e 193d db8e a43d 722c b0bd
000000a0: d297 91bd f6b1 fabc 850b 16bd 7a1b 4a3d
000000b0: d005 d9bb 8d31 313d def9 75bd dff3 64bd
000000c0: ad52 7a3c f055 713c a5a0 9abd 93a4 62bd
000000d0: 9cf0 92bd ee52 40bd d6db f83c f39a 653d
000000e0: b472 d5bd 86f9 4dbd 94c1 cebc 2354 513d
000000f0: 4626 11bd 57d7 8b3d 8b3e 153c b030 47bc
00000100: e8cf ee3c ed61 99bd bec8 87bd 8369 a83c
00000110: 3b62 913d cd35 6f3b 1c5d 893c ecf9 d73c
00000120: 007b 9b39 ea7b 43bd dbc2 0e3c 10f4 f13c
00000130: 66f0 a5bd b3f2 623d 7834 87bd 438c 93bd
00000140: fd12 52bc 2dd7 73bd 203b 4bbd 5bc8 8dbd
00000150: d4f2 cebc 2c2f 7dbd 8bbf cd3c f46c b53b
00000160: 86d9 0f3d 78fe 71bc bf9b 873d 14e7 d23c
00000170: dc28 b63c 12a4 113d f4ee c6bc 97f1 abbc
00000180: 96e8 9ebd 103d 883c 49cf 9f3b b518 a23d
00000190: 4db7 203c 71cb e4bd bcdf 8b3c 5eef 46bd
000001a0: 7066 9c3c 5a08 7a3d 60b5 2bbc 1463 87bd
000001b0: 1566 b8bd 37f5 a6bd ac8a 54bd 13b3 993c
000001c0: 7a6e 67bd 6a75 96bd 3134 20bd e283 623d
000001d0: 04f0 d2bc a5a1 acbd 2678 bfbd 78c2 7abd
000001e0: d820 77bc eaf4 81bd ed0b b9bd b0d4 d83b
000001f0: 4ff0 4d3c dde3 3cbc 943a 0b3d 4866 433c
00000200: da44 723d faa5 6b3d d696 fa3c a708 3ebd
00000210: 06ed 583d 007e b33a b299 133d aaa0 053d
00000220: 54bb 5abd a01c 6bbc 5036 c73c 5c14 833c
00000230: 6258 4d3d 9df3 a2bc 2e73 cbbc 3500 7cbb
00000240: d22b 9abc 0ff1 56bd b903 24bd 4903 30bd
00000250: 09e9 96bd b895 acbd 3d00 cfbd 5e75 8abd
00000260: eab3 9a3b 7cb5 a8bc 147e 833c fd0b 5fbd
00000270: 310d febc 70f5 b83c 3aab 563d 2c8d 8b3c
00000280: a6c1 6b3d 012d 52bd b819 44bd 3719 033d
00000290: 1721 93bc 43f3 62bd 1fca ab3d 5026 153c
000002a0: dc56 02bd 1fed e8bd 1a93 163d 9b61 153d
000002b0: ae93 a1bd 675e 18bd 1baa acbd 8b89 45bd
000002c0: 117c 1d3d 1658 0a3d e5a6 f5bc 52f1 473d
000002d0: affd 84bd de27 01bd 03e3 103d d503 373d
000002e0: 2d3b 213d ec47 c2bd 3075 cb3c b8fe b73c
000002f0: 64e6 c53c 6a0e 1c3d 3d28 fdbc 4a06 85bd
00000300: e2d6 013d 5b88 963d cdcf 2ebd 22d1 9fbd
00000310: dadb 613d afc6 62bb db45 443c 0b73 b13d
00000320: fa60 423d 275d 97bc 6178 213d 5ef0 293d
00000330: 784b bbbd b6ca 733d 5869 b73c a62b 62bd
00000340: 7255 b4bd de77 87bd 8578 ac3b 18d1 b7bd
00000350: 858a 973d 7e7c 55bd 5fe2 f7bb 6a44 88bd
00000360: 80d6 68bb 80fa 5bbc b4b0 c7bc 66f9 7d3d
00000370: 897f 72bd 1e00 1c3d 776d 94bd 9cec c1bd
00000380: d1d9 79bd ca74 4f3d a92e 49bd 306b 62bc
00000390: bba3 163d df20 ae3b 0bd6 b0bb f0e8 8cbc
000003a0: d354 1dbd c0c0 9d3a 0ec4 4d3d 47e9 b43d
000003b0: b9be ab3c d456 21bb 6408 4dbd a5ac f0bd
000003c0: 3062 1abc 3cbc 88bc c0e9 94bd 032a 863d
000003d0: 6c0e ca3c 8afb 4b3d c1d7 dbbd c3d5 3d3d
000003e0: b594 3ebd ef4a a6bd 99ef 193c ee3a 3f3d
000003f0: 981e ad3a 9c2d c9bd f06c ca3b 1699 f8bc

layer2.bias f4 [128]
-0.009707679 -0.021626614 0.06554185 -0.09724001 0.041302934 -0.064974606 -0.01575596 -0.08852988
-0.03298345 0.015750768 -0.058923267 0.035363838 0.033946898 0.0064200163 -0.011774554 -0.105437055
0.06263524 3.519528e-05 0.025369436 0.24292699 0.055212066 0.028688066 -0.11125382 -0.067119874
-0.009140894 -0.03952615 -0.04840233 0.16754684 0.06962132 -0.012020962 -0.013917915 0.045712054
-0.028587036 -0.055951174 0.061822515 -0.048346225 0.04078599 -0.07023506 -0.073021635 -0.04244565
-0.13134897 0.034999643 -0.047402017 -0.055563886 0.043179817 -0.064633794 0.736533 -0.028689565
-0.04912248 0.075196914 -0.015329616 0.05004071 0.05211868 -0.03739627 -0.035539456 -0.030959772
0.014090525 -0.056733668 0.019874144 0.0771691 -0.035931297 -0.039290387 0.022164777 0.0025917627
-0.040426936 -0.00033916355 -0.1305171 -0.024087988 0.020422466 -0.027506752 -0.04541936 -0.040352233
0.056447808 -0.03910841 -0.081003204 -0.09293831 -0.055100378 0.041721836 -0.0050427774 -0.011750743
0.21762744 -0.1235854 -0.10141302 -0.035775937 -0.104620114 0.017068155 0.04532671 -0.08059582
-0.021976002 0.032495882 0.03911353 0.0007827434 0.1143356 0.008618781 -0.15219204 -0.10143021
-0.029966028 -0.0013256811 -0.05766119 -0.11901248 -0.058949426 0.05214735 -0.05839595 -0.015722375
0.042081602 -0.05523373 0.022105388 0.006448766 -0.06096584 -0.075392835 -0.064648554 -0.0405864
-0.051105548 0.0010191399 -0.056939907 -0.0427778 -0.07003787 -0.08464844 -0.02435672 0.0017676279
-0.11983601 -0.113758504 -0.074165754 -0.15055676 -0.042305518 -0.03194454 -0.07699297 0.0018953717
00000000: f50c 1fbc 4c2a b1bc ce3a 863d c525 c7bd
00000010: 442d 293d 6811 85bd a512 81bc 274f b5bd
00000020: a719 07bd c107 813c 8659 71bd acd9 103d
00000030: e70b 0b3d 005f d23b 0fea 40bc 62ef d7bd
00000040: e846 803d a59e 1338 90d3 cf3c dac1 783e
00000050: 0c26 623d 3c03 eb3c 0bd9 e3bd 2576 89bd
00000060: b0c3 15bc 2ce6 21bd 8641 46bd 6691 2b3e
00000070: 9f95 8e3d 92f3 44bc f707 64bc 903c 3b3d
00000080: 5c2f eabc 0f2d 65bd 9b39 7d3d b106 46bd
00000090: 360f 273d 66d7 8fbd 5e8c 95bd 7ddb 2dbd
000000a0: 5880 06be c95b 0f3d 9e28 42bd f596 63bd
000000b0: 52dd 303d b95e 84bd 6d8d 3c3f 6106 ebbc
000000c0: a734 49bd d700 9a3d 1229 7bbc 7df7 4c3d
000000d0: 667a 553d d52c 19bd d291 11bd 599f fdbc
000000e0: f2db 663c 9061 68bd 1acf a23c d50a 9e3d
000000f0: b22c 13bd f5ee 20bd e892 b53c 90da 293b
00000100: b796 25bd c3d1 b1b9 46a6 05be 2c54 c5bc
00000110: 044d a73c d755 e1bc a709 3abd 6248 25bd
00000120: d135 673d 2430 20bd 02e5 a5bd 7156 bebd
00000130: efb0 61bd 84e4 2a3d e23d a5bb 3086 40bc
00000140: bad9 5e3e 581a fdbd a1b1 cfbd ca89 12bd
00000150: 1243 d6bd 84d2 8b3c 80a8 393d 6c0f a5bd
00000160: 0407 b4bc 671a 053d 8235 203d 0531 4d3a
00000170: c828 ea3d ca35 0d3c 3bd8 1bbe a4ba cfbd
00000180: 517b f5bc 7ac2 adba 242e 6cbd d1bc f3bd
00000190: f474 71bd 7698 553d 9730 6fbd 36cc 80bc
000001a0: c25d 2c3d c33c 62bd 5c16 b53c 2c50 d33b
000001b0: 51b7 79bd 8f67 9abd 7666 84bd ed3d 26bd
000001c0: 0d54 51bd a994 853a d239 69bd c637 2fbd
000001d0: 0470 8fbd 295c adbd be87 c7bc c0af e73a
000001e0: 956c f5bd 38fa e8bd 37e4 97bd 8d2b 1abe
000001f0: 8d48 2dbd 47d8 02bd 7eae 9dbd 1f6e f83a

layer3.weight f4 [5, 128]
-0.00489111 -0.054394096 0.031657245 0.06821918 -0.05588514 -0.04378733 0.036343653 -0.12951326
-0.08248935 0.0135525325 -0.02019783 -0.08358657 0.06015338 -0.0005303547 -0.076248445 0.024639135
-0.10176267 0.048256405 -0.028377598 0.04208141 -0.030809442 0.013492174 0.011180286 0.09648675
0.030389756 0.06140118 -0.015861565 0.06339674 0.0026244966 0.08026006 -0.030036824 0.033370804
0.007279069 -0.017147444 0.01869379 0.036327686 -0.0123713175 -0.0427234 0.04459548 0.08144895
0.058039647 -0.037417587 0.043646045 -0.053121764 -0.06357215 -0.019268654 0.4784613 0.03897219
0.014548528 0.047873147 0.010231077 -0.005133157 0.079951786 0.00069420796 0.0813814 -0.019917727
-0.023673978 0.019048285 0.01106671 0.038402963 0.05649345 -0.07733963 -0.042708676 0.020537037
-0.028812448 -0.0035780827 -0.0038048266 -0.027244227 -0.027098801 0.01943957 -0.012399391 0.022176571
0.008122329 -0.05850192 -0.016987719 0.11576861 -0.020881854 0.07433946 0.008425324 -0.08039587
0.010580343 0.03681246 0.045008164 0.04882506 0.123259306 0.008108087 0.030768376 0.10213222
0.049431197 0.025979549 0.08334575 -0.007810915 0.06070262 -0.024495812 -0.06481279 0.021936163
0.04298218 -0.028482271 -0.025296234 0.0010281091 -0.012777527 0.079853036 0.12241251 0.08786617
-0.027211193 -0.020197444 0.041430116 0.012013418 -0.003544637 -0.044500783 0.048658513 -0.016139116
0.01678485 0.027211972 -0.073589675 0.019838536 0.08791814 0.029161036 0.040065173 -0.019961499
0.04645078 0.03931822 -0.055781577 0.022036225 -0.035972986 0.059597958 0.011885814 0.14225535
0.029179953 -0.06096785 -0.105849825 -0.1483485 0.064403586 0.0048812777 -0.14493135 -0.10390061
0.047472067 0.011142561 0.05223513 -0.08290097 0.03850799 -0.07001485 0.06567132 -0.0137935355
-0.16522682 0.028974265 -0.021334343 -0.16954885 -0.0036107523 0.057968643 -0.04184375 0.048084848
0.061787836 -0.08651691 -0.010925072 -0.22883259 -0.11466949 0.035173457 -0.06129337 -0.015527133
-0.039881308 0.015044063 -0.07759234 0.03499885 0.036855206 0.04214098 0.04864777 0.030669652
-0.08697061 0.045537345 0.07792308 -0.045712564 -0.008342624 -0.081758164 -0.23941128 0.05601186
-0.024433892 -0.03762824 -0.036658447 -0.034158524 0.05683101 -0.030263774 0.06963452 -0.111053795
-0.07304231 -0.036265746 0.06078417 -0.075556494 -0.18701945 -0.057538442 0.049276628 -0.06128798
0.033247326 0.065525 0.031530887 0.061077185 -0.08531499 0.08317193 -0.06000683 -0.010900966
0.0016363725 -0.11339192 0.057173602 -0.07141875 0.08331645 0.03463869 -0.015500619 0.0700048
-0.17368346 -0.06730961 0.0341757 0.051826008 -0.114951216 -0.011211239 0.029917672 -0.1351237
0.019246288 -0.06420024 -0.067067266 0.08458411 -0.13905592 0.036027823 -0.03080906 -0.0007079829
0.005393438 0.016318396 0.023988988 -0.07950238 0.047789007 0.05288541 -0.09299372 -0.109834686
-0.053791393 -0.070332915 0.009384264 -0.053917143 0.003263625 -0.073264055 -0.022395812 0.04487691
-0.05197486 -0.0945313 -0.06986888 -0.014187469 -0.01505962 0.08188427 -0.026846308 0.06897337
-0.06410757 0.017376885 0.008555979 0.053784408 -0.032010056 -0.039647914 -0.05285201 -0.12965885
00000000: 9b45 a0bb 58cc 5ebd 07ab 013d 7fb6 8b3d
00000010: d1e7 64bd 585a 33bd 15dd 143d 209f 04be
00000020: 2df0 a8bd 710b 5e3c eb75 a5bc 702f abbd
00000030: 6463 763d 8007 0bba 2528 9cbd 03d8 c93c
00000040: f268 d0bd 82a8 453d 2378 e8bc 8e5d 2c3d
00000050: 1564 fcbc 480e 5d3c 852d 373c d89a c53d
00000060: f0f3 f83c ce7f 7b3d 1df0 81bc 26d6 813d
00000070: bfff 2b3b 635f a43d c90f f6bc d3af 083d
00000080: 4285 ee3b cc78 8cbc b823 993c 57cc 143d
00000090: 11b1 4abc bbfe 2ebd c0a9 363d b5ce a63d
000000a0: fbba 6d3d 2f43 19bd 32c6 323d 3596 59bd
000000b0: 1e32 82bd 4cd9 9dbc e1f8 f43e 4ea1 1f3d
000000c0: f35c 6e3c a216 443d 3fa0 273c 0b34 a8bb
000000d0: c3bd a33d 82fb 353a 4bab a63d 802a a3bc
000000e0: eeef c1bc 260b 9c3c 2551 353c 6d4c 1d3d
000000f0: ad65 673d 3d64 9ebd 4bef 2ebd 4a3d a83c
00000100: 1508 ecbc 447e 6abb 665a 79bb 492f dfbc
00000110: 4efe ddbc bc3f 9f3c d126 4bbc a4ab b53c
00000120: 8413 053c b69f 6fbd d429 8bbc 1818 ed3d
00000130: 6c10 abbc 493f 983d 5f0a 0a3c 97a6 a4bd
00000140: 2d59 2d3c a9c8 163d 7b5a 383d c9fc 473d
00000150: 606f fc3d c8d7 043c f60d fc3c b32a d13d
00000160: 5e78 4a3d 10d3 d43c 2db1 aa3d b4f2 ffbb
00000170: 4fa3 783d 71ab c8bc 91bc 84bd 78b3 b33c
00000180: 150e 303d a753 e9bc 0c3a cfbc 9ec1 863a
00000190: d558 51bc fd89 a33d 69b3 fa3d 2ef3 b33d
000001a0: 02ea debc 1c75 a5bc a0b2 293d edd3 443c
000001b0: 244d 68bb 7446 36bd 264e 473d 2e36 84bc
000001c0: 6280 893c a4eb de3c 2fb6 96bd 6d84 a23c
000001d0: 6d0e b43d 20e3 ee3c 611b 243d 4c86 a3bc
000001e0: 2c43 3e3d 240c 213d 397b 64bd 5085 b43c
000001f0: 6958 13bd fd1c 743d b8bc 423c 63ab 113e
00000200: cc0a ef3c 6db9 79bd cbc7 d8bd abe8 17be
00000210: 07e6 833d 20f3 9f3b e268 14be d8c9 d4bd
00000220: 1272 423d 4a8f 363c 81f4 553d fcc7 a9bd
00000230: 8eba 1d3d f263 8fbd af7e 863d 48fe 61bc
00000240: 3831 29be 705b ed3c 5cc5 aebc 379e 2dbe
00000250: 5fa2 6cbb 8770 6d3d 5a64 2bbd 9ef4 443d
00000260: 3e15 7d3d c72f b1bd 13ff 32bc 1753 6abe
00000270: d6d7 eabd 0b12 103d c20e 7bbd 8465 7ebc
00000280: 955a 23bd 607b 763c bce8 9ebd f45a 0f3d
00000290: 7cf5 163d 059c 2c3d e242 473d ec3e fb3c
000002a0: a61d b2bd 5e85 3a3d 2396 9f3d 193d 3bbd
000002b0: 80af 08bc d370 a7bd 3b28 75be b16c 653d
000002c0: 9629 c8bc 1220 1abd 2b27 16bd cfe9 0bbd
000002d0: a2c7 683d bceb f7bc 8b9c 8e3d 2c70 e3bd
000002e0: 3597 95bd 648b 14bd d2f8 783d 5dbd 9abd
000002f0: 0782 3fbe 6ead 6bbd 4ad6 493d 1b09 7bbd
00000300: 592e 083d f931 863d 8826 013d 122c 7a3d
00000310: a0b9 aebd 0b56 aa3d b9c9 75bd f799 32bc
00000320: 8d7b d63a 063a e8bd de2e 6a3d fe43 92bd
00000330: d1a1 aa3d 4de1 0d3d 4ff6 7dbc ad5e 8f3d
00000340: 14da 31be 9fd9 89bd d2fb 0b3d 8247 543d
00000350: 8b6b ebbd 58af 37bc e815 f53c de5d 0abe
00000360: 64aa 9d3c 6a7b 83bd 905a 89bd 6f3a ad3d
00000370: ad64 0ebe e991 133d 4863 fcbc ee97 39ba
00000380: 70bb b03b 28ae 853c 8e84 c43c 25d2 a2bd
00000390: 68be 433d 5f9e 583d 7e73 bebd 02f1 e0bd
000003a0: 5d54 5cbd b40a 90bd 75c0 193c 39d8 5cbd
000003b0: 8be2 553b 770b 96bd 6c77 b7bc dad0 373d
000003c0: 97e3 54bd a099 c1bd 6a17 8fbd 8f72 68bc
000003d0: a0bc 76bc f1b2 a73d caec dbbc e941 8d3d
000003e0: d44a 83bd f859 8e3c 602e 0c3c 0a4d 5c3d
000003f0: fa1c 03bd da65 22bd 597b 58bd 4ac5 04be

layer3.bias f4 [5]
1.6459475 -0.06579828 -6.455156e-05 -0.1771426 -0.10693414
00000000: 68ae d23f 40c1 86bd db5f 87b8 df64 35be
00000010: 4900 dbbd
