model/model_entire.pth (torch, 140735 bytes, 6 tensors)

weight f4 [128, 4]
000000 f3 ad 61 be 08 db ce 3e f6 cd c0 be 4c b9 e1 3d
       -0.22039013 0.40401483 -0.37657136 0.11021671
000010 72 ad d0 3e 2d 13 9e 3e 93 13 c5 3e bf e7 ae 3b
       0.40757328 0.30874005 0.38491496 0.005337685
000020 f0 c2 a8 bd 9b 91 d5 bd 50 5d 77 3c 30 fb e7 3e
       -0.082403064 -0.10428163 0.015097931 0.45308828
000030 a8 c4 59 3e aa e8 ba be 44 38 2e be 38 a3 ca bd
       0.21266425 -0.36505634 -0.17013651 -0.09894413
000040 b0 f7 ef bd da 1e b6 3e 10 c3 2f 3d 04 97 de be
       -0.117171645 0.35570413 0.042910635 -0.4347459
000050 04 d2 5d 3e 1a e6 bd 3e ce 1a f4 be 4e d4 aa be
       0.21662146 0.37089616 -0.476767 -0.333651
000060 56 b6 b6 be f4 a1 5a be b0 1f 12 be 9c ef d1 be
       -0.35685986 -0.21350843 -0.142699 -0.4100312
000070 8c bf 22 3d 16 59 ed bd d4 fe 86 be d8 7d ba 3e
       0.039733455 -0.115892574 -0.26366293 0.36424136
000080 4c d0 97 3e 3c a0 e1 be 68 46 d5 3e fc 3e 8d be
       0.29651105 -0.44067562 0.41655278 -0.27587116
000090 d0 c4 ee bd 5c d2 8d 3e 40 5a 96 bc a0 9f 8c bd
       -0.11658633 0.27699554 -0.018353581 -0.068663836
0000a0 f0 83 ea 3c c0 c4 34 be fb 11 b4 be 73 be 87 3e
       0.028627366 -0.17653179 -0.35169968 0.2651249
0000b0 14 41 8c be 64 1f a9 bc 40 85 bf 3e 92 27 bc 3e
       -0.273934 -0.020644851 0.3740635 0.3674894
0000c0 88 37 95 bd 88 cd f2 3e b0 c6 10 be 70 bb 11 be
       -0.07285982 0.47422433 -0.14138293 -0.14231658
0000d0 a0 82 06 be e5 0e 7e be d8 af 2c 3e 1f 3c ba 3e
       -0.13135767 -0.2481037 0.16863954 0.36373994
0000e0 06 30 c9 3e 48 4e 74 3e a0 12 93 3e a0 81 8e be
       0.3929445 0.23857987 0.28725147 -0.2783327
0000f0 b2 06 c4 be bc ac db be 2e 04 cb be 26 5d 94 be
       -0.38286358 -0.42905223 -0.39651626 -0.28977317
000100 7d f8 e8 be 5c bb 3b be 04 9e 56 bc f1 87 25 3e
       -0.45502082 -0.1833319 -0.013099197 0.16165139
000110 cc 1a 6d be 78 e0 10 be 87 67 0a 3e 13 04 f9 3e
       -0.23154753 -0.14148128 0.13516055 0.4863592
000120 20 b9 a1 3d 00 80 38 3d 48 fd 0a be e4 16 0e be
       0.07896638 0.045043945 -0.13573182 -0.1387592
000130 a8 9d 45 3e fa 55 06 3e 8f fe ef 3e 9c 52 9d 3d
       0.19298422 0.13118735 0.468739 0.07681772
000140 2d e5 6e 3d 95 52 9e 3e 2a 27 1a 3e 52 e9 ad 3e
       0.058324028 0.3092238 0.15054002 0.33967072
000150 15 06 d4 be 0b 4c 81 be ce 98 90 3e 4f 26 37 3e
       -0.4141089 -0.2525333 0.2824158 0.17885707
000160 e5 2e 7c be 7f 0b 28 be a7 46 bb 3e c2 3c 4c 3e
       -0.24627264 -0.16410635 0.3657734 0.19945052
000170 d6 67 86 be 98 30 86 bd 68 f4 8b bd 50 0b 3a bd
       -0.26251096 -0.06552237 -0.06833726 -0.045420945
000180 74 c8 9e 3e 58 e0 b0 be 8e a7 fb be c8 64 c6 bd
       0.3101231 -0.3454616 -0.49151272 -0.09687191
000190 e3 57 10 3e 63 2b 86 be 8e b5 51 be e3 5b 9b 3b
       0.14096026 -0.26204976 -0.20479414 0.0047411784
0001a0 7a e5 b3 3e bc de 15 3e 4c 39 62 be 48 dd ac bd
       0.35136014 0.14635748 -0.2209217 -0.084406435
0001b0 e2 96 ed 3e 5c 9d cb be 88 32 ad be 84 22 c1 be
       0.46404177 -0.39768493 -0.33827615 -0.37721646
0001c0 54 8e 62 be 98 92 4f bd fa a5 65 be a2 22 19 3e
       -0.22124606 -0.050676912 -0.22426596 0.14954618
0001d0 e0 f3 7e 3e c8 ac 56 3e 10 43 a9 be 88 2a 49 be
       0.24897718 0.20964348 -0.33058977 -0.1964513
0001e0 44 03 08 3e 6d f3 b9 3d 98 e2 ed 3e ee 35 f6 3d
       0.13282496 0.09079633 0.4646194 0.12022005
0001f0 0a fb b4 3c 8f a3 c6 be 0b 7a cd be 92 20 e4 3e
       0.022092361 -0.3879666 -0.40132174 0.445561
000200 b4 25 6a be cc af 61 3e a2 13 df be e0 5f 36 bd
       -0.22865945 0.22039717 -0.43569666 -0.044525027
000210 6f 9c 47 3e 0c d5 b3 be 06 bc 1c be be 7b df 3e
       0.19493268 -0.3512348 -0.153061 0.43649095
000220 20 96 28 3d 60 4d af bd 48 6c 67 be 04 e8 4a be
       0.041158795 -0.0855968 -0.225999 -0.1981507
000230 70 75 91 3e 24 35 30 3d fd 7b 24 3e a6 22 45 3d
       0.2840991 0.04301943 0.16062923 0.048128746
000240 a8 9b 68 be 00 15 26 bb 0a 4c 9d 3e a0 32 3d bd
       -0.22715628 -0.0025342107 0.30722076 -0.046190858
000250 e5 4a 83 3e 46 16 d6 3d b6 6f aa 3c df 65 af 3d
       0.25643077 0.10453467 0.020805221 0.08564352
000260 c8 c1 58 be 18 3b 83 be dc 74 ce 3e 2a ae c8 be
       -0.21167672 -0.25631022 0.40323532 -0.39195377
000270 1b 26 f2 be 79 c6 99 3d ac 91 31 be b3 b0 b7 3e
       -0.47294697 0.07508559 -0.17340726 0.35876998
000280 4a e7 f5 3d eb a9 96 3e 96 2a e0 bd aa 4b 96 bb
       0.120070055 0.29426512 -0.109456226 -0.0045866566
000290 fa ab 81 3e aa ae cd 3e c0 8b 63 bc 9c b2 62 be
       0.2532652 0.4017232 -0.013888299 -0.22138447
0002a0 20 af c5 bd 80 3b 0d 3c 94 10 07 3e d0 df 8d bd
       -0.09652543 0.008620143 0.13189918 -0.069274545
0002b0 8c 6b 2a be 6a 2d d2 3e b0 1d 49 3e b2 66 b4 be
       -0.16642588 0.41050273 0.19640231 -0.352346
0002c0 98 d1 c2 3e 1c 29 83 be 2e 06 f1 3e 6a e4 c7 be
       0.38050532 -0.256173 0.47075027 -0.39041454
0002d0 65 40 21 3e 28 19 99 be df c4 59 3d bf f2 c0 3d
       0.15747221 -0.29902005 0.053166267 0.094213
0002e0 75 5c ee be 51 1f 96 3e 0b bf da be 6e b7 af 3e
       -0.46554914 0.29320768 -0.4272388 0.34319633
0002f0 a2 69 f2 be b8 14 d7 3d 74 7a 84 be f2 f3 ad be
       -0.47346216 0.10501999 -0.25874674 -0.33975178
000300 5a 17 d6 3e f8 75 32 be 2c 0a f6 be 6a 9d c2 be
       0.4181469 -0.17427814 -0.48054636 -0.38010722
000310 24 7f 49 be 11 4c fb 3e 47 42 c3 be 17 19 d3 3e
       -0.19677407 0.49081472 -0.38136503 0.4123008
000320 e8 da dc 3d 84 25 7a 3e 08 6a 76 3e 30 22 1e be
       0.107839406 0.24428374 0.24063885 -0.15442729
000330 ff f8 b3 be e2 0c d1 be 13 89 a5 3c c0 98 c4 3c
       -0.35150906 -0.4083014 0.020206964 0.023998618
000340 d2 1d 9f 3d 96 c2 40 be 1f ac be 3e 8e 00 9f 3e
       0.0776936 -0.18824229 0.37240693 0.3105511
000350 72 84 ff be 28 6e 4f be 58 79 cf 3e 04 52 f5 be
       -0.49905735 -0.20256865 0.40522265 -0.47914135
000360 74 16 66 be c0 34 d1 bd b4 57 01 be 48 39 ac bd
       -0.22469503 -0.102151394 -0.12631112 -0.08409363
000370 ca 71 8d be 04 70 03 3e 70 1a c2 bd f0 3d 07 bd
       -0.27625877 0.128357 -0.09477699 -0.033018053
000380 7a 68 9a be d0 0e ee be df 36 e5 bd b5 a6 a9 3e
       -0.30157834 -0.46495676 -0.111921065 0.33135
000390 16 c3 55 be b5 b9 d8 3d f4 8a df bb 4b 7a cd 3e
       -0.208752 0.10582296 -0.0068219844 0.40132365
0003a0 12 c8 9b 3e 5c b0 e1 3e 0e 77 f5 3e 90 53 24 bd
       0.3042608 0.44079864 0.47942394 -0.040118754
0003b0 33 9a da 3e 4d 4c 77 be 6a f4 c4 3e a8 17 91 3e
       0.4269577 -0.241502 0.38467723 0.2833836
0003c0 62 40 c8 3e 60 c6 ff 3c 40 b9 4f bc d8 ca 66 be
       0.3911162 0.031222522 -0.012678444 -0.22538316
0003d0 b4 93 d5 3e 85 fe 0e be b3 c5 92 3e e0 c7 6f 3c
       0.4171425 -0.13964279 0.28666458 0.014635056
0003e0 19 70 b7 be 96 3e 91 be cf fe 00 bf d9 c9 9e 3e
       -0.3582771 -0.28368062 -0.5038881 0.31013373
0003f0 33 be f5 3e 55 34 cf be 5a bf aa 3e 8a 9d 43 3e
       0.47996673 -0.40469614 0.33349115 0.19103065

bias f4 [128]
000000 6f d6 c1 3d 4a d6 98 be b2 a1 eb be c8 01 3d 3e
       0.09464728 -0.2985099 -0.460218 0.1845771
000010 0c 3a c4 be 6a 85 ee be 10 cc 58 be c7 0b f3 3e
       -0.38325536 -0.46586162 -0.21171594 0.47469923
000020 0a c2 e3 3e a0 27 00 be a8 8d 7b bc 32 0d 94 be
       0.44483978 -0.12515116 -0.015353598 -0.28916317
000030 e8 fc 12 be 34 d5 30 3e d8 83 5a be f8 76 f5 be
       -0.14354289 0.1726883 -0.21339357 -0.47942328
000040 d2 b1 6d be 75 a7 06 be 98 3c fe 3d 83 d7 99 3e
       -0.23212364 -0.13149817 0.12413901 0.30047235
000050 85 40 a3 3e 76 71 ac be 12 9f c8 be 0a 28 e9 be
       0.31885162 -0.33680314 -0.3918386 -0.4553836
000060 50 25 70 3e 5b f0 95 bd 20 ad 98 3d 6e 15 b9 3e
       0.23451734 -0.07321235 0.07454896 0.36149162
000070 e0 9f 26 be 90 ba 16 bd f6 1c 9d bd 53 04 02 be
       -0.16271925 -0.036799014 -0.076715395 -0.12696962
000080 60 e0 23 3d 48 44 3d 3e 00 c0 fa 39 cb d3 d9 3d
       0.040008903 0.18483078 0.00047826767 0.106360994
000090 a4 d8 c3 3e 7f b8 94 3d 20 4c 52 3e 9b 67 9c 3d
       0.3825122 0.07261752 0.20536852 0.07636949
0000a0 8e 9a ad be 18 0c 6f be a0 dc 45 3e 1c c9 a0 be
       -0.33906978 -0.23344457 0.19322443 -0.31403434
0000b0 98 aa f6 be 62 55 84 bd a2 86 a1 be f0 15 9c 3e
       -0.48177028 -0.06461598 -0.3154803 0.30485487
0000c0 b0 cb 23 bd 6a fa 25 bc 80 18 ed bb 25 7f 64 be
       -0.039989173 -0.010130504 -0.0072355866 -0.22314127
0000d0 b6 31 14 be 6c 42 5b be 14 cd 55 3e 04 cb 71 be
       -0.14472088 -0.21412057 0.20879012 -0.236126
0000e0 ea 5a bc bd dc df 5a 3d a0 ec 5d bd 5d fc a4 3e
       -0.09197028 0.053436145 -0.05418074 0.32223788
0000f0 f0 59 a4 3d 80 36 55 3e 30 26 55 3e d3 27 e8 3e
       0.08024967 0.20821571 0.20815349 0.45342883
000100 90 64 8e 3e 30 f6 40 3d 7e f4 cd bc 89 3d 89 3e
       0.27811098 0.047109783 -0.025140997 0.2680476
000110 dc 31 3b 3e 80 bb c7 3e 00 ab 7e bc 0a 73 81 be
       0.18280739 0.3901024 -0.015543699 -0.2528308
000120 9d 28 cc 3d 6b 82 b9 be 8a 48 9b be da 59 c5 3e
       0.09968684 -0.36232314 -0.3032878 0.38545114
000130 8c 8e fa 3e b0 b7 61 be 48 19 a8 be 00 b7 aa 3d
       0.4893688 -0.22042727 -0.32831788 0.08335686
000140 da a6 cb be 22 e9 a7 be 3a d3 80 3e 54 4c af 3e
       -0.39775735 -0.32795054 0.25161153 0.3423792
000150 17 ed a1 be 5c 7b 73 3e 5f 8f 98 3e 24 2a ca 3e
       -0.31626198 0.23777527 0.29796883 0.39485276
000160 82 c4 d3 be 1b 32 83 be c0 52 c9 3e 8c 56 da 3e
       -0.4136086 -0.25624165 0.39320946 0.42644155
000170 80 e7 1b be 8b a0 99 3e 18 22 c0 be 95 a6 65 3c
       -0.15225029 0.30005297 -0.3752601 0.014016767
000180 d1 8d a3 bd 6c 2d c4 be 29 87 92 3d 6a 1d b1 be
       -0.07986034 -0.38315904 0.07154686 -0.34592754
000190 c2 c4 ac be a1 4e 97 3e 78 ca 62 bd 17 bd 05 3e
       -0.33743864 0.29552177 -0.05536887 0.13060413
0001a0 2a c0 f3 be 6b 91 db be 6c e4 d3 be 16 6d a1 be
       -0.47607547 -0.42884383 -0.4138521 -0.31528538
0001b0 50 74 b5 3e b8 d5 d3 bd c8 0c c6 bd 04 16 c2 be
       0.35440302 -0.10343498 -0.096704066 -0.37907422
0001c0 c0 e4 3b bd d0 97 d3 3e 2f bd 98 3d 03 64 cf 3e
       -0.04587245 0.4132676 0.07457959 0.4050599
0001d0 96 eb 00 bf 22 d6 96 be 64 c3 91 3e 98 3a 8d 3e
       -0.50359476 -0.29460245 0.28469384 0.27583766
0001e0 8c a8 65 be a5 26 71 3e f5 b0 e5 3e 6c 65 57 be
       -0.22427577 0.23549898 0.4486157 -0.21034783
0001f0 4c 98 70 3d b4 85 be 3e 3c 97 f5 be 71 22 9d 3b
       0.05873899 0.37211382 -0.47966945 0.0047953655

weight f4 [256, 128]
000000 04 6e fe bc 12 12 95 bd 60 cf 1d bd 33 f8 95 3d
       -0.031058319 -0.07278837 -0.038527846 0.07322731
000010 b4 d6 ce 3c d0 4d a2 bc 20 7b 7b 3c d6 d6 4b 3d
       0.025248863 -0.019812495 0.0153491795 0.04976543
000020 fc 61 a8 bc 4e 55 14 3d c8 3b 85 bd 18 b8 32 bc
       -0.020554535 0.036214165 -0.06505543 -0.010908149
000030 d4 bb b9 3c f1 c9 01 bd 60 9f 7d bc 95 7f 5a bd
       0.022672571 -0.031686727 -0.0154798925 -0.053344328
000040 7a 66 04 3d 4a b9 12 bd 13 d3 93 3d 78 21 60 3c
       0.03232429 -0.035821237 0.072179936 0.013679855
000050 ac bf 81 bc bd 79 3c bd be 11 3a 3d 20 13 92 3c
       -0.015838467 -0.046014536 0.045427077 0.017831385
000060 e2 ed 2a 3d e6 9b 7b 3d 16 03 77 3d 17 d0 a6 3d
       0.04173077 0.061427973 0.060305677 0.08145159
000070 d4 29 95 bc 24 f5 fe 3c 00 23 8c 3c 60 2a c3 bc
       -0.018208422 0.031122752 0.017106533 -0.023823917
000080 60 6c aa 3b 44 76 9c 3c 94 1b 95 bd e4 eb ad bc
       0.0052009076 0.019099362 -0.07280651 -0.021230645
000090 52 94 39 3d b0 e7 08 3c 4f 3a a0 bd e6 cc 5d 3d
       0.045307465 0.00835602 -0.078236215 0.054150485
0000a0 41 76 ac bd 39 5f 4b bd fd 8d 8a bd 8f 2b 86 3d
       -0.08420993 -0.04965136 -0.06765363 0.06551277
0000b0 66 27 fc bc fa 58 1c 3d 8c 79 69 bd 00 bd 31 3a
       -0.030780505 0.038170792 -0.05700068 0.00067801774
0000c0 f4 6d 97 bd 20 69 81 bd 7a dd 6c 3d b5 11 ac bd
       -0.07394019 -0.06318879 0.057828404 -0.08401815
0000d0 40 1d ad bc 21 95 9e 3d d0 28 8f bb 97 89 a8 3d
       -0.021132112 0.07743288 -0.004368879 0.08229368
0000e0 23 33 36 bd 28 87 06 3c 1a af 69 3d 8d 57 ac bd
       -0.04448236 0.008210935 0.057051755 -0.084151365
0000f0 42 12 e6 bc 04 e6 cd 3c 10 ed fe 3b 8a c5 6d 3d
       -0.028084878 0.025134094 0.007779725 0.058049716
000100 c8 0d 42 bc 2b ab 9f bd 3e 9b 32 3d 7d da 96 3d
       -0.011844106 -0.077963196 0.04360508 0.07365892
000110 8e f0 73 3d 60 26 20 bc 50 de af bc 00 e1 a6 39
       0.059555583 -0.009774774 -0.021468312 0.00031829625
000120 e6 66 69 bd 9e 45 4e bd 4d 92 77 bd 9e 61 84 bd
       -0.056982897 -0.05035936 -0.060442258 -0.064639315
000130 a1 51 ae bd 06 08 f4 bc 14 f6 e6 bc 00 8b d0 bb
       -0.08511663 -0.029788982 -0.028193511 -0.0063642263
000140 07 f8 9e bd 52 f3 9c bd 30 5b 9d 3b f3 01 0a bd
       -0.07762151 -0.07663597 0.00480213 -0.033693265
000150 b0 c8 02 bd e6 bd 41 3d fe a9 7b bd e2 cf 78 3d
       -0.03192967 0.047300242 -0.061441414 0.060745127
000160 d4 62 ae bc 9e 49 29 3d f0 19 10 bc b7 c2 3e bd
       -0.02128736 0.041329972 -0.0087952465 -0.046572413
000170 cc 91 0f bd 88 79 74 bd 24 d7 a3 3c b4 1e 8d bc
       -0.035051152 -0.059686214 0.020000048 -0.017226554
000180 60 54 c1 3b 80 82 f0 3b 2a 4b 25 3d 7f fb 5b bd
       0.005899951 0.0073397756 0.040354885 -0.053706642
000190 cc ff 3b bd de c3 42 3d a4 a8 84 3c 8a 87 fd bc
       -0.045898244 0.047550075 0.016193695 -0.03094842
0001a0 60 13 79 3b aa 32 1e 3d 7a 40 59 3d 04 eb 4c bd
       0.0038005933 0.038622536 0.053040005 -0.050028816
0001b0 cf ba 59 bd 00 a8 8c 3a c8 d9 3a bc ca 67 82 bd
       -0.05315667 0.001073122 -0.011404462 -0.063674524
0001c0 d8 b2 ad bc 4e cb 94 bd 2b a1 8f 3d 29 69 a1 3d
       -0.021203443 -0.0726534 0.07013162 0.07881386
0001d0 00 0b 97 39 30 59 c8 bb 01 7a 95 bd dd 5b 49 bd
       0.0002880916 -0.0061141476 -0.07298661 -0.049159873
0001e0 df 75 32 bd 60 ea a2 bc 07 c5 a2 bd a8 7c b3 3c
       -0.043569442 -0.01988715 -0.07947736 0.021910027
0001f0 1e 4f 02 3d 00 0c 77 3b 15 6d 0d bd e2 65 58 bd
       0.031813733 0.0037696362 -0.034527857 -0.052831538
000200 08 70 60 3d 16 ec 42 bd 41 10 0c 3c 88 0a 77 3c
       0.05479434 -0.04758843 0.008548797 0.015078194
000210 40 18 1a bc 20 71 86 bb c6 5f 3b 3d c6 f3 75 3d
       -0.009405196 -0.004102841 0.045745634 0.060046934
000220 90 0d c4 bb 5a ce 17 3d 05 47 6d 3b 73 32 90 3d
       -0.005983062 0.037062027 0.003620566 0.070408724
000230 24 4b e2 3c 5f ab c3 3c de cf 93 bd 80 5a 6a bb
       0.02762372 0.023885427 -0.07217382 -0.0035759509
000240 e1 68 4f bd 7b 33 84 bd 3c b6 d6 bc d2 df 83 bd
       -0.05063713 -0.064551316 -0.026209943 -0.06439175
000250 6c 0a 61 bd 9a 66 a3 bd 59 98 2d 3d d6 9d 01 bd
       -0.05494158 -0.07978554 0.04238162 -0.031644665
000260 20 0e 5c bb bc 0c 51 3d 34 70 be bc 00 31 e1 ba
       -0.0033577755 0.051037535 -0.023246862 -0.0017180741
000270 25 60 ce 3b 16 4d 65 bd f8 1b 5b bd 16 93 ed bc
       0.0062980824 -0.055981718 -0.05349347 -0.0290008
000280 80 fb 20 3c f2 64 99 3d 9b e5 12 bd c4 96 be bc
       0.009825587 0.07489957 -0.0358635 -0.02326525
000290 28 57 b0 3c 2e e1 01 3d 22 9b 46 3d 39 70 27 3c
       0.021525934 0.03170889 0.04848779 0.010219627
0002a0 56 c5 a2 bd c2 a8 56 3d 63 b0 10 bd 3f 34 ab 3d
       -0.07947795 0.052407034 -0.035324465 0.083595745
0002b0 0e b1 7f 3d bc 18 63 bb 36 56 5b 3d ff 64 a1 3d
       0.062424712 -0.0034652194 0.053549014 0.078805916
0002c0 af b5 80 bd 9f 07 70 bc 70 fe 6c 3c 5c 7b 88 3c
       -0.062846534 -0.0146502545 0.0144649595 0.016660385
0002d0 70 e3 6d 3c 85 91 b2 bd ee da 6c 3d 88 83 2d 3c
       0.014519557 -0.08719162 0.057825975 0.0105904415
0002e0 ae f1 36 3b 4d ff ec 3b 60 c4 a4 bd 98 2e 7d 3b
       0.0027915048 0.0072325827 -0.08045268 0.0038632508
0002f0 a9 d8 2d bd d1 02 84 3d 47 1d 7f bd 3a 31 12 bc
       -0.04244295 0.0644585 -0.06228378 -0.008922869
000300 88 e1 85 bc 55 2a 25 bd 80 54 7d bd e1 fd af bd
       -0.016342893 -0.040323574 -0.061848164 -0.085933454
000310 e5 fe 0a 3d 1f e1 50 3d ec 68 f3 bc aa bb 46 bc
       0.033934493 0.050995942 -0.029713117 -0.012129704
000320 13 98 6a 3d 0e a9 75 3d 7d fa 1d 3d 7d 0f be bd
       0.057273936 0.059975676 0.038568962 -0.09280298
000330 6e b1 e5 bc 65 32 9d 3d 18 27 9f 3c 0c 74 f4 3c
       -0.028038707 0.076756276 0.019427821 0.029840492
000340 b5 a4 6a bd 30 de c1 bc 20 4d 18 bc d5 84 93 3d
       -0.057285983 -0.023665518 -0.009295732 0.0720307
000350 c8 fd bd bd 35 75 8b 3d 72 24 71 bd 0b 97 49 bd
       -0.092769206 0.06809465 -0.058872648 -0.04921631
000360 94 46 87 bd 9a 1f 18 3d 7e 74 a7 bd 04 0a d1 3c
       -0.066052586 0.037139513 -0.08176516 0.025517471
000370 ec 6e a1 bc fd af b6 3c 95 a1 e1 3b cf c9 32 3d
       -0.019706212 0.022300715 0.006885717 0.04364949
000380 ad ab a1 3d 3d c1 b4 bd 66 ab 91 3d ac 5c 02 bc
       0.07894073 -0.0882592 0.0711277 -0.007956665
000390 67 2c 40 bd 0a cf a0 3d 56 9a 81 3d 3b bd a9 3d
       -0.046917345 0.078519896 0.06328265 0.08288046
0003a0 20 33 42 3b d8 91 80 3c a2 b8 ac bd 05 b4 a3 3d
       0.0029632524 0.015694544 -0.084336534 0.079933204
0003b0 a8 27 01 bc 25 38 b4 3d 39 6d 81 3c af 72 71 bd
       -0.00788299 0.08799771 0.015799152 -0.05894726
0003c0 80 99 cf 3b 22 8b 49 3d 9f 52 d8 bc 60 cc 9f 3d
       0.0063354373 0.049204953 -0.026406584 0.07802653
0003d0 92 d9 ba bd 52 d2 8b bd 7f b6 99 bd 09 78 2d 3d
       -0.091235295 -0.06827225 -0.075055115 0.042350803
0003e0 8b 12 98 bd 6c 7e 9e bd 0d d7 a7 3d 40 fe c7 bc
       -0.07425412 -0.07738957 0.081953146 -0.024413228
0003f0 f8 b8 59 bb 7c c2 98 3d f9 18 8d 3d 95 d0 46 3c
       -0.0033221822 0.0745897 0.06889529 0.012134691

bias f4 [256]
000000 82 5c 2c 3d ec d6 15 3b 08 2f 8d bd da 99 74 3d
       0.04208041 0.00228637 -0.06893736 0.059717037
000010 2b 5f fd bc 82 20 77 3d 47 24 b3 3d 89 4e 19 3d
       -0.030929169 0.060333736 0.08747154 0.037428413
000020 ff 6f 8e bc 77 83 97 3d 62 d0 2e 3d 3c 6e a9 ba
       -0.017387388 0.07398122 0.042679198 -0.0012926529
000030 a8 8a 56 3c 5b ac e0 3b 01 ea ca 3c dc 73 69 bc
       0.013094582 0.006856484 0.024769785 -0.014248814
000040 b9 cc 73 bc bd 57 02 3d 1e 6b 08 3c e8 ce 24 bd
       -0.014880353 0.031821955 0.00832632 -0.040236384
000050 e0 17 70 bc 12 e6 27 3d 93 3d aa bd f1 a1 8c 3d
       -0.01465413 0.040990897 -0.083125256 0.06866825
000060 69 b9 99 bd a6 48 84 3c a4 27 e5 3c a3 db 0d 3d
       -0.07506067 0.016147923 0.027973004 0.03463329
000070 90 e1 95 3d d0 c5 44 3c 88 b9 85 bd 2d a6 a2 3d
       0.07318413 0.012010053 -0.06529528 0.07941852
000080 a5 43 fc 3c f2 d9 64 3d ce b2 39 3d 45 f7 07 bd
       0.030793974 0.05587191 0.045336537 -0.0331948
000090 ca 36 5a 3d da bf 73 3d 4e 23 3e 3d 2d 35 04 3b
       0.053274907 0.059509136 0.046420388 0.0020173297
0000a0 4e 38 3e bc 88 34 62 3b bb b0 8f 3d 92 82 10 3d
       -0.011610104 0.0034516174 0.070161305 0.03528077
0000b0 e0 75 75 3b 17 34 1a bd 96 7e 43 3d ca 99 db 3c
       0.0037454292 -0.037647333 0.047728144 0.02680673
0000c0 10 8c 79 bd ae 2b 15 3d b3 dc 6d bd 31 e6 a3 3d
       -0.06092459 0.03641861 -0.058071803 0.0800289
0000d0 db 9b 90 bd 4a 8e 6a bd 62 5f 20 3d 78 6a 60 bc
       -0.07060977 -0.057264604 0.039153464 -0.013697259
0000e0 a2 e3 7d 3d bc bb d4 3c 78 40 65 3c 20 c9 a9 bc
       0.061984666 0.025968425 0.013992421 -0.020725787
0000f0 c8 96 9f 3d 04 ae b0 bd 34 26 37 3c 23 2a 96 bd
       0.07792431 -0.08626941 0.011178542 -0.07332256
000100 14 84 ac 3c 9c a5 c0 3c b2 13 88 bd 86 a1 ed bc
       0.021059074 0.023516469 -0.066443816 -0.029007684
000110 b3 2a 06 3d 8e 34 6a bd 77 67 1b bd 48 ff 59 3d
       0.032755565 -0.057179026 -0.03794047 0.05322197
000120 2f 72 94 3d 5c 8b 87 3d 4b c2 ae 3d 10 dc 9d 3b
       0.07248341 0.066183776 0.08533152 0.0048174933
000130 45 27 8d 3d 69 b4 31 bd 44 4c a3 3d 62 fd 26 3d
       0.06892256 -0.043384943 0.07973531 0.04076899
000140 78 7e 60 bd a0 0a 0a 3d 6d 46 96 bd c5 c6 a8 3d
       -0.05480811 0.03370154 -0.073376514 0.08241037
000150 37 f1 c1 bc 83 45 ab bd e1 fc 53 3c 05 15 1e 3c
       -0.02367459 -0.08362868 0.012938709 0.009648566
000160 09 0b 99 bd 98 51 04 bc bb 65 85 bd e9 56 b1 3d
       -0.07472808 -0.008076094 -0.06513544 0.08659155
000170 5a 7e 2f 3d 80 ce cf bc 28 af a3 3d ba cb 8e bd
       0.042845108 -0.025367022 0.07992393 -0.069724515
000180 ac c9 c7 3c 4a ed b0 3d 88 ba ee bc d1 21 fe 3c
       0.024388157 0.08639009 -0.02914168 0.031021984
000190 20 5e cc bb a8 c6 58 3c 7e 86 3a 3d ae a6 5f 3d
       -0.0062368065 0.013230957 0.045538418 0.054602318
0001a0 90 73 a6 bb 38 50 2e bc 0f 86 50 bd 8b fb 67 bd
       -0.005079694 -0.010639243 -0.0509091 -0.056636374
0001b0 bd 27 9f 3d dd 5b b3 bd 03 cf 3c bd 73 5e de 3c
       0.07771251 -0.08757756 -0.04609586 0.027144646
0001c0 30 e9 8b bb 99 12 8d 3d 08 bd 3f 3d 91 02 b0 bd
       -0.0042697415 0.06888313 0.046811134 -0.085942395
0001d0 57 67 bd bd d7 c7 fa bc 5e a7 f4 bc 73 83 5a bd
       -0.09248226 -0.03061287 -0.029864963 -0.053348016
0001e0 b4 89 8e bd c2 6c 1c bd 54 80 b3 bd 93 12 90 bd
       -0.069598585 -0.038189657 -0.08764711 -0.07034793
0001f0 e4 ff d7 3c 72 1d aa bd ed 77 09 3c ef 9b d3 bc
       0.026367135 -0.083063975 0.008390409 -0.02583119
000200 ee 41 8e 3d f9 c8 4b bc 35 db fe bc 7a 82 8d bd
       0.06946169 -0.012438052 -0.031110385 -0.06909652
000210 37 bd f2 3b 81 8b af bd da 77 2f bd ce 58 14 bd
       0.00740781 -0.0857153 -0.04283891 -0.036217503
000220 20 d7 df 3b 3a 48 44 bb 83 77 a2 3d 28 6f 4b bc
       0.006831065 -0.0029950277 0.07932951 -0.012416638
000230 fb e0 ac bd b9 c8 c3 3b a6 16 9d bd b6 3b 59 3d
       -0.08441349 0.0059748557 -0.076703355 0.05303546
000240 f3 13 28 bc b8 3c 57 bd 78 b2 87 3b a1 7e e0 3c
       -0.0102586625 -0.05254814 0.004141148 0.027404131
000250 f1 85 60 3d b6 db 60 3d 5d ea 99 bd 5f 77 d4 3c
       0.054815236 0.054897033 -0.075154044 0.025935827
000260 06 f9 fa bc 40 fd a5 3b e0 9c 84 bd 79 6f f6 bc
       -0.030636322 0.00506559 -0.06475234 -0.030082451
000270 61 cf 81 3d aa f8 12 3d 00 40 69 3b 18 9c 71 bd
       0.063383825 0.035881676 0.0035591125 -0.058986753
000280 90 e0 d5 3c 76 ad a3 bd 90 95 24 bc 70 aa 5e bc
       0.026108056 -0.079920694 -0.010045424 -0.01359044
000290 46 c7 f4 bc 1d 98 b2 3d 96 16 36 3d 6a a0 5d bd
       -0.029880177 0.087204196 0.044455133 -0.05410806
0002a0 c6 45 8c 3b 24 d0 e7 3c 52 f8 b5 bd 7e f6 56 3d
       0.0042807786 0.028297491 -0.08885254 0.052481167
0002b0 5c 65 ee bc 40 9a 2d 3c 77 eb 0a 3d 80 e2 22 3b
       -0.029101066 0.010595858 0.033915963 0.0024854243
0002c0 1e 00 11 bd a7 0a 39 bd 83 31 86 3d b0 19 b6 bc
       -0.035400502 -0.045176174 0.06552412 -0.022229046
0002d0 42 64 b9 3c bd 3d af 3d 28 0d d9 bc 77 9c 90 bc
       0.022630814 0.085566975 -0.026495531 -0.017652733
0002e0 55 54 6e bd 43 85 f5 bb b9 0e 45 3d cf d7 64 bd
       -0.058185894 -0.0074926927 0.048109744 -0.055869874
0002f0 6b e2 48 bd 4d 6a b3 3d fe 36 77 3d 16 b1 21 3d
       -0.049044054 0.0876051 0.06035518 0.039475523
000300 a4 b3 c3 3c c4 05 b0 3a 7c 61 23 bc be 6f 18 3d
       0.02388937 0.0013429453 -0.009971973 0.03721594
000310 ee 3d 0a bd 00 be 28 b9 a5 9d aa 3d 17 2b 8d bd
       -0.033750467 -0.00016092509 0.083308496 -0.06892984
000320 12 90 5a 3d 89 e8 38 bd 81 8e be bd 12 07 14 bd
       0.053360052 -0.045143638 -0.09304524 -0.036139555
000330 00 22 5b bc 49 87 94 3d ce de 61 3d 98 50 86 3d
       -0.013374805 0.07252366 0.055144124 0.06558341
000340 00 95 cc bb 6f 83 ee bb a3 14 ac bd 00 4e b8 3a
       -0.006243348 -0.0072788517 -0.08402374 0.0014061332
000350 63 9f 24 bc 75 95 82 3d 44 72 32 bd 90 c2 99 bd
       -0.010047766 0.06376163 -0.043566003 -0.07507813
000360 ee 8f 9f 3d 77 dc 45 bc f5 26 6d bc c9 0e df bb
       0.07791124 -0.012076489 -0.01447462 -0.0068071824
000370 3a 94 28 3d b7 0d a8 bd 38 5d 29 bc 46 2a 78 bd
       0.041156985 -0.08205741 -0.0103371665 -0.06058719
000380 87 e5 2b 3d e2 7e 79 bc 9d c3 4c bd c2 9d e6 bc
       0.04196694 -0.015228005 -0.04999124 -0.028151397
000390 ce 61 90 3d c8 f9 76 3c 6e 63 75 bd ec 7c ae 3c
       0.07049905 0.015074201 -0.059909277 0.021299802
0003a0 a0 d7 0a 3d 4e 54 56 3d 5d 4c 14 bd 0c 1c ef bc
       0.033897042 0.052326493 -0.03620564 -0.029188178
0003b0 aa 6e 4b 3d d8 eb 9a bc 17 b7 fa bc c0 8d e9 bc
       0.049666084 -0.018911287 -0.030604882 -0.028509974
0003c0 fd 4f 9d bb c6 3f 8f bd f9 cd 51 bd b8 66 1b bc
       -0.004800795 -0.06994586 -0.05122182 -0.009484939
0003d0 fd d5 42 3d c8 22 04 3d eb 92 0c bd 4b 43 8d 3d
       0.047567356 0.032259732 -0.0343198 0.06897601
0003e0 8b 39 96 bd ae 46 95 bd 2b b5 49 bd 12 59 f9 bc
       -0.07335194 -0.07288872 -0.04924504 -0.03043798
0003f0 79 95 53 bd dc 53 bf bd 60 67 7c 3c 10 e6 96 bb
       -0.05165622 -0.09342167 0.015405506 -0.0046050623

weight f4 [3, 256]
000000 e6 0f 76 3d 54 35 4a 3d 34 02 12 3d 16 e0 28 bd
       0.060073756 0.049367264 0.035646632 -0.04122933
000010 98 5e 5e bd 0c eb ff 3c 80 ea 08 bc d5 3f 6a bd
       -0.05428943 0.031240009 -0.00835669 -0.05718978
000020 7d 27 8a bc d4 c5 21 bd 40 b1 51 3d 7c 16 d6 bc
       -0.016864533 -0.039495304 0.05119443 -0.026133768
000030 c0 03 ac 3c e7 1d ab bc 6c 4f a7 3c 2d 06 fc 3c
       0.020997882 -0.020888282 0.020423613 0.030764664
000040 90 84 13 3b 45 91 10 3d 31 db a4 3b 8e 2a 19 bd
       0.0022509433 0.03529479 0.0050310125 -0.0373941
000050 d0 80 8a bc fc af 95 3c 30 22 da 3b 10 be d6 3c
       -0.016907126 0.018272392 0.0066569075 0.026213676
000060 80 4e c5 ba c8 3c ef ba b8 a2 3e bd 9d 5b 62 3d
       -0.0015053302 -0.0018252367 -0.0465419 0.05526315
000070 2f ac 17 3d 9f 65 30 3d 2c 4a dd bb 18 ac 38 3c
       0.03702944 0.043065663 -0.0067532267 0.011271499
000080 35 f3 89 3c 5c 9d 57 bd 30 6c d3 bb b9 ef 42 3d
       0.016839603 -0.052640304 -0.006452106 0.0475919
000090 82 c3 6f 3d 40 07 25 3c 92 0f 2e 3d 66 ca 93 bc
       0.05853606 0.010072529 0.042495318 -0.018040847
0000a0 dc 14 13 bd f2 cf 63 bb 76 5a 55 bb 77 64 f6 3a
       -0.035908565 -0.0034761396 -0.003255514 0.0018798251
0000b0 3e 3b 64 3d 34 34 90 bc 2f f5 d4 bc 5a 77 42 bd
       0.05572056 -0.017603017 -0.025995819 -0.047477104
0000c0 0d 1c 29 3d 34 50 ba 3c 6a 68 21 3d 0c c1 ba bc
       0.041286517 0.022743322 0.039406218 -0.02279713
0000d0 10 94 7a 3d 28 67 0f 3c 56 9d 42 3d 44 2e 3c bd
       0.06117636 0.008752622 0.04751333 -0.04594256
0000e0 c0 10 a5 3c d6 d7 48 3d bf f9 50 3d 1c f3 d0 bc
       0.020149589 0.049033962 0.051019426 -0.025506549
0000f0 dc 24 9a 3c d4 59 28 3d f0 de 74 3d 16 0f 1f bd
       0.018816404 0.04110129 0.059782922 -0.038832746
000100 00 62 39 ba 20 28 40 3d 01 9c 5d bd b0 78 2d bc
       -0.0007071793 0.046913266 -0.054103855 -0.010587856
000110 a3 34 1f 3d d0 49 80 bb 4d 4f 13 3d 1b b9 5a bd
       0.038868558 -0.003915049 0.0359643 -0.053399187
000120 9f a9 00 3c a9 de c3 bc 94 dd b0 bc 2c 85 4e bd
       0.007852941 -0.023909884 -0.021590032 -0.05041997
000130 f8 64 77 3c 50 80 69 3d dc a6 95 bc 40 99 58 3d
       0.015099756 0.057007134 -0.018268041 0.052880526
000140 5e eb 26 3d 6c ec 13 bd ea 5e 06 bd 5e 82 75 bd
       0.040751807 -0.03611414 -0.03280536 -0.05993878
000150 b9 f2 39 bd f5 2d 3a bd 0c 30 17 3d a6 b8 18 bd
       -0.045397494 -0.045453984 0.036911055 -0.03728547
000160 90 b1 f9 bc 40 bf d9 bc 36 21 0d bd ee b7 36 3d
       -0.030480176 -0.026580453 -0.0344555 0.044609003
000170 76 a0 6c bc f4 5d 58 bd da ef 7e 3c 1c b9 0b bc
       -0.014442554 -0.052823976 0.015560115 -0.00852802
000180 7a 52 41 3d d0 22 07 3d 0a 84 43 bd b5 16 58 bd
       0.047197796 0.032992184 -0.047733344 -0.05275603
000190 d0 e5 04 bd b8 1d 6c bc 1b 3d 93 bc 1e 26 30 bd
       -0.03244573 -0.014411382 -0.017973473 -0.0430051
0001a0 26 3f 57 3d 00 cc c2 3a 58 0c 1d bd 1c fd ec bc
       0.052550457 0.0014861822 -0.03834185 -0.028929286
0001b0 38 0f fa 3c 4d e6 19 bd f6 21 49 bd 9f 7c 86 3b
       0.030524835 -0.037573148 -0.049104653 0.0041042115
0001c0 10 e4 e1 bb 80 ab af bb b1 ab d1 3c a8 b9 5f 3c
       -0.0068936422 -0.0053610206 0.025594564 0.013655104
0001d0 2e fc 3a 3d bd 6c 0c 3d d8 8e 44 3d ff c7 d4 3b
       0.045650654 0.03428339 0.04798779 0.006493568
0001e0 40 72 bf 3b 28 1f fd ba bc bd 14 bd e2 fe 25 bd
       0.005842477 -0.0019311653 -0.036313757 -0.04052628
0001f0 dd a7 7e bb 23 3e 00 3d a5 44 0a 3d dd 5a 5e bd
       -0.0038857379 0.03130926 0.03375687 -0.054285873
000200 0e 5c 24 3d 54 3f 4c 3d 3f db d5 3c e4 b8 47 3d
       0.040126853 0.049865082 0.026105521 0.04876031
000210 98 e3 c4 bb 82 37 40 bd 80 0f 97 3b c5 1a 32 3d
       -0.0060085766 -0.046927936 0.004610002 0.04348256
000220 da a5 70 bd 1a 87 89 bc c2 47 20 bd e0 27 cc bb
       -0.05875192 -0.016788054 -0.039130934 -0.0062303394
000230 1f a8 ab 3a 16 86 52 3d f6 33 12 bd a0 32 0b bc
       0.0013096369 0.051397406 -0.035694085 -0.008495957
000240 c1 75 4b 3d 42 1c 1b 3d 64 a7 cb bc 33 7d 19 3c
       0.049672846 0.037868746 -0.024860092 0.009368229
000250 22 37 84 3c 22 9b ef 3c d0 a4 31 3c 42 78 07 3d
       0.01613957 0.029248778 0.010842517 0.03307367
000260 a6 06 06 3d 28 a4 03 bc c0 fa 58 bb 4a 49 69 3d
       0.032721184 -0.008034743 -0.0033108443 0.05695466
000270 9e d0 1c bb 34 de af bc 64 e4 63 bd bc bc 64 3c
       -0.0023928056 -0.02146826 -0.055637732 0.013961013
000280 e8 f8 49 3d e0 db 90 3b 20 2e ff 3c 7c 86 06 3d
       0.04930964 0.0044207424 0.031149924 0.032843098
000290 3e 4e 7b 3d ea 42 59 3d 50 00 5d bd d2 6e 71 3d
       0.061353914 0.05304233 -0.053955376 0.058943577
0002a0 25 64 05 bd 5e 6f 56 3d 8f 51 6b bc 6e 46 35 3d
       -0.03256621 0.0523523 -0.014362707 0.04425662
0002b0 b0 fd 0d 3c 70 e9 f5 3b 7f 1e 64 bd 28 f4 94 3c
       0.008666441 0.0075046346 -0.055693146 0.018182829
0002c0 21 19 0c bd 48 14 30 3d 7c 04 5d 3d 80 2e 8d 3a
       -0.034203652 0.04298809 0.053959355 0.0010771304
0002d0 4f 0a 41 3d 3d 00 3e bd 5c 16 e1 bc 84 1f 0a bb
       0.04712897 -0.046386946 -0.027476482 -0.0021075914
0002e0 10 14 54 bc 13 1a 71 bc dd 2b 95 bc 02 6a 14 bd
       -0.012944236 -0.014715689 -0.018209392 -0.03623391
0002f0 e0 63 34 bc 06 58 1b 3d 30 33 df bc 30 9b 9f 3b
       -0.01101014 0.037925743 -0.027246088 0.0048707947
000300 28 89 19 bd 45 c5 0c 3c 38 df 01 bc 74 af b0 3c
       -0.037484318 0.008591955 -0.007926755 0.021568038
000310 18 3c fd 3c 58 f3 bf bc e0 6f fa bc 2f fd 46 3c
       0.030912444 -0.023431465 -0.030570924 0.012145325
000320 90 55 d5 bc 2b 89 1d bb 0c e3 f9 bb ae 98 ce bb
       -0.026041776 -0.0024038057 -0.007625943 -0.006304822
000330 03 71 bd bc 5c 42 2a 3d bc b9 41 3d a1 01 40 3d
       -0.023125177 0.04156719 0.04729627 0.046876553
000340 90 03 48 bd e9 e3 2d 3d c8 23 76 bd 1c 1a 01 3d
       -0.048831522 0.04245368 -0.060092717 0.03151904
000350 3e bc 3f bd dc d8 88 bc de 76 2d bc a0 84 5a bc
       -0.04681038 -0.01670497 -0.010587422 -0.013337284
000360 44 7b 38 bc e0 3f 4d bd c6 da 60 3c a7 db 07 3d
       -0.011259858 -0.050109744 0.013724035 0.03316846
000370 8e a3 3d 3d c2 f9 0e bd 90 18 61 bc a6 9d 55 3d
       0.046298556 -0.034906156 -0.013738766 0.0521523
000380 5d ce 18 3b b6 c6 a6 bc d8 93 5f 3c 7c 77 ad bc
       0.0023316361 -0.020358425 0.013646089 -0.021175139
000390 91 f9 b8 bc 26 2c f9 bb 30 c5 5b bd 44 cb f0 3c
       -0.02257994 -0.00760414 -0.05365485 0.0293938
0003a0 04 e8 15 3d 48 b8 bc 3c 5e ff 33 3d 66 ec 58 3d
       0.03659822 0.02303709 0.04394471 0.052959822
0003b0 48 4e 56 3c 0c 8e a2 3c 13 66 46 3d 01 62 0e 3c
       0.013080187 0.019843124 0.04843719 0.008690358
0003c0 bf 75 4e bc 9c 5e 17 bd 7c 88 8c bc 9c b3 f8 bc
       -0.012601315 -0.03695546 -0.017154925 -0.030359082
0003d0 bb f8 63 3d 70 54 1a bc 32 76 24 3d 34 3d fd 3c
       0.05565713 -0.0094195455 0.040151782 0.030912973
0003e0 98 f3 8d 3c b0 61 91 3c 1c c9 38 3d 18 2e af bc
       0.017328069 0.017746776 0.045113668 -0.021384284
0003f0 1a 29 0b 3d b6 f3 8f 3c 36 7a 3b bd 50 db 64 bd
       0.033974744 0.017572265 -0.045770846 -0.055873215

bias f4 [3]
000000 cc 7b 76 bd d9 6c cb bb 9b 56 c2 bc
       -0.060176656 -0.006208044 -0.023722937
