model/model_entire.pth (torch, 11581 bytes, 4 tensors)

weight f4 [256, 3]
00000000: bd6f de3d 2c85 14bf 52d4 b2be fbe4 44be
00000010: fbf3 80bf 3f6d 47be 7b7d 193e 7256 14bf
00000020: d48d 2bbe 5b3c 463f b4dd 843e e9b0 e73e
00000030: b6f1 70bd 4889 51bf 75ad 0ebe 178a 5bbf
00000040: 72b3 0bbe 13f3 9ebf 650b 153e 6ef2 81bf
00000050: aaf6 4dbf 10b4 163e 2230 d8be 0b33 6ebf
00000060: 714e 0b3f dbfd 4c3e 434e 293f 42e4 cf3e
00000070: 8ab3 d53e c4ed fa3e 6894 ff3e 5c4a 913e
00000080: 021a 833e 5cb0 183d 3c55 143f fe2b 653f
00000090: c0d2 d33d ea61 d13e d7d6 243f a771 4a3f
000000a0: e542 143f 1d94 d73d 736d 4fbf f12e 4bbf
000000b0: 5f71 82be d620 9d3f 1558 533e 5ea5 763f
000000c0: 3b59 16be 581b ddbe 0d58 f9be 8f43 4b3f
000000d0: 2dac c33d b777 b83e af22 5ebe d82d 0dbd
000000e0: 6d24 e1be e644 f4bd 4b6b 913e 0737 1d3f
000000f0: dacc eb3e 3dd1 a53d 6872 293f fe0b 07bf
00000100: f47b 8abd 94eb dbbe 2544 81bf 2994 9fbe
00000110: fac6 fcbd 0a92 94bf 7ad0 89be 952b 0dbf
00000120: 7314 2dbf 8aad 3cbc b340 36bf 9e95 09bf
00000130: c47f b6bd 4a14 e4be 9c40 c0be 8571 02be
00000140: 7b8e c6be ad8d 653e 7c8e e6be 040b 9dbe
00000150: 20a6 643e a00f a43c 902c d93e 049b 74bf
00000160: 81ca 4fbe 318c 1bbe 0005 903e f8e0 8b3e
00000170: 86d3 7b3f 4c60 27be 384f 143f 00a4 8b3f
00000180: 39cf 623e 11be 493f deed 9c3e 5e68 dc3e
00000190: 6c0e ba3e 0dd2 893e a1e3 773e 179f 613e
000001a0: 5601 1e3f a70a 35bf ab05 a8be 7167 afbd
000001b0: 0cae f93e d0ed b03d b050 833e 7fdd 4b3d
000001c0: 617e 51bf 4cd4 a6be 43eb 6d3f fde5 363f
000001d0: d938 b93d 4cf9 023e e01c 1b3e 5843 103e
000001e0: ffbc ac3e 3300 053f d94e 53bc f0ce 04bd
000001f0: c069 e0be 8cbe 7ebe 15ae 01bf 288e b0bd
00000200: cc99 6fbf 1888 523e 38a2 5bbf 1da4 3cbf
00000210: 741a b63e 3e39 d23e 00ff d63c e8c7 ab3d
00000220: deaf 073f 8869 b83e 5713 d63e f1e3 1d3f
00000230: 33ca 4cbc d70f a3bd 21e8 033e 7115 283f
00000240: 6049 003e 08db 1abf b5e3 81be b191 873d
00000250: 4cf9 153c 7d24 163f 781f 533e 0af2 cebe
00000260: 6242 d1be 729e 68be 32fc babe 0a1b 10bf
00000270: cd15 5bbe 9602 4bbd 0f7a 5dbe 7e3e 893e
00000280: 194a d03c cb9d e13e 8082 5fbc 0e75 e2be
00000290: 12b7 cebe 7268 e7be 549d 25be 3cb1 0dbe
000002a0: 5f54 8e3e f02e 5cbf a811 57bf 6627 2c3f
000002b0: ceec ec3d f0a4 023e f888 b13e dc79 f13e
000002c0: 5919 c23d eb6a 54bf 1c30 2ebf eb83 a5bd
000002d0: 206f 86bd 0a86 31be cc9f 62be ef94 333f
000002e0: 756d d83d 6542 2d3d 5c2e 90bc b802 d7bc
000002f0: 6a05 24bf 303b debd 564d bfbd 129b 34bf
00000300: f40a 19be f0bf a9be 82d4 04bf 851f eebe
00000310: 4cc2 0ebe f518 80bf 8490 523d 3ad8 b1bd
00000320: b3e9 28bf 98dd 973e db4a 243e ebf9 7e3f
00000330: d599 063f 79e2 ad3c 7ce0 2c3f 2b93 513d
00000340: 26e6 3d3e 54db 2a3f b8ac 303e 6394 8e3e
00000350: 4f18 243e fc54 ce3e 6427 fa3e 6caf 9d3e
00000360: 99d9 273f 5ba8 2a3d 227d 1c3f 9b48 953f
00000370: 73e7 4d3e 39b6 5a3f 69e5 853f 00e6 fc3e
00000380: 5879 933e 1460 ae3d 61a9 88be eaa6 17be
00000390: a917 0b3f 6b24 803e afaa 133f 3c82 53bf
000003a0: 02e5 67bf 4912 3bbe c543 41bf a476 cbbd
000003b0: 563a a6be 0c4e a43e 9c73 0b3f 9cdf 8c3e
000003c0: ba43 863e 5468 033e 669b d43e e12f fcbe
000003d0: 9460 aabe 877c a8be 2980 c93e 7a7f 273f
000003e0: d053 503e 6ff3 f03e 938d 733e f209 d33c
000003f0: 04a6 2f3e 4c65 bcbe 36f9 11bf 4c04 68bf
0.10861156 -0.58015704 -0.34927613 -0.19227974 -1.0074457 -0.19475268 0.14989273 -0.57944405
-0.16753322 0.77435845 0.25950396 0.4525216 -0.058824264 -0.818501 -0.13933356 -0.85757583
-0.13642672 -1.241793 0.14555128 -1.0152109 -0.80454504 0.14717126 -0.42224222 -0.93046635
0.5441657 0.20018713 0.6613504 0.40603834 0.4173854 0.49009526 0.49917912 0.28377044
0.2560578 0.037277564 0.5794256 0.8952025 0.10342932 0.40895015 0.6439032 0.7907967
0.5791457 0.10526297 -0.8102638 -0.793685 -0.2547712 1.2275646 0.2063907 0.9634608
-0.14682476 -0.43184924 -0.4869999 0.7939996 0.09554324 0.36028835 -0.21692918 -0.034467548
-0.43973103 -0.11927204 0.2840217 0.6141209 0.46054727 0.0809655 0.66190195 -0.52752674
-0.067619234 -0.4295317 -1.0098921 -0.31167725 -0.12342639 -1.1607068 -0.26916867 -0.55144626
-0.6760933 -0.011515984 -0.71192473 -0.5374392 -0.08911088 -0.4454673 -0.37549293 -0.12738617
-0.3878058 0.22417326 -0.45030582 -0.30672467 0.22328997 0.020026982 0.4241681 -0.95549035
-0.20292093 -0.15190198 0.28128815 0.27320075 0.98369634 -0.16345328 0.5793338 1.0909424
0.22149362 0.78805643 0.30650228 0.43048376 0.36339128 0.2691807 0.24207927 0.22033344
0.6172079 -0.7071938 -0.32816824 -0.08564652 0.487656 0.08639109 0.25647497 0.049771782
-0.81833464 -0.32583845 0.92937106 0.71444684 0.09044046 0.12790412 0.15147734 0.1408819
0.33737943 0.5195343 -0.012897217 -0.032423913 -0.4383068 -0.24877375 -0.50656253 -0.08620864
-0.9359405 0.20559728 -0.857944 -0.73687917 0.35567057 0.41059297 0.02624464 0.083877385
0.5300273 0.36018014 0.4181163 0.61675936 -0.01249938 -0.079620056 0.12881519 0.65657717
0.1252799 -0.60490465 -0.2536904 0.06619585 0.009153675 0.58649427 0.20617473 -0.40419036
-0.4087096 -0.22716692 -0.36520535 -0.5629126 -0.21395035 -0.049563013 -0.21628593 0.2680549
0.025425958 0.440657 -0.0136419535 -0.4422993 -0.40374047 -0.45196873 -0.16173297 -0.13837141
0.27798745 -0.8600912 -0.84011316 0.6724762 0.115686044 0.12758231 0.3467481 0.47163284
0.09477491 -0.82975644 -0.6804216 -0.08081802 -0.06564164 -0.17336288 -0.2213127 0.7014913
0.10567752 0.042299647 -0.01760023 -0.026246414 -0.6407076 -0.10851133 -0.093409225 -0.7054912
-0.14945585 -0.3315425 -0.5188676 -0.46508422 -0.13941306 -1.0007616 0.051407352 -0.0868382
-0.65981597 0.2966125 0.1604418 0.99600095 0.5257848 0.021226155 0.67530036 0.05116574
0.18544826 0.6674092 0.17253387 0.27847585 0.16024898 0.40299213 0.48858178 0.307979
0.655664 0.041664463 0.6112844 1.1662782 0.20107822 0.854343 1.0460635 0.49394226
0.28803515 0.08514419 -0.26691726 -0.14809766 0.5433298 0.25027785 0.5768232 -0.82620597
-0.90583813 -0.18268694 -0.75494033 -0.09934738 -0.32466382 0.32090795 0.5447328 0.2751435
0.26223546 0.12832767 0.4152481 -0.4925528 -0.33276808 -0.32907507 0.3935559 0.6542889
0.20344472 0.47060725 0.23784475 0.025761578 0.17153174 -0.36796033 -0.5702089 -0.90631557

bias f4 [256]
00000000: 12ef 2f3d 0865 11bf 1bc0 12bf c8c7 853e
00000010: 4b5e 05be abbe 95bf 4eb5 83bf 6011 013e
00000020: c053 a23c d08d cb3e 30da d8be d644 d23e
00000030: 77ee 603f 3737 083f 8011 34bf 7dc2 df3e
00000040: 4c5d 2abe e04e d93e 0171 f1be 8568 2cbe
00000050: 6834 2a3e bf4c 1fbf 79f3 8bbd 8719 53bf
00000060: c4a4 efbe a4db a8be ee5d 19bc 1f10 a0bc
00000070: 7e1f 3dbe 1438 7dbe 06f2 163f 6d91 1b3e
00000080: bbf9 5a3f 3591 6b3c dff7 403d 82dd 49be
00000090: 6482 833e 9f20 bebd 20d5 6ebe bc0d ff3e
000000a0: 9565 debe 8241 babe a6df 12bf 16c9 17bf
000000b0: 6cb5 5f3e f003 2f3e 1671 a9be b854 bd3e
000000c0: cad0 f53d d412 343f 48e7 f43d a5a7 0abe
000000d0: c1f9 04bf cadb 883e 203d 65be ebbf 9d3e
000000e0: f3ee e23e c94a c0bc 29a9 ad3e 69ee 2dbe
000000f0: c4d6 e4be c7dd 3b3f d659 e5bd d6a5 b13e
00000100: 9723 ffbe 2e8f 15bf 9b92 51bf 437c 32be
00000110: a614 b6ba 4fa1 bb3e 1474 efbe c89d cebe
00000120: 40e5 443f 7d24 66be ff33 f63e 61dc 00bf
00000130: 21c8 fb3e f049 27bf ed36 16bf 4de0 8ebe
00000140: 7ae5 c93e d944 71bf 1660 c53a c5ff fe3e
00000150: e86b 9cbd e303 e9bd fe3b 013d a8c3 653e
00000160: 9fa6 77bd 0a42 3abf 392f 3b3e 56b9 bb3e
00000170: 0966 f3be 80da 84bd 023d 09be ae78 bf3e
00000180: 3631 c53e 1ff2 103f c619 23be 7f8b e7be
00000190: a4f9 f2be 835e bc3e 378c 013f 2093 ccbc
000001a0: 2cd2 c3bd 96b2 8f3e cdaf a0be 0e76 973e
000001b0: b8df ed3e 7b58 0bbf f6fd 693e 45f8 4b3e
000001c0: a069 6e3d 5c4a 99be 489e 553f e048 aa3d
000001d0: b0a2 d03d a1b9 093f 7774 00bf df30 17bf
000001e0: 36ca 293e ff64 823d d9e2 da3e 5bed e63e
000001f0: 0b20 99be efa1 bcbe 5e7a 23be 448f fb3d
00000200: 56bf 48be 801a 8fbd 5963 31be fefe cd3e
00000210: 9e81 33be da10 a3be f8f9 c3be 94e7 d83e
00000220: 846a 3e3e 2f29 10be 1218 ac3d 8c70 36bf
00000230: 3c7d a53e 636a bfbe b18c 5abc 8924 823e
00000240: 7de1 3fbd c47c 203e 8ab4 33be 0530 bb3d
00000250: ecf6 0c3e 58ab 163f 712e b93d 14b2 123e
00000260: c0f2 06bf dcfb b0be 5ed8 a93e b832 0f3e
00000270: 96ef bf3e 0103 3a3f 768c 94bc 70b8 983e
00000280: 0062 4ebb 3d14 08bc a267 87be 2af7 eabd
00000290: c35a ef3e ac66 71be e206 103e 24e5 b73e
000002a0: 1252 dabd 312a 99be 41c3 563f 6eaf b43d
000002b0: 08b8 b5be 7a73 d33e ee66 303c f187 b03e
000002c0: b2e3 4dbf 1fa7 a33e c551 c93d 7498 f7be
000002d0: 9342 c8be 6901 463e 40a0 a43e a852 d1be
000002e0: 779f a0be f08a d93e 84f8 7d3e 7a64 d93d
000002f0: 4fcd 5cbe 2722 0fbf 5e87 463d 21d8 4fbf
00000300: d4e0 61bf 7569 62bf 386a dc3d 6aa5 43be
00000310: bfc4 d3be b8d7 f7bd bee7 01bf 5fd9 0d3e
00000320: c029 ea3e 646a 153d 978f 5b3d 3c9b 4a3e
00000330: 1b7a 09bf 6f8a 843f a449 9abe 087e 063f
00000340: 0eb3 0c3f 73b0 02bf 2db8 73bf f4dc 74bd
00000350: 7fc6 1bbf 6165 43bf a87b e23e 1bf6 6dbe
00000360: e406 d03e b053 fcbe ac42 12bf c3c7 e1bd
00000370: e9c4 e7be 5e3d 8b3d 1223 c53e 9b91 aebe
00000380: 765e a8bc 58d1 993e 3848 0b3f 6ad4 7ebe
00000390: 882c 023d b82e 81bf 60d9 97bd 873e f73e
000003a0: 28ea 263e 6529 ea3e e03d b2bd eb83 4e3e
000003b0: 2190 10bf e2e6 023f f64f 4d3f f48d 013f
000003c0: 3cb3 793e f200 06be 8d25 2d3f 7f12 82be
000003d0: 9e2a 3cbe 60bd a33d 91f9 bebe f209 9d3e
000003e0: 1081 d6be 7aa8 85be c4ae d13e 24b6 d5bd
000003f0: 1eee d4be 69b0 b4be 002b 0dbc 28a4 06bf
0.042952605 -0.56794786 -0.5732438 0.26128983 -0.13024251 -1.1698812 -1.0289705 0.12604284
0.019815326 0.39756632 -0.42353964 0.41068143 0.8786387 0.5320925 -0.703392 0.4370307
-0.16637152 0.4244299 -0.47156528 -0.16836746 0.16621554 -0.6222648 -0.06833548 -0.82460827
-0.46805394 -0.32980072 -0.0093607735 -0.019538937 -0.18469045 -0.24728423 0.5896305 0.15192194
0.8553731 0.014377882 0.04711139 -0.19713405 0.25685418 -0.09283566 -0.23323488 0.49815166
-0.43436876 -0.36378103 -0.5737251 -0.5929121 0.2184655 0.17091346 -0.3309409 0.36978698
0.12002714 0.7034123 0.11958176 -0.13540514 -0.51943594 0.26730186 -0.22386599 0.30810484
0.4432293 -0.02347316 0.3391812 -0.16985478 -0.44695103 0.7338528 -0.111987755 0.34696835
-0.4983184 -0.584216 -0.8186433 -0.17430215 -0.0013891652 0.36646506 -0.46768248 -0.40354753
0.7691231 -0.22474857 0.48086545 -0.5033627 0.49176124 -0.65347195 -0.5867756 -0.27905503
0.3943289 -0.9424568 0.0015058543 0.49804512 -0.07637769 -0.113776945 0.031551354 0.22437918
-0.060461637 -0.7275702 0.18279733 0.36664838 -0.47538784 -0.06486988 -0.13402179 0.3739676
0.38514107 0.5661945 -0.159278 -0.45223615 -0.47456086 0.36790857 0.50604576 -0.024972498
-0.095615715 0.28065938 -0.31384125 0.29582256 0.46459746 -0.54431885 0.22850785 0.19918926
0.0582062 -0.29939544 0.83444643 0.08314681 0.1018728 0.5379887 -0.5017771 -0.59058946
0.16581044 0.0636692 0.42751196 0.45102963 -0.2990726 -0.36842296 -0.15964648 0.12283185
-0.19604239 -0.06987476 -0.17323054 0.40233606 -0.17529914 -0.31848794 -0.3827665 0.4236418
0.1859532 -0.1407821 0.084030285 -0.7126548 0.3232211 -0.37385854 -0.0133392075 0.254185
-0.0468459 0.15672594 -0.17549339 0.091400184 0.13766068 0.588552 0.09042061 0.14325744
-0.5271416 -0.34567153 0.33172888 0.13984191 0.37487477 0.72660834 -0.018133383 0.29828215
-0.0031491518 -0.008305606 -0.26446253 -0.11472924 0.46748933 -0.23574322 0.14065126 0.35917008
-0.10660185 -0.29915002 0.83891684 0.08822523 -0.35491967 0.4129904 0.010766728 0.34478715
-0.8042556 0.3196344 0.098300494 -0.483585 -0.39113292 0.19336475 0.3215351 -0.40883374
-0.31371662 0.42488813 0.24801832 0.106148675 -0.21562694 -0.5591149 0.04846894 -0.8118916
-0.88233685 -0.88442165 0.10762447 -0.19106069 -0.41361043 -0.12101692 -0.50744236 0.13852452
0.45734978 0.036478415 0.053603735 0.1978578 -0.53701943 1.0354747 -0.30134308 0.5253606
0.54960716 -0.5105049 -0.95202905 -0.05978103 -0.60849756 -0.76326567 0.44234967 -0.23238413
0.40630257 -0.49282598 -0.57132983 -0.1102443 -0.45267418 0.06798814 0.3850332 -0.34095463
-0.020552855 0.3004253 0.5440707 -0.24885717 0.03178075 -1.0092382 -0.07414508 0.48289892
0.16300261 0.45734707 -0.08703208 0.2016751 -0.56469923 0.5113355 0.80200136 0.5060723
0.24384779 -0.13086298 0.6763542 -0.25404736 -0.18375632 0.07995105 -0.3729978 0.3067165
-0.41895342 -0.261051 0.40953648 -0.10435131 -0.4158792 -0.3529084 -0.008616209 -0.5259423

weight f4 [5, 256]
00000000: 4091 c63a 43c6 4fbd 06e9 6e3d 49c9 d0bd
00000010: 7b81 1abd 0b38 4c3e 9551 753d d38d 053c
00000020: b27e 543c 4e41 903d 88e1 f23d ca82 113e
00000030: 80e4 2a3e 123a a53e ea12 3abd d2a2 ae3b
00000040: f75c 843a 8360 5bc0 e8d5 473c 32d1 593e
00000050: 4f08 d73d 57f5 44bc ec31 94bd 0aed 533d
00000060: ef4c 1c3d a8d6 593d a852 6bbd 1395 4c3d
00000070: 98c2 0c3e 3334 793e f005 24bd 260b 763e
00000080: c903 e33d 2e1e f1be 01d1 6fbd 0b2b 3e3e
00000090: e27a 063e 2fe6 6cbd 657a ff3d f061 3d3e
000000a0: 6b0d c83d 5488 72bd dca8 95bc cb5a 98be
000000b0: 27f7 ce3d 1943 ed3d c651 73c0 9fe0 d33d
000000c0: b660 44bd 5252 c6bc b840 83bc e5fc a5bd
000000d0: 1566 093d 0498 ad3c c08c fe3c 96b7 243d
000000e0: c7a7 f9bc ed09 3f3d 785e ef3d 28b3 883e
000000f0: 3841 56bd ceb7 163e 37ee 02bd 6268 8f3c
00000100: 3493 27bd c867 0bbd 921d acbb b6dd 673e
00000110: 70c7 3e3e eeb4 0a3e 6d80 d13d a4f3 3b3e
00000120: d6a2 bcbb 649d 233e e746 803d 01fb 39bd
00000130: 9ce4 2f3e 0ea8 0cbe bba2 32bd 4ac1 353e
00000140: 1faf de3d c653 c23d 6c87 233e 9491 123e
00000150: 32bd 29bd e34b debd d7a9 a13b cabb 983d
00000160: 4c69 473d 9201 a03d 20fb 9abc 8ad3 2d3e
00000170: b162 cbbd 9066 4cbc c8a4 203c c045 0d3e
00000180: f6b7 653d 52ba 343e d1a5 833d 3c0d 3a3d
00000190: 9527 ff3d f2d2 933d 1890 103e 3ee2 303e
000001a0: a20b f13e 1303 58bb 0085 debb bc22 5e3d
000001b0: c7e8 1dc0 947b 203d d157 de3d 39ce 15bd
000001c0: 5e2f 213d e172 e53d 4c34 e13b 20e4 08bd
000001d0: d85f 163c 1f93 dc3d 7dfb d9bd 65d5 da3c
000001e0: 8698 343e 7e96 b539 8277 80be a0b3 873c
000001f0: e672 363e c514 86be 6a56 013e fd0d 633d
00000200: e895 e93c 706a 383e cf19 1fbc 3276 2b3e
00000210: aaa5 323d 3466 f4bc 468f 773d eb12 cc3d
00000220: 2857 3d3e c03d a73d d131 9d3b 2f62 26be
00000230: 7435 67bf 7265 19bd 7290 ddbc c9cc 1e3c
00000240: 6d29 83bc 2c50 2c3e 20a3 a33c 67cd 833d
00000250: 3f9c c03d 323c 993d 427b c5bc f061 bc3b
00000260: e23f f4bc e299 3c3e 3fd2 523d ef85 ba3b
00000270: ccfa d93d 1763 18bd c954 12bd 33d1 663d
00000280: e844 0d3e c3af 923d 6232 223d 6000 0a3e
00000290: ab31 5dbd 122c a03d ee4a 3b3d 8417 073e
000002a0: 3400 bbbd 0c11 773d b9dd e13d d35d 25bd
000002b0: 042b a7bc f9e3 d13d d97b 833d 9607 383e
000002c0: fb9e 13bd 80fa 2d3b b2be 54bd 9cfb fc3d
000002d0: 9a16 f23d 325f f7bd 7e89 3e3e ffc4 d43d
000002e0: a8ef caba 3dfa 0f3d 1072 283e 0c74 203e
000002f0: d1e8 1fbd 47c2 473d d27b 193e ef26 4fbd
00000300: 8035 4b3d 700e 19be b43f 0e3e ce72 3e3e
00000310: 9cf6 363e b078 41bd 4881 0f3e 0deb 1bbd
00000320: e7b9 c33d e186 cebd 640a 96be 3a43 72bd
00000330: 06e3 38bd 2f7d 463d ab6b e43d 08b0 58bc
00000340: aec6 123e 0206 0ebe 141f 983c 063a 5f3e
00000350: 4caa 9a3c 9bf7 89bd ba5c 11bd 369f dd3b
00000360: b784 9e3c 7cce dbbc 641c 0d3e dd4a 46bd
00000370: a021 6dbc fec9 8cbe 6f22 32bd 9af6 1f3e
00000380: 69d2 03bd 5f44 b63d d552 833d 408a 59bb
00000390: 424c d43c 5209 61bf 71c8 d23d c90c 1ec0
000003a0: 7284 ccbc 5528 de3d 6067 fcbb dca4 d13e
000003b0: 26ac 2ebc bc8d 243e 0644 353e 0523 b83d
000003c0: 5ed4 493d 2b75 c13d 6031 343e a980 af3d
000003d0: 5d19 263b 5e8e 303e 734c 983d 10a0 273e
000003e0: a6ab 793c 38aa 773e 2e86 313c c224 463d
000003f0: cb2b b23d 22cb 0b3e 3801 113c 68ff 693c
0.0015149489 -0.050726186 0.058327697 -0.10194642 -0.03772114 0.19943254 0.059892256 0.008151489
0.01296966 0.07043706 0.11859423 0.14210048 0.16688728 0.32270867 -0.045428194 0.0053294683
0.0010098506 -3.4277656 0.012196995 0.21271208 0.104996316 -0.012021384 -0.07236084 0.05173973
0.038159307 0.053183228 -0.057451874 0.049946856 0.13746107 0.24336319 -0.040044725 0.2402769
0.11084706 -0.47093338 -0.05854893 0.18571107 0.13132814 -0.057836708 0.12474517 0.18494391
0.09768184 -0.059212044 -0.018268995 -0.2975677 0.10105734 0.115850635 -3.801866 0.103455774
-0.047943793 -0.024209175 -0.016022071 -0.081048764 0.03354462 0.02119065 0.031072974 0.040214144
-0.03047551 0.046640325 0.1168794 0.26699185 -0.05230829 0.14718553 -0.03196546 0.017505828
-0.04091187 -0.03403452 -0.0052525485 0.2264317 0.18630767 0.13545582 0.102295734 0.1835466
-0.0057567162 0.15978009 0.062635235 -0.04540539 0.17177051 -0.13735983 -0.043612223 0.17749515
0.108732454 0.09488635 0.15969628 0.14313346 -0.041440196 -0.10854318 0.0049335766 0.07457693
0.048684403 0.078127995 -0.018918574 0.16975227 -0.09930933 -0.012475625 0.009804912 0.13796139
0.056083642 0.176492 0.06428111 0.045422778 0.124587215 0.07217969 0.14117467 0.17273805
0.47079188 -0.0032960817 -0.006790757 0.054232344 -2.4673326 0.039180353 0.108565934 -0.036573622
0.039351813 0.11203552 0.0068726894 -0.033420682 0.009178124 0.107702486 -0.10643671 0.026713083
0.17636308 0.00034635136 -0.25091177 0.016565144 0.17817268 -0.2618772 0.1263062 0.055433262
0.028513864 0.18009353 -0.009710743 0.16744307 0.04361502 -0.02983389 0.06043937 0.09964546
0.18490279 0.08166075 0.0047971983 -0.16248392 -0.9031594 -0.03745026 -0.027046416 0.009692379
-0.016010964 0.16827458 0.019975245 0.06435662 0.094048016 0.074821845 -0.024106625 0.0057489797
-0.029815618 0.18418077 0.051470038 0.0056922357 0.10643539 -0.037203874 -0.03572539 0.05635185
0.13795817 0.0716243 0.03959883 0.13476706 -0.054002445 0.07820906 0.045725755 0.13192564
-0.09130898 0.06031899 0.11028618 -0.04037268 -0.020406254 0.102485605 0.064201064 0.17971644
-0.036040287 0.0026547015 -0.051939674 0.12352678 0.11820717 -0.12078704 0.18607137 0.103891365
-0.00154828 0.035150755 0.16449761 0.15669268 -0.03904039 0.04876926 0.1498864 -0.05057424
0.04961157 -0.14946914 0.13891488 0.18598482 0.17867512 -0.047234237 0.1401416 -0.03806596
0.095569424 -0.1008432 -0.29304802 -0.059146143 -0.04513838 0.048459228 0.111533485 -0.013225563
0.14333603 -0.1386948 0.018569507 0.21799478 0.018880032 -0.0673668 -0.03548882 0.006763364
0.019350393 -0.026831858 0.13780361 -0.04841124 -0.014473349 -0.27497858 -0.04348987 0.15621415
-0.032183085 0.088997595 0.06412283 -0.0033193976 0.025915269 -0.87904847 0.102921374 -2.4695303
-0.024965499 0.108475365 -0.007702753 0.4094609 -0.010661161 0.16069692 0.1770173 0.089910544
0.049274795 0.09446176 0.1759696 0.08569462 0.0025344708 0.17241809 0.074364565 0.16369653
0.015238678 0.24186027 0.010835214 0.0483749 0.08699759 0.13651708 0.008850388 0.014282085

bias f4 [5]
00000000: 2e86 aa3d 2b48 4ebd 3d58 c33c cbf6 c13d
00000010: a6a5 b03d
0.08326374 -0.050361793 0.023845786 0.094709 0.08625345
