model/model.pth (torch, 9619 bytes, 4 tensors)

linear1.weight f4 [256, 2]
-0.0014373009 -0.0615374 -0.62040865 -0.6453747 -0.09391457 -0.4197451 -0.26533487 0.0048652706
-0.69907546 -0.5152144 -0.40418723 0.01311309 -0.22326264 -0.5274147 -0.021254592 -0.5501617
-0.06285727 -0.010783301 0.008141668 -0.53348166 -0.47860673 0.015194043 -1.0114475 0.026435062
-0.29754257 -0.16720498 0.002837019 -0.7076314 -0.070471704 -0.6289391 -0.22131696 -0.27175403
-0.7169362 0.013319825 -0.04449771 -0.007250698 -0.5508924 -0.59209234 -0.0122951595 -0.047973003
-0.59412044 0.0093756905 -0.0105878115 -0.31578913 -0.18168668 0.007860275 -0.029225325 -0.0030119359
-0.7117932 0.012805917 -0.37688318 -0.18608779 0.003557486 -0.1237311 0.013486987 -0.51974064
0.025331797 -1.0753611 -0.015245404 -0.45072928 -0.6133427 0.0139317 -0.016481772 -0.21175344
-0.000696099 -0.03318651 -0.3335052 -0.6986757 -0.72193253 -0.001825773 -0.27778086 -0.11749184
-0.005613304 -0.1141174 -0.12949044 -0.69684714 -0.01732848 -0.3601316 0.004019785 -0.19361456
-0.2183671 0.0049434737 -0.003021514 -0.0012345401 -0.98074234 0.034694266 -0.79293114 0.018539635
-0.36414257 -0.0155493235 -0.3516083 -0.29409766 -0.93437064 0.017625026 -0.8372934 0.026520481
-0.55336165 -0.4593961 -0.25454038 -0.01954258 9.2176044e-05 -0.27943015 -0.028724432 -0.6861694
-0.52714914 0.013066535 0.012767423 -1.013014 -0.16955523 0.0048726825 -0.87090355 0.023949783
-0.4204485 -0.0047200467 -0.27322763 0.0018093055 -0.12948066 -0.60352576 -0.35652134 -0.0021912416
-0.40670696 0.0028546406 -0.7138798 0.023755476 -0.5177536 -0.11274719 -0.63594663 -0.01143642
-0.6813087 0.016305296 -0.5861751 0.013991661 0.009908378 -0.5077861 -0.40007025 0.0128692305
0.0047254935 -0.29683354 -0.002525249 -0.6872463 -0.0017366804 -0.06519888 -0.16562712 0.0029810255
-0.14151245 -0.3553502 0.01123626 -0.6851585 -0.01631385 -0.2851156 -0.6704367 0.02219209
-0.26123777 -0.01755516 -0.16947079 0.00023442638 0.01866612 -0.9335366 -0.037883226 -0.0049640164
-0.62452894 0.013340381 0.009748258 -0.8219149 -0.24358863 -0.44550914 0.0010720405 -0.18257257
-1.0078726 0.020084962 -0.0025487011 -0.23396435 -0.003490247 -0.15774025 -0.004082139 -0.48779905
-0.47130612 0.0046712817 -0.45676276 -0.38138455 -0.64601755 0.012074702 0.008967088 -0.37958816
-0.31284574 -0.0116825 -0.29778522 0.009331793 0.023229424 -0.92909634 -0.075212814 -0.0012626438
0.011954238 -0.59643596 -0.085645914 -0.70115304 -0.07262641 -0.6325614 0.00077565986 -0.7534354
-0.0038263767 -0.6655636 -0.0003549797 -0.032518554 -0.5006833 -0.22130316 -0.548561 0.011217626
-0.017261798 -0.07716165 -0.16971952 -0.54254425 0.0017443942 -0.25380382 0.013070287 -0.4852637
-0.029142702 -0.13684325 0.0016043633 -0.86018014 -0.3354853 0.009431902 -0.0028791095 -0.7659481
-0.43511075 -0.6184706 0.007107087 -0.2916873 -0.5622815 -0.1529637 -0.10132156 0.001319814
-0.008670449 -0.6126692 0.0010070364 -0.23743026 -0.9050723 0.024790747 -0.039350927 -0.3898967
-1.0294203 0.034746487 -0.03740406 -0.39175916 -0.5162089 -0.4859379 -0.17956042 -0.53692496
-0.14065923 -0.0035370134 -0.44282445 0.01399621 -0.7845509 0.01073556 -0.63299316 0.012512136
00000000: d163 bcba a40e 7cbd 1ad3 1ebf 4737 25bf
00000010: 4856 c0bd d4e8 d6be f9d9 87be d96c 9f3b
00000020: 9cf6 32bf 17e5 03bf a1f1 cebe 49d8 563c
00000030: f69e 64be a604 07bf 1c1e aebc 66d7 0cbf
00000040: 50bb 80bd 71ac 30bc a164 053c 4192 08bf
00000050: f10b f5be 6ff0 783c 1d77 81bf 588e d83c
00000060: 8057 98be c837 2bbe 48ed 393b 5527 35bf
00000070: 7853 90bd 2702 21bf eaa0 62be 5823 8bbe
00000080: 2189 37bf 653b 5a3c 3b43 36bd 4397 edbb
00000090: 4907 0dbf 5d93 17bf a371 49bc 577f 44bd
000000a0: 4718 18bf 7f9c 193c 8078 2dbc 1daf a1be
000000b0: 130c 3abe 62c8 003c f369 efbc e663 45bb
000000c0: 1438 36bf e9cf 513c d5f6 c0be cc8d 3ebe
000000d0: b624 693b bb66 fdbd 86f8 5c3c b90d 05bf
000000e0: a184 cf3c 6fa5 89bf dcc7 79bc fdc5 e6be
000000f0: 0704 1dbf c941 643c c804 87bc e5d5 58be
00000100: 6a7a 36ba 94ee 07bd 32c1 aabe 69dc 32bf
00000110: 92d0 38bf c74e efba 4b39 8ebe 909f f0bd
00000120: cfef b7bb 62b6 e9bd 2499 04be 9364 32bf
00000130: 75f4 8dbc 2b63 b8be 67b8 833b e542 46be
00000140: a09b 5fbe ddfc a13b 9804 46bb 4bd0 a1ba
00000150: ee11 7bbf 931b 0e3d 89fd 4abf 6fe0 973c
00000160: e570 babe 97c2 7ebc 0106 b4be f893 96be
00000170: ea32 6fbf 5c62 903c dc58 56bf 7b41 d93c
00000180: 1ca9 0dbf f735 ebbe 1e53 82be c317 a0bc
00000190: a34e c138 7811 8fbe 804f ebbc cca8 2fbf
000001a0: 3ff3 06bf 0515 563c 742e 513c 71aa 81bf
000001b0: e39f 2dbe 06ab 9f3b 89f3 5ebf 5632 c43c
000001c0: 0745 d7be 9faa 9abb 7ee4 8bbe 3826 ed3a
000001d0: 9496 04be aa80 1abf f789 b6be ef9a 0fbb
000001e0: e53b d0be ec14 3b3b d4c0 36bf d89a c23c
000001f0: 808b 04bf 00e8 e6bd 66cd 22bf d25f 3bbc
00000200: 3f6a 2ebf af92 853c 920f 16bf 483d 653c
00000210: c056 223c 45fe 01bf 02d6 ccbe 77d9 523c
00000220: 50d8 9a3b 91fa 97be a67e 25bb 60ef 2fbf
00000230: 53a1 e3ba fe86 85bd 289a 29be 4f5d 433b
00000240: a4e8 10be 76f0 b5be 4a18 383c 8c66 2fbf
00000250: a0a4 85bc acfa 91be bda1 2bbf 30cc b53c
00000260: f5c0 85be d7cf 8fbc c089 2dbe 5ad0 7539
00000270: b1e9 983c 41fc 6ebf 712b 1bbd 30a9 a2bb
00000280: 21e1 1fbf 9d91 5a3c 28b7 1f3c 0469 52bf
00000290: 4c6f 79be c619 e4be b683 8c3a 4ef4 3abe
000002a0: f801 81bf 3889 a43c 1c08 27bb 5a94 6fbe
000002b0: a1bc 64bb a986 21be 77c3 85bb ccc0 f9be
000002c0: 094f f1be 8d11 993b cfdc e9be d644 c3be
000002d0: 6861 25bf f9d4 453c b1ea 123c 6159 c2be
000002e0: 512d a0be f567 3fbc 4e77 98be 60e4 183c
000002f0: a24b be3c 42d9 6dbf 2d09 9abd 4c7f a5ba
00000300: b5db 433c 07b0 18bf 2067 afbd c47e 33bf
00000310: 28bd 94bd 8bef 21bf a755 4b3a 24e1 40bf
00000320: f3c3 7abb 6062 2abf 921c bab9 2d32 05bd
00000330: c82c 00bf 4c9d 62be 7e6e 0cbf 22ca 373c
00000340: 9d68 8dbc ed06 9ebd f4ca 2dbe 2ee4 0abf
00000350: 28a4 e43a 93f2 81be c224 563c 7c74 f8be
00000360: adbc eebc a320 0cbe 8049 d23a c434 5cbf
00000370: bbc4 abbe 4488 1a3c 71af 3cbb 2d15 44bf
00000380: d6c6 debe 1754 1ebf 91e2 e83b 0a58 95be
00000390: aef1 0fbf 84a2 1cbe ae81 cfbd 9cfd ac3a
000003a0: 800e 0ebc e4d7 1cbf 89fe 833a eb20 73be
000003b0: d1b2 67bf f715 cb3c 702e 21bd 8aa0 c7be
000003c0: 0bc4 83bf 5552 0e3d 0035 19bd a894 c8be
000003d0: 4426 04bf dacc f8be b0de 37be ea73 09bf
000003e0: f908 10be 3dcd 67bb e3b9 e2be 5c50 653c
000003f0: 54d8 48bf 34e4 2f3c d70b 22bf b4ff 4c3c

linear1.bias f4 [256]
-0.7928329 0.16679573 0.10214734 -0.87968475 0.3881336 -0.75204897 -0.427921 -0.4962647
0.21223198 -0.75955254 -0.17428638 -0.14181715 -0.27967528 -0.9248742 0.5352443 0.20236397
-0.51774985 0.08543907 -0.112638295 -0.2100508 -0.046170402 0.026168823 -1.0759523 -0.7939799
0.024464846 0.29853946 -0.3140546 -0.2501309 0.222681 -0.7342528 -0.5114116 -0.87531376
-0.43682507 0.2959965 -0.03351772 -0.38444602 -0.19652946 0.19158119 -0.39255986 -0.055135313
-0.5691198 -0.21566844 -0.79512835 -0.21964552 -0.6532084 0.2655722 0.056405112 -0.0043307403
0.5774383 -0.76679146 -0.36472657 0.2906769 -0.9761951 -0.46674204 0.2857915 0.27162167
-0.5408831 0.061252665 0.66673464 -1.0149846 -0.25090382 -0.44895992 0.46477717 0.3701882
-0.10644827 -0.75613964 -0.6204599 -0.39212877 0.173711 -0.021009352 -1.4547919 -1.0686768
0.238532 -0.15137926 0.25146627 0.08264282 -0.2340945 -0.118425444 -0.25908294 -0.7254955
-0.16719548 0.108435206 -0.21264628 0.28766966 -0.9962884 0.037808664 -0.72982347 0.14260969
-0.8611542 -0.649745 -0.109814934 0.201235 -0.32928842 -0.6368122 -0.69146675 -0.51372266
-0.27991587 0.36327332 0.68458253 -0.2795038 -1.224258 0.4988 -0.34115183 0.011595274
0.34558675 0.43576688 -0.62658936 -0.5726478 0.46630853 -0.96177167 -0.42113099 -0.6664623
-0.2500177 -0.40906656 -0.1854834 -1.2052616 0.37795156 0.031117205 -0.81912833 -0.3389479
-0.7135978 0.4554364 -0.26281258 0.15983677 0.0348582 -0.56799245 -1.048922 0.40747
0.009765041 -0.057979286 0.09085838 0.17699529 -0.40136838 -0.4296121 -0.08497323 -0.7808752
-0.5246483 -0.5777747 -0.35035712 -0.06659335 -0.9928804 -0.012630129 -1.2742767 0.07214463
-0.48497382 -0.7944869 -0.8462698 0.24079472 -0.64109457 -0.27142644 0.57939893 0.42626306
-0.5700791 -0.33073702 -1.0395718 -1.1496601 -0.6700757 -0.08825415 -1.0571357 -0.61753476
-0.41770157 0.4052418 -1.0090535 -0.26425126 -0.2772682 -0.5152072 -0.399226 -0.51086015
-0.09228337 -0.9594971 -0.005784631 -0.48104447 -0.4904335 -0.7226071 -0.22904956 -0.17987981
0.037267476 -0.60986006 -0.42020807 -0.7153179 -0.88564503 -0.16032419 0.35871488 -0.6372715
0.6130977 0.34413463 -0.6425216 -0.61654615 -0.8805631 0.24726862 -0.25949433 -1.1455512
-0.6993398 -1.2275252 -0.39996192 -0.04424999 0.37920874 0.23723625 -0.14103663 -0.433105
-0.24000683 -0.43509027 -0.23919807 -0.71605927 -0.7179163 -1.0125138 0.3947572 0.036202684
0.4561365 -0.5083889 0.38237917 -0.75055104 -0.4093783 0.6156457 0.10637486 0.32889143
-0.20236945 -0.09164589 0.5725936 0.006472409 -0.79534274 -0.7519234 -0.23619366 -0.28972495
-0.7041069 -0.508692 -0.61903936 0.1967378 -0.23351598 -0.015372679 -0.8979992 -0.6736277
-0.22177073 -0.5584976 0.079565585 -0.52367604 -0.08952965 -0.4724269 0.15579969 -0.017329633
-0.255306 -0.73482084 -0.98283637 0.172099 -0.3534716 0.019349989 -0.91548055 0.12024238
-0.25332832 0.098076165 -0.15054329 -0.4208691 -0.5892042 -0.16638368 -0.17133778 0.3446538
00000000: 19f7 4abf 80cc 2a3e a032 d13d 0533 61bf
00000010: 72b9 c63e 4886 40bf 7618 dbbe 6816 febe
00000020: 5753 593e 0972 42bf 2178 32be 8438 11be
00000030: 9931 8fbe 8ec4 6cbf c505 093f 8038 4f3e
00000040: 418b 04bf aefa ae3d e8ae e6bd 8f17 57be
00000050: 2d1d 3dbd 0060 d63c ceb8 89bf 4442 4bbf
00000060: 806a c83c 2ada 983e c4cb a0be 2811 80be
00000070: 7d06 643e fef7 3bbf dfeb 02bf 9014 60bf
00000080: 89a7 dfbe da8c 973e e049 09bd 1cd6 c4be
00000090: 053f 49be dc2d 443e 9bfd c8be 91d5 61bd
000000a0: d6b1 11bf 30d8 5cbe 888d 4bbf c1ea 60be
000000b0: aa38 27bf 14f9 873e 0c09 673d e2e8 8dbb
000000c0: ffd2 133f 724c 44bf 71bd babe 9ad3 943e
000000d0: ece7 79bf d0f8 eebe 4353 923e ff11 8b3e
000000e0: 5177 0abf 13e4 7a3d 1faf 2a3f 04eb 81bf
000000f0: 7776 80be 13de e5be 46f7 ed3e 4f89 bd3e
00000100: 8d01 dabd 5e92 41bf 76d6 1ebf 1ac5 c8be
00000110: 4ce1 313e ce1b acbc 9f36 babf 67ca 88bf
00000120: bc41 743e 2a03 1bbe 30c0 803e a440 a93d
00000130: 78b6 6fbe 0a89 f2bd 85a6 84be 13ba 39bf
00000140: 4b35 2bbe 4713 de3d f2bf 59be 7049 933e
00000150: c20c 7fbf 42dd 1a3d b6d5 3abf 4608 123e
00000160: 9a74 5cbf b055 26bf a7e6 e0bd 8c10 4e3e
00000170: 7e98 a8be 2006 23bf f703 31bf 5483 03bf
00000180: 2251 8fbe f6fe b93e cd40 2f3f 1f1b 8fbe
00000190: 7cb4 9cbf b762 ff3e 74ab aebe 1bfa 3d3c
000001a0: bff0 b03e d61c df3e 2968 20bf 0c99 12bf
000001b0: febf ee3e ab36 76bf 7b9e d7be 469d 2abf
000001c0: 5202 80be 2c71 d1be 5cef 3dbe 0346 9abf
000001d0: de82 c13e 82e9 fe3c 65b2 51bf 948a adbe
000001e0: 58ae 36bf f62e e93e 5f8f 86be 40ac 233e
000001f0: 79c7 0e3d f467 11bf 1343 86bf e89f d03e
00000200: 8dfd 1f3c b07b 6dbd f513 ba3d 413e 353e
00000210: 2880 cdbe 1ef6 dbbe 7206 aebd 70e7 47bf
00000220: 5a4f 06bf 0be9 13bf 0262 b3be 1862 88bd
00000230: 692d 7ebf 9aee 4ebc 801b a3bf 90c0 933d
00000240: 7d4e f8be 7e63 4bbf 23a5 58bf e492 763e
00000250: c61e 24bf 68f8 8abe 7d53 143f 273f da3e
00000260: b4f0 11bf 5d56 a9be b010 85bf 1028 93bf
00000270: 158a 2bbf 97be b4bd 3950 87bf c216 1ebf
00000280: fbdc d5be da7b cf3e aa28 81bf f14b 87be
00000290: 19f6 8dbe 9ee4 03bf 5a67 ccbe bbc7 02bf
000002a0: 10ff bcbd 9aa1 75bf 008d bdbb 764b f6be
000002b0: 1a1a fbbe c7fc 38bf f88b 6abe 6a32 38be
000002c0: c8a5 183d ca1f 1cbf 8325 d7be 131f 37bf
000002d0: a2b9 62bf 062c 24be 7aa9 b73e 3a24 23bf
000002e0: f9f3 1c3f 6a32 b03e 4c7c 24bf f8d5 1dbf
000002f0: 956c 61bf fc33 7d3e 71dc 84be 6ca1 92bf
00000300: ef07 33bf 8c1f 9dbf cfc7 ccbe 7a3f 35bd
00000310: a627 c23e 0fee 723e e86b 10be f0bf ddbe
00000320: 5ac4 75be 27c4 debe 57f0 74be a94f 37bf
00000330: 5dc9 37bf 0d9a 81bf 9e1d ca3e 4449 143d
00000340: b98a e93e c625 02bf 34c7 c33e 1d24 40bf
00000350: 089a d1be f59a 1d3f 10db d93d 7564 a83e
00000360: f039 4fbe d7b0 bbbd 7f95 123f 8016 d43b
00000370: 959b 4bbf 0d7e 40bf c0dc 71be d456 94be
00000380: 5a40 34bf a439 02bf 5d79 1ebf a275 493e
00000390: d01e 6fbe b0dd 7bbc 47e3 65bf dd72 2cbf
000003a0: de17 63be b3f9 0ebf 48f3 a23d a20f 06bf
000003b0: 525b b7bd f0e1 f1be f489 1f3e e0f6 8dbc
000003c0: 78b7 82be 381d 3cbf 2a9b 7bbf b83a 303e
000003d0: 3bfa b4be de83 9e3c ef5c 6abf a341 f63d
000003e0: 40b4 81be 28dc c83d 0528 1abe 287c d7be
000003f0: 16d6 16bf 7c60 2abe 2c73 2fbe 7676 b03e

linear2.weight f4 [5, 256]
-0.021057587 0.004222803 0.05669889 -0.012227075 -0.0086779 -0.0035299181 -0.035762317 0.009082332
-0.018524574 -0.026103 0.040591747 0.022563405 -0.039635763 -0.0038809183 -0.050429806 -0.02971913
0.0516421 0.018487511 -0.037050784 0.020537885 -0.022996653 -0.027888015 0.036857124 -0.021097
-0.11356603 -0.059157424 -0.023125486 0.051843673 -0.015841825 0.004639519 -0.02483293 0.017402332
0.01436581 0.056599945 0.029545818 0.044421606 0.013812735 -0.032617092 0.018548153 0.03443442
0.03425403 0.0004187231 0.034407012 -0.016289085 0.018872641 -0.045604855 0.015631003 0.019248312
-0.055377647 0.04196679 -0.011526252 -0.045255654 0.03239794 -0.03301668 -0.03873487 -0.020175036
0.025566755 -0.044822045 -0.049617507 -0.0029243357 0.004674401 -0.0006829152 0.037453838 -0.029333688
0.0026145626 -0.0041263704 -0.001807571 -0.02059069 0.024662197 -0.024397539 0.06114684 0.013819644
-0.060593754 0.023225049 -0.02763921 0.016138995 -0.024950964 0.010329423 -0.008661707 -0.004552501
0.021113373 0.009310463 0.056599632 -0.019750934 -0.017525807 -0.0008329196 -0.042637914 -0.046638943
0.038773715 -1.783669e-05 0.00922712 0.02746195 0.02157277 0.010553153 0.005721396 0.03529796
0.013708907 -0.007289134 -0.02618131 0.055885095 -0.015909167 0.012374417 -0.040472426 0.004441413
0.022247765 0.00015436113 0.026528466 0.0028369578 -0.044775188 -0.007567343 0.0023718767 0.0008227431
0.034082085 0.019294009 -0.055051975 -0.014530786 -0.047797196 0.004483873 0.04792109 0.023824818
0.017416514 -0.044066407 0.033363327 0.013849542 -0.006172655 0.010680684 0.028442765 0.0021798816
0.017130513 0.056256093 0.0086671505 0.0034934308 -0.0031123683 0.036097705 -0.013827646 0.01868246
0.02559919 0.03465292 0.013913996 -0.017707713 -0.022652669 0.015026284 -0.015533955 0.024731986
0.0046254285 0.013971517 -0.0013802222 -0.027860232 -0.03976879 0.034328472 0.04351566 -0.053801544
0.0027710595 0.011421566 -0.020701563 -0.020793688 0.044252552 0.058038186 -0.04428867 -0.020571496
0.0010202378 0.0031204745 -0.010664642 0.010175895 -0.015462829 0.0072400826 0.009634326 0.039792545
0.057724483 0.020684121 -0.052710585 0.03618159 0.02772364 0.029172923 -0.044657648 0.012573637
0.017923152 0.024013557 0.041497536 0.00040170047 -0.0038249954 -0.01623349 0.007610224 -0.058154564
-0.0028600544 0.035405055 -0.02349434 -0.052401505 0.03957384 0.05935937 0.02931766 -0.0006649157
0.029314762 0.013234956 0.013711791 0.019711869 0.017706027 0.031188462 -0.01120956 -0.0067238803
0.0691444 0.009501716 -0.025021117 0.032748464 0.032112096 -0.013241242 -0.054483593 -0.0053175995
0.03684496 0.009959273 -0.019602261 0.012645923 0.028861897 -0.0498109 -0.0211038 -0.04284196
-0.059526682 -0.010221043 0.033372074 -0.014393762 0.011363262 0.024427414 0.015195176 0.0017219712
0.019483078 0.01839696 0.008714467 -0.00535163 0.03380565 0.012266142 0.02462876 0.022207594
-0.0553085 0.018118927 -0.0022206306 0.0100128725 -0.040839303 -0.02959016 0.058095895 0.056911163
0.02435016 0.0460168 -0.010610429 -0.050033435 0.026474038 -0.0005137645 0.0262337 0.047682457
-0.008271463 -0.001432389 0.008115215 -0.06634045 0.006948553 0.006244704 0.028653188 0.04863151
00000000: f680 acbc 705f 8a3b 183d 683d 1254 48bc
00000010: c02d 0ebc 3356 67bb 827b 12bd 10ce 143c
00000020: d9c0 97bc f5d5 d5bc 8843 263d e4d6 b83c
00000030: 1c59 22bd 0157 7ebb 7c8f 4ebd 8875 f3bc
00000040: ab86 533d 1f73 973c 90c2 17bd 113f a83c
00000050: 7a63 bcbc 6875 e4bc 7ff7 163d 9ed3 acbc
00000060: 4f95 e8bd 0e4f 72bd a971 bdbc 085a 543d
00000070: b7c6 81bc 1b07 983b 6e6e cbbc 568f 8e3c
00000080: 935e 6b3c 58d5 673d 120a f23c 6ef3 353d
00000090: cf4e 623c 8099 05bd 4cf2 973c 1b0b 0d3d
000000a0: f44d 0c3d 1088 db39 5eee 0c3d b070 85bc
000000b0: cc9a 9a3c 28cc 3abd 970c 803c a3ae 9d3c
000000c0: acd3 62bd 5ee5 2b3d 9bd8 3cbc fe5d 39bd
000000d0: b4b3 043d 803c 07bd 74a8 1ebd 1e46 a5bc
000000e0: 5f71 d13c 5297 37bd ba3b 4bbd 36a6 3fbb
000000f0: b82b 993b aa05 33ba 3269 193d 344d f0bc
00000100: 1559 2b3b 8136 87bb 05ec ecba cfad a8bc
00000110: 6008 ca3c 59dd c7bc 1c75 7a3d ca6b 623c
00000120: 2831 78bd 7542 be3c a06b e2bc ed35 843c
00000130: f765 ccbc bd3c 293c d5e9 0dbc 252d 95bb
00000140: f4f5 ac3c ea8a 183c 04d5 673d b6cc a1bc
00000150: 4892 8fbc 4a58 5aba 18a5 2ebd 7a08 3fbd
00000160: 30d1 1e3d 00a0 95b7 592d 173c e2f7 e03c
00000170: 61b9 b03c 22e7 2c3c 8c7a bb3b 9894 103d
00000180: 539b 603c b0d9 eebb 307a d6bc c5e7 643d
00000190: f153 82bc 11be 4a3c 6ac6 25bd 4689 913b
000001a0: f240 b63c 00dc 2139 3a52 d93c 41ec 393b
000001b0: 3066 37bd 79f7 f7bb 7d71 1b3b 5bad 573a
000001c0: a899 0b3d 780e 9e3c 2e7e 61bd 8912 6ebc
000001d0: fec6 43bd 74ed 923b e848 443d 442c c33c
000001e0: 14ad 8e3c fa7e 34bd fca7 083d 30e9 623c
000001f0: fc43 cabb 09fe 2e3c cd00 e93c 58dc 0e3b
00000200: 4a55 8c3c ca6c 663d aa00 0e3c 0bf2 643b
00000210: e0f8 4bbb 30db 133d 5a8d 62bc f50b 993c
00000220: 64b5 d13c 38f0 0d3d 87f7 633c c40f 91bc
00000230: 1792 b9bc ce30 763c 2182 7ebc bc9a ca3c
00000240: e890 973b cae8 643c 92e8 b4ba 243b e4bc
00000250: 99e4 22bd 039c 0c3d 7a3d 323d 025f 5cbd
00000260: aa9a 353b 8521 3b3c 5396 a9bc 8657 aabc
00000270: 2a42 353d 73b9 6d3d 0968 35bd 8e85 a8bc
00000280: 80b9 853a e080 4c3b c0ba 2ebc ccb8 263c
00000290: ce57 7dbc 373e ed3b 4bd9 1d3c 82fd 223d
000002a0: 8270 6c3d bf71 a93c 0ee7 57bd 2633 143d
000002b0: b01c e33c 0efc ee3c f0ea 36bd a801 4e3c
000002c0: 93d3 923c 14b8 c43c 52f9 293d 539b d239
000002d0: c6ac 7abb 19fc 84bc 305f f93b 7b33 6ebd
000002e0: c06f 3bbb e404 113d 3477 c0bc f6a2 56bd
000002f0: 2e18 223d d022 733d 972b f03c bd4d 2eba
00000300: 8325 f03c 6ed7 583c 6ba7 603c c97a a13c
00000310: 3b0c 913c f27e ff3c 4da8 37bc ff53 dcbb
00000320: 949b 8d3d 16ad 1b3c 16f9 ccbc 4123 063d
00000330: f987 033d cbf1 58bc 302a 5fbd 423f aebb
00000340: beea 163d 382c 233c ec94 a0bc d830 4f3c
00000350: c96f ec3c 8406 4cbd e0e1 acbc 0d7b 2fbd
00000360: 40d2 73bd 2976 27bc 28b1 083d d0d3 6bbc
00000370: fa2c 3a3c 001c c83c 30f5 783c c4b3 e13a
00000380: fa9a 9f3c 39b5 963c 20c7 0e3c ba5c afbb
00000390: cb77 0a3d eef7 483c 41c2 c93c b3ec b53c
000003a0: 2a8b 62bd 256e 943c 0088 11bb 080d 243c
000003b0: 1d47 27bd 1067 f2bc f6f5 6d3d ae1b 693d
000003c0: fd79 c73c 1d7c 3c3d 5dd7 2dbc dcef 4cbd
000003d0: 15e0 d83c 27ae 06ba 0ee8 d63c ae4e 433d
000003e0: 0885 07bc 00bf bbba aef5 043c 80dd 87bd
000003f0: b0b0 e33b 60a0 cc3b 17ba ea3c d631 473d

linear2.bias f4 [5]
-0.03405203 -0.029574119 -0.031825937 -0.03209091 -0.032127183
00000000: 247a 0bbd 6c45 f2bc ea5b 02bd c271 03bd
00000010: cb97 03bd
