model/model_entire.pth (torch, 138687 bytes, 6 tensors)

weight f4 [128, 2]
00000000: f448 26be 2ee5 24bf c410 4c3e 6d51 c4be
00000010: 6487 0040 9121 fabd d439 e7be b8a6 053a
00000020: 4dae 363d 788c c03a 9461 7dbe de08 1fbf
00000030: e815 f2be e599 24bf 6250 91bf bc23 15bf
00000040: c725 4f3e 4378 2bbc 4036 0cbf c155 0ebe
00000050: 1664 85be 809b 1bbf 5d30 68bf 7a93 febb
00000060: 91cc e9be f4cf 2dbf ae55 aa3e 389a a6bd
00000070: ff99 1a3f 562f 03be 00cb fdbb 6487 36be
00000080: d49b d13c c8c0 2dbf ca1b 72be 48e6 24bf
00000090: d5ad 0abe c2ac 6fbe fafd 73be 371b 1b3b
000000a0: e8c8 0cbf 7064 c6bd 14c4 dc3d 0bd6 ccbe
000000b0: 63f4 8c3e 3c3d e8be b272 6abe 2a29 2cbf
000000c0: b89c 7f3d 2313 e2bd 19cc 28bf 1745 133b
000000d0: 5c17 143e 1082 31bd 0888 433e c93f debb
000000e0: 5e45 fe3d 9242 e3bb f881 c53d dc38 dabe
000000f0: c865 d43e 0ef4 99bb 2d7f 0ebf 2196 9fbd
00000100: b85d b43e 571d cabd d8bf 2c3e 5803 223a
00000110: bc15 34ba 7eb9 c5b9 31aa fb3d d64a a9ba
00000120: 241e 8bbe 0745 3639 ecd3 65bf c68e f9b8
00000130: 49e3 053f d96e 0abf 9cdd f5be a03c 28bf
00000140: dac6 1dbf ebbc 0c3b 0e38 1dbf fb00 22bf
00000150: ca99 dabb c264 d039 ac1b e23e 3fac 17bc
00000160: 4346 0c3f 888a 05bf a09c abbd 0888 07bf
00000170: 33bc c43c 7b4d 04bf 1211 fbbe 5b94 21bf
00000180: b105 1cbf 5798 02bf c633 56be 2020 09bf
00000190: 5ad6 5f3e 7f31 5abd 4f79 88be 8fa4 acbe
000001a0: e370 093e 104e 34be a7d6 39be 2b48 40bf
000001b0: 6c3b c6be 72dd 923b ed45 f43d 361b 32ba
000001c0: 2060 013d 9a69 c3be 2d68 1abf e6db 05bf
000001d0: afcc e33e 3625 10bd ae32 4abd 07b4 bbbd
000001e0: aa72 a73d a73f d6be 6e02 30bf b1e0 d7be
000001f0: 8dd5 ee3d 96a2 4bbe b1cb 04be bfd5 09be
00000200: bb27 ac3e 267b e237 b388 063f 6d09 19bf
00000210: b421 8ebe 477d 51b9 41f5 88bf dd87 85bb
00000220: 2234 75bd 7c90 47bf 613c dcbd d1da 77be
00000230: bc55 98bf 2b0f 823b b28d 22bf f810 26bb
00000240: 0d47 81bf be8e 313a f6d5 31bf 7576 dbbe
00000250: 4517 233e e5de 2dbf a7e8 6d3e 1ff4 dcbb
00000260: e991 e53d 9a87 c6bb c30a 85bd f8d2 5ebd
00000270: 33c9 8cbe 0629 b5be 2b53 e0be c717 3abf
00000280: 1e24 06be 9e1e fdbc 7e18 23bf a4a6 9ebe
00000290: b628 d03d 8020 3abc a2a7 81be c294 72ba
000002a0: fb76 a2be 343a 3abe e01a 603d fbfc f6be
000002b0: c2de bc3d 7405 46bf 8f30 4ebe ea74 9fbe
000002c0: e343 863e 40fc 22bb c7d8 04bd 2a70 8e3a
000002d0: 8457 5dbe cad8 28bf abe0 303f 6089 12bf
000002e0: 4d14 4cbf d33a 90ba eab6 52be 3629 2dbe
000002f0: 3fb7 d1be 20fb dfbd 0613 18bf e6f7 06bb
00000300: 3249 ae3e 81e4 20bf ae79 69be 9b89 dbbe
00000310: 67f6 33bf f8ca 28bf f009 98be 97dc 6cbe
00000320: 7d38 fabe 168e 36bd 94c8 22bf 1240 be3a
00000330: de6e 24bf b8ab 7cbd 312f 523d 058b e2bc
00000340: 56f6 3abf 1d48 29b9 102e 39bf d4ce 73bb
00000350: 3f3e 8bbe b8d4 8abd b04c 26bf 643d f6be
00000360: c077 50bf e61f 95be 6ce8 fdbe 7ae0 31bf
00000370: 0638 8abf 0fee 83bb 74df 28bd c7cb b6be
00000380: 0b55 c8be db77 50be 1c6f 1ebf bcd3 12bf
00000390: 0c93 593e f039 adbd 022d a03e 30c7 0abf
000003a0: 11f3 573e 4150 29bf 1aa6 c539 5348 0dbf
000003b0: 3674 a5be 7dbf 3abb 765b c03e c4fd 26bf
000003c0: f31e 133f d081 44be 9f7d 6cbe 3380 b3be
000003d0: 818c 69bf 8a35 3fbb 1771 193e 8513 38bf
000003e0: b429 a3be f271 06bf f136 7fbf 2e5d d2ba
000003f0: 3b4d 203f c839 0bbf ea31 ef3d 6572 99ba
-0.16238767 -0.644122 0.1992827 -0.38343373 2.0082636 -0.122134335 -0.45161307 0.00050983904
0.04459982 0.00146903 -0.24744254 -0.62122905 -0.47282338 -0.64297324 -1.1352656 -0.5825765
0.20229255 -0.010465684 -0.5477028 -0.138999 -0.26052922 -0.6078415 -0.90698797 -0.0077690454
-0.45663884 -0.67895436 0.33268493 -0.08134884 0.6039123 -0.12811026 -0.0077451468 -0.17825085
0.025587 -0.67872286 -0.23643413 -0.6441388 -0.13542874 -0.23405746 -0.23827353 0.0023667344
-0.5499406 -0.09687126 0.107795864 -0.40007052 0.27530202 -0.45359218 -0.22895315 -0.6725031
0.062405318 -0.11038806 -0.6593643 0.00224716 0.14462036 -0.043336928 0.1909486 -0.006782506
0.124155745 -0.006935426 0.0964393 -0.42621505 0.41483903 -0.004698283 -0.55662805 -0.07792307
0.35227752 -0.098688774 0.16870058 0.0006180308 -0.0006869694 -0.0003771297 0.12288321 -0.001291598
-0.27171433 0.00017382587 -0.8977649 -0.00011899839 0.52299935 -0.5407539 -0.48020637 -0.65717506
-0.6163155 0.0021474909 -0.6141366 -0.63282746 -0.006671165 0.00039747922 0.44161737 -0.009257375
0.5479471 -0.52164507 -0.08379483 -0.5294194 0.024015522 -0.51680726 -0.4903646 -0.63117
-0.60946184 -0.510137 -0.20918187 -0.53564644 0.21859112 -0.05326986 -0.2665505 -0.33719298
0.13421969 -0.17607903 -0.1814829 -0.7511012 -0.3871721 0.0044819647 0.119274 -0.0006794216
0.031585813 -0.38166505 -0.6031521 -0.52288663 0.444921 -0.035191737 -0.04936474 -0.09165197
0.08176167 -0.41845438 -0.6875371 -0.42163613 0.11661825 -0.1988624 -0.12968327 -0.13460444
0.33624062 2.6998645e-05 0.52552336 -0.5978001 -0.27760088 -0.00019978463 -1.0699846 -0.004075034
-0.05986417 -0.7795484 -0.10753704 -0.24204566 -1.1901164 0.0039690933 -0.6349746 -0.0025339704
-1.0099808 0.00067732844 -0.69467103 -0.42863813 0.15926845 -0.67918235 0.23233281 -0.0067429687
0.11209471 -0.0060586454 -0.06496193 -0.054400414 -0.27497253 -0.3538286 -0.43813452 -0.7269253
-0.13099715 -0.030898388 -0.6370925 -0.30986512 0.10164015 -0.011360288 -0.25323206 -0.0009253734
-0.317314 -0.18186265 0.05471313 -0.48239884 0.09222175 -0.7735207 -0.20135711 -0.31143886
0.26223668 -0.002486959 -0.032433297 0.0010867168 -0.21615416 -0.65955794 0.69092816 -0.5724087
-0.79718477 -0.0011003859 -0.20577589 -0.16910252 -0.40960118 -0.1093657 -0.5940403 -0.0020594536
0.3404022 -0.6284867 -0.22800323 -0.42878422 -0.70297855 -0.65934706 -0.29695082 -0.23131023
-0.48871222 -0.044569097 -0.6358731 0.0014514944 -0.6423167 -0.0616872 0.051314536 -0.02765418
-0.7303213 -0.0001614396 -0.7233591 -0.0037202137 -0.27195928 -0.06778854 -0.64960766 -0.48093712
-0.81432724 -0.291259 -0.49591386 -0.6948315 -1.0798347 -0.0040261815 -0.041228727 -0.35702345
-0.39127383 -0.20358221 -0.6188829 -0.5735433 0.212475 -0.08458316 0.31284338 -0.54210186
0.21088816 -0.6613808 0.00037698523 -0.55188483 -0.32315224 -0.0028495484 0.3756978 -0.65230966
0.574691 -0.19190145 -0.23094796 -0.35058746 -0.91230017 -0.00291762 0.14984547 -0.71904784
-0.31867754 -0.52517617 -0.9969321 -0.0016049498 0.62617844 -0.5438504 0.11679442 -0.0011707066

bias f4 [128]
00000000: 6529 18bf 72eb d2be 41e3 ba3f 2250 61bf
00000010: 93e6 19bf b2d2 27bf 2015 0c3d ca46 0f3e
00000020: a4e2 96bf 70d3 1c3d 34b9 133d d307 d2bd
00000030: 3981 b7be 0daf 31bf b860 f13f 960d 30bf
00000040: 4f19 06bd f764 1bbf b7b1 ba3c 50c8 63bf
00000050: 92f3 2fbf c7d0 b3bd 27b5 f3bd 8f99 d1be
00000060: 3692 73bd cd44 a4bf 785f 2bbf c1af 42bf
00000070: cfb0 a1bf 84ab 03bf ae8b d3be 1f70 7d3d
00000080: 04ac 4dbe bd25 22bf f46a 54be ef6f 4bbe
00000090: d837 47bf 73ae 95be 4805 e1be e20b 0bbf
000000a0: ca1b 34bf c07f ad3d d52d 53be 4555 b2be
000000b0: f68c 0abf a5a9 debe 5b5c 7dbd 5846 563d
000000c0: a988 cb3d 1548 373c 8f21 4dbe 65b7 2d3d
000000d0: 0261 10be 05cd b2ba 4e33 69bf e577 2ebe
000000e0: e03c 8dbd 97e8 0fbf a39e cebe b382 de3f
000000f0: 851c 70bd 9b37 32bf 98a5 aabd b9d4 443c
00000100: 9363 29bf 414e c1be 684f 88bf 9734 12be
00000110: 987c 89bb 6fe1 fd3b 400c 57bf 5213 79bf
00000120: 10ed 4cbf 24c5 c73d 7a52 d9bd 2920 60be
00000130: d221 16bf bb8e 9e3f e08a 1dbe 8e50 933d
00000140: bc68 e43f 7bd8 b43d 0358 f3bd 69d9 12be
00000150: d8b3 b1bd 9b2b 9dbd 76ee 87bd d704 bb3c
00000160: c41f 7ebe d37a c6be bb12 1cbf a0d9 16bf
00000170: 0a4b 80bf 6c41 e03c 70e0 d7be dc94 bfbe
00000180: 6aad 04bf e38c 1b3b a086 983d 2ae3 033d
00000190: 2a16 f83b 58fa edbe fff4 823f c85d b93f
000001a0: af70 80bf a066 71bf 187c 3dbe b340 dd3d
000001b0: 5164 c23d 112b 753d d6e4 15be 14ac d8bb
000001c0: c5e9 4e3d 5a0d b03d 6fd7 773f b0b7 69be
000001d0: 3e22 39be ca89 ecbc 7158 4fbe b1ed d4be
000001e0: a0da 22bf 6497 6b3c 095f bbbe 51cb e6bd
000001f0: c56b 17bf a35a 76bf 5347 aebe 90b4 7bbe
-0.59438163 -0.41195256 1.4600602 -0.880129 -0.60117453 -0.6555587 0.034199834 0.13991848
-1.1787915 0.03828758 0.036065295 -0.102553986 -0.35840777 -0.6940773 1.8857641 -0.6877073
-0.03273898 -0.60700935 0.02278982 -0.8897753 -0.68731034 -0.087800555 -0.118997864 -0.40937468
-0.05946561 -1.2833496 -0.6694255 -0.7604943 -1.2632083 -0.5143359 -0.41317505 0.061874505
-0.2008515 -0.63338834 -0.20743924 -0.19866918 -0.77819586 -0.29234657 -0.43949342 -0.54315007
-0.703549 0.08471632 -0.20622952 -0.3483068 -0.5412134 -0.43488804 -0.061855655 0.05231318
0.09938175 0.011186619 -0.20032333 0.042411227 -0.14099506 -0.0013641423 -0.9109391 -0.17037924
-0.068963766 -0.5621428 -0.40355405 1.7383636 -0.05862095 -0.696161 -0.08332366 0.012013608
-0.66167563 -0.37755015 -1.0649233 -0.14277874 -0.004195761 0.007747821 -0.84003067 -0.97295105
-0.8004923 0.097543985 -0.10611434 -0.21887268 -0.58645356 1.2387308 -0.15385008 0.07193099
1.7844462 0.08830353 -0.11882021 -0.14340748 -0.086768806 -0.07674333 -0.0663728 0.022829456
-0.24816805 -0.38765582 -0.6096608 -0.5892582 -1.00229 0.027374946 -0.4216342 -0.37418258
-0.5182711 0.0023735098 0.07447553 0.032199062 0.0075710015 -0.4648006 1.0231017 1.4481745
-1.0034388 -0.9429722 -0.1850437 0.10803356 0.0949179 0.059855524 -0.14638075 -0.00661231
0.05051591 0.085962966 0.968131 -0.22823977 -0.18079469 -0.028874297 -0.20248581 -0.41587594
-0.63614845 0.014379356 -0.36595944 -0.11269248 -0.5914882 -0.9623205 -0.3403879 -0.24580598

weight f4 [256, 128]
00000000: 640c cfbc 2cd9 39bd 0ed3 79be f0c3 423d
00000010: aeb0 8cbd 3a89 96bd cedd 9dbd 32c0 7b3d
00000020: 5ad1 aa3c d4c7 133c c001 133e dc81 5f3d
00000030: 9ef3 70bd 5502 853d d06c 6d3c 329b 373d
00000040: f1e9 b83d 00da ddba bfc9 773d e95a 573d
00000050: 3b90 13bd d952 b9bc dc92 79bc d886 afbd
00000060: dbb7 393d a560 e5bc a7b0 9a3d 9741 3ebd
00000070: 73ff e7bd bc9a cbbc 4400 9bbd 5346 48be
00000080: 2385 d0bd 95b1 bdbd d494 31bd 6b86 26bd
00000090: da36 ee3c a66a 9d3c 3f04 45bd 90a6 a93b
000000a0: a186 3a3c 9cc0 70bd 868b a03d 86b9 b53a
000000b0: 0861 15bc 9302 9fbd 123d 063e cf3c 393e
000000c0: f699 c63d 0275 e6bb 72b0 763d 95fb f33d
000000d0: 3e04 ba3b 69e5 72bc ded1 a0bd 9f83 19bc
000000e0: e551 883d 9c2b a63c baf8 06bc ae8d 12be
000000f0: 1543 b03d a071 cd3c c6f7 d2bd edf8 f4bd
00000100: ca11 07bc 05ca 8d3d 6c93 4c3c eda0 96bd
00000110: 024b 723c f349 09be e4e4 183c 2cdd 5d3d
00000120: d71f 313d 21ec 3f3e 1a67 fc3c 23cf 6bbd
00000130: 9857 8bbd 555d 45bd 8f98 913d e6e0 1f3e
00000140: c35d c8bd b887 4c3e dd98 d0bd 104a 99bd
00000150: 60d4 39bb eb71 753d 310f 26bd 3828 2abe
00000160: 53d7 e13c 3cf8 b6bc 24ac bcbc a4c3 9cbd
00000170: b080 173d 2ee2 af3d 3d2a 90bd 1b8f 53bb
00000180: 82c8 e4bc 741f ba3d b47e e33c a8ab 863d
00000190: 295f 7d3d 6316 9e3c e31d cebd 09c1 02be
000001a0: db7b 7f3d 9329 b4bd dd24 38bd f78a 9e3d
000001b0: c8d0 c43d 9df4 183e 3c9a 853d 792d 5fbc
000001c0: 69fb c0bd 95b4 c43d 4df9 9c3c 125d 483d
000001d0: 644b d93c eab8 313d b867 023d 2dc1 28bd
000001e0: fdc6 b03d 2d1d aa3d 82af e8bc 8665 283d
000001f0: 4ad5 4a3d 6be9 7dbd 28bd 8e3c b17b b3bd
00000200: 2a93 96bd 1a69 82bd 6f88 84ba f22b 2cbd
00000210: 4d8c 8b3b a18a a33d 4417 8bbd f3c8 923d
00000220: 06db 0fbd 2a20 41bd 107a 05bd ac51 06bd
00000230: f0a0 ef3c 3272 48bd 16b5 48bd 39b6 39bd
00000240: 7a08 723d d248 5c3d e17b e83c a932 223d
00000250: 550f b23d 7497 c7bc eac5 fabc 004f 26ba
00000260: 6ed4 193c 68fe 15bd c494 b73c 56df b6bc
00000270: d684 ea3c 36e5 2e3d 2533 0b3c f864 01be
00000280: bf85 90bd d5a5 97bd 97a2 133d 5b14 d4bd
00000290: 17f4 46bd 082f 3ebd 8a59 86bd c4bb 053d
000002a0: 9083 a6bd a7fb 903d 681b 63bd b65b 0ebc
000002b0: a1d2 983d 3279 563d 4a36 303d f71f 63bd
000002c0: 70cb 203c a89d 14bc 2fb5 0cbc b8a4 723c
000002d0: d5f7 b23c 9bdb a03d 1ff7 f7bd e804 36bc
000002e0: 043e 91bc 4d85 9f3d 07bc f2bb 5a31 f8bd
000002f0: 4776 aabd b743 48bd 6c20 6bbd adfa 2cbc
00000300: cd1f 17bd 0cc1 abbc 5a82 72bd 7fe6 cebd
00000310: 602d 6b3b 9271 1bbd fdc3 ae3c 1780 c6bc
00000320: 7f29 b2bc 6731 1dbd aabf 30bd 5edb 08be
00000330: 1296 ffbd be1a b9bc 668a 25bd 8c98 a4bd
00000340: fa32 2dbd c439 1bbd 1ec0 febd ba1f 2cbc
00000350: e0a3 5c3c 66d8 aabd 3bed 94bd 3911 11bc
00000360: d035 abbd 1309 47bd 4bbc acbd 6038 61bc
00000370: c0af 98bc 4785 4abd a683 153d 20b8 353d
00000380: d451 83bc 8a7c 133d 5668 683d b08e a03c
00000390: 38de c2bd 8df6 9ebd f080 59bb 6497 dfbd
000003a0: 7389 d33b 8090 af3c b1ef ab3d 808b 883a
000003b0: 3683 603d edd5 933d b67f c53c 7298 97bd
000003c0: a877 98bc a024 cbbc 3ddc e8bd 130e 923d
000003d0: bd93 8b3d e102 8dbd 26b0 99bb 528d 623d
000003e0: 2601 623d b642 28bd fdeb 2dbd 5a5b 633d
000003f0: 0ea2 173d 5ac9 653c 08ea e83c 63f8 e6bd
-0.025274463 -0.045373127 -0.24396917 0.04755014 -0.068696365 -0.07350393 -0.077083215 0.06146259
0.02085178 0.009019811 0.14356136 0.054567203 -0.05882608 0.064945854 0.014491275 0.04482574
0.09028996 -0.0016925931 0.060495134 0.052576933 -0.03602622 -0.022622513 -0.015232768 -0.08570641
0.045341354 -0.028000185 0.07553225 -0.04644927 -0.1132802 -0.024854057 -0.0756841 -0.19558077
-0.10181644 -0.09262387 -0.043354824 -0.040655535 0.02907889 0.019215893 -0.048099753 0.0051773265
0.011384637 -0.058777437 0.07839112 0.0013864494 -0.009117372 -0.07764163 0.13109234 0.18089603
0.096973345 -0.0070329914 0.060226865 0.1191322 0.0056767752 -0.014825203 -0.07852529 -0.00936976
0.06656245 0.020284466 -0.008238012 -0.14311859 0.08606545 0.025078595 -0.10301165 -0.11961541
-0.008243987 0.06923298 0.01248632 -0.07354913 0.014788391 -0.13407116 0.0093319155 0.054166004
0.043243255 0.1874242 0.030810881 -0.057570588 -0.068038166 -0.04818471 0.07109176 0.15613136
-0.09783509 0.19973648 -0.10185406 -0.074848294 -0.0028355345 0.059923094 -0.04054183 -0.16616905
0.027568495 -0.022335164 -0.023031302 -0.07654503 0.03698796 0.08588062 -0.07039306 -0.0032281342
-0.02792764 0.090880305 0.027770378 0.065757096 0.06185833 0.019297784 -0.10064294 -0.1276895
0.062373977 -0.08796992 -0.04495703 0.07741349 0.09610134 0.14937063 0.065235585 -0.013621681
-0.09422953 0.09604756 0.019161845 0.048916884 0.026525207 0.04338924 0.031837195 -0.04119985
0.08631704 0.08306346 -0.028404001 0.041112445 0.049519815 -0.061990183 0.017424181 -0.08763827
-0.07352288 -0.06367703 -0.0010111461 -0.042034097 0.0042586685 0.07985426 -0.06791547 0.07167234
-0.035120986 -0.047149815 -0.03258711 -0.032792732 0.029251546 -0.04893703 -0.049000822 -0.045339797
0.059090115 0.053780384 0.028379383 0.039599095 0.086943306 -0.02436421 -0.03061195 -0.00063441694
0.009389026 -0.036619574 0.022409804 -0.022323292 0.028627794 0.04269906 0.0084960805 -0.12636173
-0.0705676 -0.07404677 0.03604373 -0.10355445 -0.048572626 -0.04643157 -0.06560047 0.03264977
-0.08130562 0.07079249 -0.05544606 -0.008688858 0.07462049 0.052361675 0.043020524 -0.055450406
0.009814128 -0.009070791 -0.008588119 0.01480978 0.021846691 0.078543864 -0.121076815 -0.011109568
-0.017729767 0.07789097 -0.0074076685 -0.12118788 -0.08323341 -0.048892703 -0.057403967 -0.010557813
-0.036895562 -0.020966075 -0.059206344 -0.101025574 0.00358852 -0.037950106 0.021333689 -0.024231
-0.021748303 -0.038377192 -0.043151535 -0.13364932 -0.124797955 -0.02259576 -0.04041519 -0.080369085
-0.042284943 -0.037896886 -0.12438987 -0.010505611 0.013466805 -0.08342056 -0.072718106 -0.008854204
-0.08359873 -0.04859264 -0.084343515 -0.013746351 -0.018638492 -0.04944351 0.036502503 0.04436505
-0.01603023 0.03600744 0.056740128 0.019599289 -0.09515041 -0.077618696 -0.0033188425 -0.10917547
0.006455594 0.021431208 0.08395327 0.0010417551 0.054812633 0.072185375 0.024108749 -0.074021235
-0.018611744 -0.024797738 -0.11370132 0.07131591 0.06815288 -0.06885315 -0.004690188 0.055310555
0.055176876 -0.041079246 -0.042461384 0.05550704 0.03701978 0.014025057 0.028431907 -0.11277845

bias f4 [256]
00000000: f838 01bf 4f8a 38be df00 c4bd 7fa2 7ebe
00000010: fb58 8e3f f14e 35be bf86 acbe aeff c6bd
00000020: 41af b7be 3744 c9bd 9ad7 0fbe a0be 83be
00000030: eb5e 45be ae9f c1be 7685 66bf 2b1a 61be
00000040: 00e2 87be 7940 93be d864 f5be 3b91 933f
00000050: 28e6 59be 4f31 b2be 1f79 87be fbcb b3be
00000060: b7af 2dbe 2d9b 5cbf 0dbc c2be 6f91 ffbe
00000070: 55c3 78be bc6a 75be 5178 ae3e f710 c7bb
00000080: 5997 ad3f ed67 63be 1be9 12be 8004 963f
00000090: 042b 39bd e1f6 3cbe 5a3d f6be cb51 753f
000000a0: 6bcf 76be 2d1c 60be 6e03 9dbe 47c0 6bbe
000000b0: ea25 b7be cf5e 0dbe 5795 88be e8b8 37bc
000000c0: 07a4 d9bd eccd 1cbf 05ed 033f 96d4 153f
000000d0: 8b8e df3e a657 ccbe 0510 32be b66a b9be
000000e0: 59b2 dcba 58a9 99be 9707 0fbd feef e7bd
000000f0: da91 cc3e 02fd 1b3e 1055 3abd d576 a7be
00000100: 7184 91be 96be 0cbf ff35 67be bc4f b8be
00000110: 36da cabd 9951 66be 5dac 403e 4a21 053f
00000120: 3bbf 06be cdc2 edbe 1eb2 57be f10f 6abe
00000130: 25cf a7bd b2a0 f5ba 614b 88be e905 26be
00000140: 64ec a3be aebd 50bf 92c3 c9bd 413f 11bd
00000150: 910a 46be 40cf 83be fe9d 8ebe 0833 b3bc
00000160: dac7 70be c231 ccbe 9aee f3be 0f4b 82be
00000170: 33f2 38be 199d 47be f77c 93be 48fb b4be
00000180: 48f9 973f 3ac9 49be ca56 00be c19d 08bf
00000190: 0e54 a1be d2eb 18be dbc4 9ebe 9742 89be
000001a0: 34d3 3bbf 9dac 8dbe ebe6 75bb 98d7 b7be
000001b0: ab85 87be 8f3d 56bd e2f2 57be 0778 cebe
000001c0: c6c0 b33e 9686 04be 8c05 0bbf fb5d 38bb
000001d0: 4193 9abe bd0e f0be c39a 1bbf 1623 66bd
000001e0: 7feb 86be e8af 01bf 9477 1abe c78e b23e
000001f0: 5a11 2abc f35a 24be 112e a4bd e725 81be
00000200: 080b 9fbd 344e 423f 54b7 453f 450a 6fbe
00000210: 9e09 43bd a154 17be 3351 bcbe 5167 b5bb
00000220: f150 563e e6bc f5be f1de 05be 71fe 07be
00000230: 9605 3c3e 1403 1fbe 9d7f c3bb f344 25be
00000240: 08a9 8abe f37a 3cbb 04e6 55be 4dd9 47bd
00000250: 4271 a6be 4eaf a1be e383 3dbf 93d1 a5be
00000260: 72e0 14bd e722 69bd 3aad 00be 3c2f 84be
00000270: d04a 6fbe 858a fcbd e36d 29be b2ab ddbd
00000280: 5122 93be 60fa d8be b6a9 30be 9d5b 1a3e
00000290: 8d66 43be c9d3 8bbe 8844 0d3f 962a c3be
000002a0: dd59 69bc 7c2e 88be 4db1 60be 2a55 81bf
000002b0: 1881 31be 7f87 b1be 80e6 213f 0205 9bbe
000002c0: 3a77 d1be c04b 133f ff37 66be 1a25 a33e
000002d0: a6c4 c6bd 58bd 0e3f 179a 053f f275 183f
000002e0: fae0 99be 83a8 ffbe e17d dabc 5c86 bcbe
000002f0: b881 39bf 50e6 3f3f cb85 43be 94f4 01be
00000300: 9b2f 5bbe 13ae a7be 4867 06bf cd62 d5be
00000310: bab0 58be 7287 71be eea2 5cbe c0c6 3ebf
00000320: 2fd0 01be bfb0 b8be 92fb 553e 2f53 62be
00000330: 7455 e6bd 2f43 99bd 52a4 b8be b76c 80be
00000340: b532 c9be 83e6 06bf 9a13 41bf 4d30 47bf
00000350: 5757 b9be 9cca 2a3f 8abd edbe a3cd b1bb
00000360: fbf2 42bf a915 0f3f 74cf c2be c7e6 a8be
00000370: a6b8 c13e 49c1 f4bd c328 a8b9 62a4 bdbd
00000380: 59ca c53e 8d0f 81be ec60 e3bd c4e1 97be
00000390: 8f54 aabd 5d69 e4bb 0c3b 15be 5c76 873e
000003a0: e064 47be fb4f 10be 156e 10bf 50c1 2cbf
000003b0: 7a6c adbd f34a 65be e836 b1be e84d 3ebe
000003c0: 9a0a f13e 4d90 0cbf 3bdf d8bd cf6c c2bd
000003d0: df3f 2ebe 7dbf 46be f310 59be 261c f3be
000003e0: b6d9 e9bb 88ab c43e 0101 343f bd3f 89bf
000003f0: 3aa9 893f c7bc 8abe 2306 47be ad0b 31be
-0.5047755 -0.1802151 -0.09570479 -0.24866675 1.1120905 -0.17705895 -0.33696553 -0.09716736
-0.35875896 -0.09827464 -0.14047089 -0.25731373 -0.1927449 -0.37817138 -0.90047395 -0.21982639
-0.26539612 -0.28760126 -0.479285 1.1528696 -0.21279204 -0.34803244 -0.26459596 -0.35116562
-0.16961561 -0.8617428 -0.38034096 -0.49915645 -0.24293263 -0.23966497 0.3407617 -0.0060750204
1.3561813 -0.22207613 -0.14346735 1.1720123 -0.04520704 -0.18453552 -0.48093683 0.9582793
-0.24102561 -0.21885748 -0.3066668 -0.23022567 -0.35771114 -0.13805698 -0.26676437 -0.011213519
-0.10626989 -0.6125171 0.5153354 0.58527505 0.4366344 -0.3991062 -0.17388923 -0.36214226
-0.001683782 -0.30012012 -0.034919348 -0.11325072 0.39955026 0.15233234 -0.04549128 -0.3270785
-0.28421357 -0.5497831 -0.22579192 -0.35998333 -0.09904902 -0.22492065 0.18815751 0.5200392
-0.13158886 -0.46437684 -0.2106404 -0.22857644 -0.081938066 -0.0018739908 -0.2662001 -0.16213192
-0.3201629 -0.8153943 -0.09851755 -0.035460714 -0.19339968 -0.25744057 -0.27854913 -0.02187492
-0.23513737 -0.39881712 -0.47642976 -0.2544789 -0.18061142 -0.19493522 -0.28806278 -0.35347962
1.187295 -0.19705668 -0.12533107 -0.53365713 -0.3150944 -0.14933708 -0.31009564 -0.26808617
-0.73369145 -0.27670756 -0.003752167 -0.35906672 -0.26469168 -0.0523048 -0.21088746 -0.4032595
0.35108012 -0.12941965 -0.5430534 -0.0028132189 -0.3019047 -0.46886244 -0.6078302 -0.056185804
-0.26351544 -0.50659037 -0.15084678 0.34874555 -0.0103801135 -0.1605032 -0.08016599 -0.2522423
-0.07765776 0.7590058 0.7723286 -0.23343761 -0.047616594 -0.14778377 -0.367807 -0.005535998
0.20929314 -0.4799568 -0.13073327 -0.13280655 0.18361506 -0.15528518 -0.0059661404 -0.16139583
-0.27082086 -0.0028759807 -0.20888525 -0.04879122 -0.32508284 -0.3157906 -0.7402937 -0.32386455
-0.03634686 -0.05691805 -0.1256608 -0.25817287 -0.23368382 -0.12331108 -0.16545825 -0.10823764
-0.2873712 -0.4237852 -0.1725224 0.1507401 -0.19082089 -0.27310017 0.55182695 -0.38118428
-0.0142426165 -0.26597965 -0.21942635 -1.0104115 -0.17334402 -0.34673688 0.6324234 -0.30277258
-0.40911275 0.5753746 -0.22482298 0.31864244 -0.097054765 0.55757666 0.5218825 0.5955497
-0.30054456 -0.49933252 -0.026671352 -0.36821258 -0.7246356 0.74960804 -0.19094007 -0.12690955
-0.21404879 -0.32749996 -0.52501345 -0.41676942 -0.21161166 -0.23586825 -0.21546528 -0.7452202
-0.12677072 -0.36072347 0.20896748 -0.22102045 -0.11246768 -0.074835174 -0.36062866 -0.25082943
-0.392965 -0.5269548 -0.75420535 -0.77808076 -0.36199448 0.6671541 -0.4643367 -0.005426125
-0.7615201 0.55892426 -0.380489 -0.3298857 0.37836188 -0.11950929 -0.00032073827 -0.09259869
0.38630942 -0.25207177 -0.11102471 -0.29664433 -0.083169095 -0.006970568 -0.14573306 0.2645749
-0.19472075 -0.1409301 -0.5641797 -0.6748247 -0.08467956 -0.22391872 -0.34612203 -0.18584406
0.470784 -0.54907686 -0.10589453 -0.0949341 -0.17016552 -0.19408984 -0.21197872 -0.47482413
-0.007136549 0.38412118 0.7031403 -1.0722576 1.0754769 -0.2709715 -0.19435935 -0.1728961

weight f4 [2, 256]
00000000: 7340 ccbc e0ef b33d 9c75 70bd 46a3 223c
00000010: 779f c4be 5d64 493d e174 11bd 9269 813c
00000020: 39c4 053e a5b9 8e3c fb18 5dbe b1c8 dd3b
00000030: 6c0e a7bd 034c d53e 3302 d6bd ad70 893d
00000040: 0ccb 5f3b 5f02 993d 8ed0 89be 0ac5 2fbf
00000050: ed96 30bc fb94 8c3d 3860 1abe 27a8 503d
00000060: 660a 8c3d e5f6 22bc 53e8 e63c 64c4 813d
00000070: 9b51 f93d d773 00bd 54e5 733f 8345 d63a
00000080: 4693 f7be 25f9 12bd c474 1c3e e9e8 e0be
00000090: 26aa b03c e7d6 3f3c 5bc7 973e fee3 89be
000000a0: 7340 343d 88e2 883d 86fb 183c cb9e c63c
000000b0: f0c7 493d 94c4 ddbe 3946 a83d e715 38bc
000000c0: cc61 793a 6b41 84b9 d27e 52be 149c bfbd
000000d0: 0a7c f6be 8645 1c3e 228f bb3d 8c80 21be
000000e0: d1de d23b f191 0b3d f3df 953c d0f5 07bd
000000f0: 763a 8d3f 282d 6abe 7837 f53c 7049 97bd
00000100: 27bc 85bc ac20 2bbb a835 723d 9ca8 c5be
00000110: 2259 e0bc 3ee6 20bd 2ed0 7dbd 9c48 3f3e
00000120: a748 94be 4767 44bd 6a1c a63b dd67 ca3d
00000130: 8e20 14bd 0d41 ccbc a188 763d ff1a f1bc
00000140: 9f9b 1ebe 09f8 d23e b6de 2c3c 9f21 b1bc
00000150: cd7b 5f3c 045a 48bc a13b a638 83b5 3cbe
00000160: 05b5 4abd 3a58 ad3d 333f 103f e8df b6bc
00000170: c80b 423d c209 b13d 75f6 2ebd 4864 ef3e
00000180: 424f b9be e7da e03d 9bf7 1a3b daee 5d3b
00000190: a452 a63d 32cd abbe 1521 42bd 1783 3f3c
000001a0: 2f76 bb3d c778 67bd a8ec 8c3e a1a6 973d
000001b0: f79d 87bc b5b5 993b 8120 6cbd b5ad eabe
000001c0: 6b1d cebe bf38 3c3c 5d42 da3e 506c a7be
000001d0: d044 7ebd fde5 3fbe d6ee 0b3e 0657 a3be
000001e0: 22b1 1cbc f3af 053e eaab 0abd 865d 713f
000001f0: 4306 a8bc 47a3 573b 7b35 e3bb 1cbb 083f
00000200: ef99 2d3c a0eb 363f 2661 4abe 536f 5f3b
00000210: a889 41be 6851 493c 9529 e93c e75a e63c
00000220: 4243 a0be 6ef2 73bd 31d8 af3d 822b 22bf
00000230: 998a 1f3d 4d53 64bb 060f d43e bcc6 a1bc
00000240: 5866 86bc 4fc0 8cbe b433 9cbe dbae 2c3f
00000250: c8b8 31bd 75c3 083c 1e5d 1a3f 8e8b 833d
00000260: dd22 723e 70aa efbd 21a9 ad3c 596b 723d
00000270: d2a8 b23c 77ba 583d 9a4c 9ebe 392f 17be
00000280: 97eb f03c 9fb3 d03d d266 31be 81e9 a53e
00000290: cdb7 4d3d 42e9 2f3d 1fc7 243f 571d b9be
000002a0: 8f67 cdbd 415d 8fbc 437d e938 9a38 d23e
000002b0: 5400 b03d 27f8 043e 58ae 133f 58d4 3ebe
000002c0: 13cf ca3e 722f a03f 89c1 493c cdbd 42be
000002d0: 8b63 a4bc ac19 23bf 0593 103f 6c41 8c3f
000002e0: e8cb af3d 00b3 463d 1d79 af3b 91c7 8b3d
000002f0: b8e8 ce3b 44b4 a6bd 709f fb3c 52ad 25be
00000300: d791 633d d538 233e 4973 25bf 7bce 5bbd
00000310: 3431 883c ad26 d0bc 4496 e13d 0568 283e
00000320: 6912 393d b748 d9bc 69f3 903f 7906 a1ba
00000330: 8719 3dbe 2326 343d b37f aabe f48b b3bd
00000340: 0eec b7bd 6786 fd3c 596f 8fbd 11f4 0bbd
00000350: c446 1d3f ed4c 02bf f850 ecbd a0a1 dabe
00000360: c680 5ebc 617f 453f c6c0 b9bd a4f0 6ebe
00000370: 01f3 723f 927f 63b9 e278 6cbd 5ab4 d93c
00000380: f001 9b3f 6161 23bd 9c8a 15be 493c 2f3c
00000390: b79f e5bd 1b9c f0bd 2839 82bb 4cee 92be
000003a0: 2f6e 28bc 3352 5bbc 88e4 153f 1ff0 003d
000003b0: 8345 4a3d 6f3f 27be 94bf 223e 6e3a 2abd
000003c0: 8b2a bf3e e624 82be d391 a5be 17fa a03c
000003d0: 8213 b2bc dcc6 3c3c f4d5 a43c 8243 4c3e
000003e0: 5e9d 9f3e 6dcd ebbe dcd0 d93e f2ea c83e
000003f0: b3fd 743f 9aa4 01be de72 1ebb f47a b1bc
-0.024933076 0.08785987 -0.05870591 0.009926623 -0.38402912 0.04916798 -0.035511855 0.01579741
0.13063134 0.017422507 -0.2159156 0.006768309 -0.08157048 0.41659555 -0.10449638 0.06710944
0.0034148125 0.074711554 -0.26916927 -0.6866003 -0.010778171 0.06864353 -0.15075767 0.050941613
0.06837921 -0.00994656 0.028186953 0.06336287 0.12173768 -0.031360473 0.952718 0.001634762
-0.48354548 -0.035882134 0.15278918 -0.43927696 0.021565508 0.011708952 0.29644284 -0.26931757
0.044006776 0.066838324 0.009337312 0.02424564 0.04926294 -0.4331404 0.08216519 -0.011235691
0.0009513169 -0.00025225742 -0.2055619 -0.093559414 -0.4814151 0.15260896 0.0915816 -0.15771693
0.006435253 0.034074727 0.018295264 -0.03319341 1.1033466 -0.22868788 0.029933676 -0.07387054
-0.01632507 -0.0026112003 0.0591332 -0.386052 -0.027386252 -0.039282076 -0.061966114 0.18680042
-0.2896168 -0.047950055 0.005069305 0.098830916 -0.03616386 -0.024933362 0.060188893 -0.029431818
-0.15489052 0.4120486 0.010551145 -0.021622477 0.013640356 -0.012228493 7.9266036e-05 -0.18428616
-0.04948904 0.084640935 0.56346434 -0.022323564 0.047374517 0.08644439 -0.04271551 0.46756196
-0.3619328 0.10979252 0.002364612 0.003386429 0.08121231 -0.3355499 -0.04739483 0.011688969
0.09153401 -0.056511667 0.27524304 0.07404829 -0.016554816 0.0046908506 -0.057648186 -0.45835653
-0.4025682 0.011488139 0.42628756 -0.32699823 -0.062077343 -0.18740077 0.13665327 -0.3190233
-0.009563716 0.130554 -0.033855356 0.9428333 -0.020510798 0.0032903717 -0.0069338656 0.53410506
0.010595783 0.71453285 -0.19763622 0.0034093454 -0.18900168 0.012287475 0.02846221 0.028119517
-0.31301314 -0.05955737 0.08586157 -0.6334764 0.038950536 -0.003483969 0.41417712 -0.019748084
-0.016406223 -0.2749047 -0.30508196 0.6745431 -0.04338911 0.008347382 0.60298336 0.06423102
0.23646112 -0.1170243 0.021198811 0.059184406 0.021809015 0.0529122 -0.30917817 -0.14764108
0.029409213 0.1019051 -0.17324379 0.32404712 0.050224114 0.04294706 0.64366335 -0.36155197
-0.10029518 -0.017500522 0.000111336376 0.4105881 0.085938126 0.12985288 0.576879 -0.1863569
0.3961111 1.2514479 0.012314209 -0.19017716 -0.020066997 -0.6371105 0.56474334 1.0957465
0.08583814 0.04851055 0.005355014 0.06825174 0.0063143633 -0.08139852 0.030715674 -0.16179398
0.055559006 0.15939648 -0.64629036 -0.053663712 0.016625024 -0.025409067 0.11014989 0.1644593
0.045183573 -0.026523931 1.1324283 -0.0012285254 -0.18466769 0.043981683 -0.33300552 -0.08766928
-0.08980571 0.030947877 -0.0700366 -0.034168307 0.61436105 -0.5089863 -0.11538881 -0.42701435
-0.013580507 0.7714749 -0.09069972 -0.23333985 0.94902045 -0.0002169593 -0.05773247 0.026575256
1.2109966 -0.03988779 -0.14603657 0.010695525 -0.11212104 -0.11748525 -0.0039740987 -0.2869743
-0.010280176 -0.013386297 0.58551836 0.031478997 0.049382698 -0.16332792 0.15893394 -0.04155963
0.37337145 -0.25418776 -0.32337818 0.019650502 -0.021737818 0.011522021 0.020121552 0.19947627
0.3117475 -0.46055165 0.4254216 0.3924175 0.95699614 -0.12660447 -0.0024177353 -0.021665074

bias f4 [2]
00000000: 1ca9 c13f 7c74 bf3f
1.5129733 1.4957423
