model/model.pth (torch, 10643 bytes, 4 tensors)

linear1.weight f4 [256, 3]
000000 bd 6f de 3d 2c 85 14 bf 52 d4 b2 be fb e4 44 be
       0.10861156 -0.58015704 -0.34927613 -0.19227974
000010 fb f3 80 bf 3f 6d 47 be 87 7d 19 3e 72 56 14 bf
       -1.0074457 -0.19475268 0.14989291 -0.57944405
000020 c7 8d 2b be 5b 3c 46 3f b4 dd 84 3e e9 b0 e7 3e
       -0.16753303 0.77435845 0.25950396 0.4525216
000030 b6 f1 70 bd 48 89 51 bf 75 ad 0e be 17 8a 5b bf
       -0.058824264 -0.818501 -0.13933356 -0.85757583
000040 72 b3 0b be 13 f3 9e bf 65 0b 15 3e 6e f2 81 bf
       -0.13642672 -1.241793 0.14555128 -1.0152109
000050 aa f6 4d bf 10 b4 16 3e 22 30 d8 be 0b 33 6e bf
       -0.80454504 0.14717126 -0.42224222 -0.93046635
000060 71 4e 0b 3f db fd 4c 3e 43 4e 29 3f 42 e4 cf 3e
       0.5441657 0.20018713 0.6613504 0.40603834
000070 8a b3 d5 3e c4 ed fa 3e 68 94 ff 3e 5c 4a 91 3e
       0.4173854 0.49009526 0.49917912 0.28377044
000080 02 1a 83 3e 5c b0 18 3d 3c 55 14 3f fe 2b 65 3f
       0.2560578 0.037277564 0.5794256 0.8952025
000090 c0 d2 d3 3d ea 61 d1 3e d7 d6 24 3f a7 71 4a 3f
       0.10342932 0.40895015 0.6439032 0.7907967
0000a0 e5 42 14 3f 1d 94 d7 3d 73 6d 4f bf f1 2e 4b bf
       0.5791457 0.10526297 -0.8102638 -0.793685
0000b0 5f 71 82 be d6 20 9d 3f 15 58 53 3e 5e a5 76 3f
       -0.2547712 1.2275646 0.2063907 0.9634608
0000c0 3b 59 16 be 58 1b dd be 0d 58 f9 be 8f 43 4b 3f
       -0.14682476 -0.43184924 -0.4869999 0.7939996
0000d0 2d ac c3 3d b7 77 b8 3e e1 22 5e be 9f 51 0d bd
       0.09554324 0.36028835 -0.21692993 -0.034501668
0000e0 ab 24 e1 be e6 44 f4 bd 4b 6b 91 3e 07 37 1d 3f
       -0.43973288 -0.11927204 0.2840217 0.6141209
0000f0 da cc eb 3e 3d d1 a5 3d 68 72 29 3f fe 0b 07 bf
       0.46054727 0.0809655 0.66190195 -0.52752674
000100 f4 7b 8a bd 94 eb db be 25 44 81 bf 29 94 9f be
       -0.067619234 -0.4295317 -1.0098921 -0.31167725
000110 fa c6 fc bd 0a 92 94 bf 7a d0 89 be 95 2b 0d bf
       -0.12342639 -1.1607068 -0.26916867 -0.55144626
000120 73 14 2d bf 19 81 3c bc b1 40 36 bf 9e 95 09 bf
       -0.6760933 -0.011505389 -0.7119246 -0.5374392
000130 c4 7f b6 bd 4a 14 e4 be 9c 40 c0 be 85 71 02 be
       -0.08911088 -0.4454673 -0.37549293 -0.12738617
000140 7b 8e c6 be ad 8d 65 3e 7c 8e e6 be 04 0b 9d be
       -0.3878058 0.22417326 -0.45030582 -0.30672467
000150 20 a6 64 3e a0 0f a4 3c 90 2c d9 3e 04 9b 74 bf
       0.22328997 0.020026982 0.4241681 -0.95549035
000160 81 ca 4f be 31 8c 1b be 00 05 90 3e f8 e0 8b 3e
       -0.20292093 -0.15190198 0.28128815 0.27320075
000170 86 d3 7b 3f 4c 60 27 be 38 4f 14 3f 00 a4 8b 3f
       0.98369634 -0.16345328 0.5793338 1.0909424
000180 39 cf 62 3e 11 be 49 3f de ed 9c 3e 5e 68 dc 3e
       0.22149362 0.78805643 0.30650228 0.43048376
000190 6c 0e ba 3e 0d d2 89 3e a1 e3 77 3e 17 9f 61 3e
       0.36339128 0.2691807 0.24207927 0.22033344
0001a0 56 01 1e 3f a7 0a 35 bf ab 05 a8 be 71 67 af bd
       0.6172079 -0.7071938 -0.32816824 -0.08564652
0001b0 0c ae f9 3e d0 ed b0 3d b0 50 83 3e 7f dd 4b 3d
       0.487656 0.08639109 0.25647497 0.049771782
0001c0 61 7e 51 bf 4c d4 a6 be 43 eb 6d 3f fd e5 36 3f
       -0.81833464 -0.32583845 0.92937106 0.71444684
0001d0 d9 38 b9 3d 4c f9 02 3e e0 1c 1b 3e 58 43 10 3e
       0.09044046 0.12790412 0.15147734 0.1408819
0001e0 ff bc ac 3e 33 00 05 3f d9 4e 53 bc f0 ce 04 bd
       0.33737943 0.5195343 -0.012897217 -0.032423913
0001f0 c0 69 e0 be 8c be 7e be 15 ae 01 bf 28 8e b0 bd
       -0.4383068 -0.24877375 -0.50656253 -0.08620864
000200 cc 99 6f bf 18 88 52 3e 38 a2 5b bf 1d a4 3c bf
       -0.9359405 0.20559728 -0.857944 -0.73687917
000210 74 1a b6 3e 3e 39 d2 3e 00 ff d6 3c e8 c7 ab 3d
       0.35567057 0.41059297 0.02624464 0.083877385
000220 de af 07 3f 88 69 b8 3e 57 13 d6 3e f1 e3 1d 3f
       0.5300273 0.36018014 0.4181163 0.61675936
000230 33 ca 4c bc d7 0f a3 bd 21 e8 03 3e 71 15 28 3f
       -0.01249938 -0.079620056 0.12881519 0.65657717
000240 60 49 00 3e 08 db 1a bf b5 e3 81 be b1 91 87 3d
       0.1252799 -0.60490465 -0.2536904 0.06619585
000250 4c f9 15 3c 7d 24 16 3f 78 1f 53 3e 0a f2 ce be
       0.009153675 0.58649427 0.20617473 -0.40419036
000260 62 42 d1 be 72 9e 68 be 32 fc ba be 0a 1b 10 bf
       -0.4087096 -0.22716692 -0.36520535 -0.5629126
000270 cd 15 5b be f1 ff 4a bd 08 7a 5d be 7e 3e 89 3e
       -0.21395035 -0.04956049 -0.21628582 0.2680549
000280 19 4a d0 3c cb 9d e1 3e 80 82 5f bc 0e 75 e2 be
       0.025425958 0.440657 -0.0136419535 -0.4422993
000290 12 b7 ce be 72 68 e7 be 54 9d 25 be 3c b1 0d be
       -0.40374047 -0.45196873 -0.16173297 -0.13837141
0002a0 5f 54 8e 3e f0 2e 5c bf a8 11 57 bf 66 27 2c 3f
       0.27798745 -0.8600912 -0.84011316 0.6724762
0002b0 ce ec ec 3d f0 a4 02 3e f8 88 b1 3e dc 79 f1 3e
       0.115686044 0.12758231 0.3467481 0.47163284
0002c0 59 19 c2 3d eb 6a 54 bf 1c 30 2e bf eb 83 a5 bd
       0.09477491 -0.82975644 -0.6804216 -0.08081802
0002d0 20 6f 86 bd 0a 86 31 be cc 9f 62 be ef 94 33 3f
       -0.06564164 -0.17336288 -0.2213127 0.7014913
0002e0 75 6d d8 3d 65 42 2d 3d 45 24 90 bc c9 d1 d2 bc
       0.10567752 0.042299647 -0.01759542 -0.025734799
0002f0 59 03 24 bf 30 3b de bd 56 4d bf bd 12 9b 34 bf
       -0.6406761 -0.10851133 -0.093409225 -0.7054912
000300 f4 0a 19 be f0 bf a9 be 82 d4 04 bf 85 1f ee be
       -0.14945585 -0.3315425 -0.5188676 -0.46508422
000310 4c c2 0e be f5 18 80 bf 84 90 52 3d 3a d8 b1 bd
       -0.13941306 -1.0007616 0.051407352 -0.0868382
000320 b3 e9 28 bf 98 dd 97 3e db 4a 24 3e eb f9 7e 3f
       -0.65981597 0.2966125 0.1604418 0.99600095
000330 d5 99 06 3f 79 e2 ad 3c 7c e0 2c 3f 2b 93 51 3d
       0.5257848 0.021226155 0.67530036 0.05116574
000340 26 e6 3d 3e 54 db 2a 3f b8 ac 30 3e 63 94 8e 3e
       0.18544826 0.6674092 0.17253387 0.27847585
000350 4f 18 24 3e fc 54 ce 3e 64 27 fa 3e 6c af 9d 3e
       0.16024898 0.40299213 0.48858178 0.307979
000360 99 d9 27 3f 5b a8 2a 3d 22 7d 1c 3f 9b 48 95 3f
       0.655664 0.041664463 0.6112844 1.1662782
000370 73 e7 4d 3e 39 b6 5a 3f 69 e5 85 3f 00 e6 fc 3e
       0.20107822 0.854343 1.0460635 0.49394226
000380 58 79 93 3e 14 60 ae 3d 61 a9 88 be ea a6 17 be
       0.28803515 0.08514419 -0.26691726 -0.14809766
000390 a9 17 0b 3f 6b 24 80 3e af aa 13 3f 3c 82 53 bf
       0.5433298 0.25027785 0.5768232 -0.82620597
0003a0 02 e5 67 bf 49 12 3b be c5 43 41 bf a4 76 cb bd
       -0.90583813 -0.18268694 -0.75494033 -0.09934738
0003b0 56 3a a6 be 0c 4e a4 3e 9c 73 0b 3f 9c df 8c 3e
       -0.32466382 0.32090795 0.5447328 0.2751435
0003c0 ba 43 86 3e 54 68 03 3e 66 9b d4 3e e1 2f fc be
       0.26223546 0.12832767 0.4152481 -0.4925528
0003d0 94 60 aa be 87 7c a8 be 29 80 c9 3e 7a 7f 27 3f
       -0.33276808 -0.32907507 0.3935559 0.6542889
0003e0 d0 53 50 3e 6f f3 f0 3e 93 8d 73 3e f2 09 d3 3c
       0.20344472 0.47060725 0.23784475 0.025761578
0003f0 04 a6 2f 3e 4c 65 bc be 36 f9 11 bf 4c 04 68 bf
       0.17153174 -0.36796033 -0.5702089 -0.90631557

linear1.bias f4 [256]
000000 12 ef 2f 3d 08 65 11 bf 1b c0 12 bf c8 c7 85 3e
       0.042952605 -0.56794786 -0.5732438 0.26128983
000010 4b 5e 05 be ab be 95 bf 4e b5 83 bf 60 11 01 3e
       -0.13024251 -1.1698812 -1.0289705 0.12604284
000020 c0 53 a2 3c d0 8d cb 3e 30 da d8 be d6 44 d2 3e
       0.019815326 0.39756632 -0.42353964 0.41068143
000030 77 ee 60 3f 37 37 08 3f 80 11 34 bf 7d c2 df 3e
       0.8786387 0.5320925 -0.703392 0.4370307
000040 4c 5d 2a be e0 4e d9 3e 01 71 f1 be 85 68 2c be
       -0.16637152 0.4244299 -0.47156528 -0.16836746
000050 68 34 2a 3e bf 4c 1f bf 79 f3 8b bd 87 19 53 bf
       0.16621554 -0.6222648 -0.06833548 -0.82460827
000060 c4 a4 ef be a4 db a8 be ee 5d 19 bc 1f 10 a0 bc
       -0.46805394 -0.32980072 -0.0093607735 -0.019538937
000070 7e 1f 3d be 14 38 7d be 06 f2 16 3f 6d 91 1b 3e
       -0.18469045 -0.24728423 0.5896305 0.15192194
000080 bb f9 5a 3f 35 91 6b 3c df f7 40 3d 82 dd 49 be
       0.8553731 0.014377882 0.04711139 -0.19713405
000090 64 82 83 3e 9f 20 be bd 20 d5 6e be bc 0d ff 3e
       0.25685418 -0.09283566 -0.23323488 0.49815166
0000a0 95 65 de be 82 41 ba be a6 df 12 bf 16 c9 17 bf
       -0.43436876 -0.36378103 -0.5737251 -0.5929121
0000b0 6c b5 5f 3e f0 03 2f 3e 16 71 a9 be b8 54 bd 3e
       0.2184655 0.17091346 -0.3309409 0.36978698
0000c0 ca d0 f5 3d d4 12 34 3f 48 e7 f4 3d a5 a7 0a be
       0.12002714 0.7034123 0.11958176 -0.13540514
0000d0 c1 f9 04 bf ca db 88 3e 20 3d 65 be eb bf 9d 3e
       -0.51943594 0.26730186 -0.22386599 0.30810484
0000e0 f3 ee e2 3e c9 4a c0 bc 29 a9 ad 3e 69 ee 2d be
       0.4432293 -0.02347316 0.3391812 -0.16985478
0000f0 c4 d6 e4 be c7 dd 3b 3f 26 59 e5 bd d6 a5 b1 3e
       -0.44695103 0.7338528 -0.11198644 0.34696835
000100 97 23 ff be 2e 8f 15 bf 9b 92 51 bf 43 7c 32 be
       -0.4983184 -0.584216 -0.8186433 -0.17430215
000110 a6 14 b6 ba 4f a1 bb 3e 14 74 ef be c8 9d ce be
       -0.0013891652 0.36646506 -0.46768248 -0.40354753
000120 40 e5 44 3f 7d 24 66 be ff 33 f6 3e 61 dc 00 bf
       0.7691231 -0.22474857 0.48086545 -0.5033627
000130 21 c8 fb 3e f0 49 27 bf ed 36 16 bf 4d e0 8e be
       0.49176124 -0.65347195 -0.5867756 -0.27905503
000140 7a e5 c9 3e d9 44 71 bf 16 60 c5 3a c5 ff fe 3e
       0.3943289 -0.9424568 0.0015058543 0.49804512
000150 e8 6b 9c bd e3 03 e9 bd fe 3b 01 3d a8 c3 65 3e
       -0.07637769 -0.113776945 0.031551354 0.22437918
000160 9f a6 77 bd 0a 42 3a bf 39 2f 3b 3e 56 b9 bb 3e
       -0.060461637 -0.7275702 0.18279733 0.36664838
000170 09 66 f3 be 80 da 84 bd 02 3d 09 be ae 78 bf 3e
       -0.47538784 -0.06486988 -0.13402179 0.3739676
000180 36 31 c5 3e 1f f2 10 3f c6 19 23 be 7f 8b e7 be
       0.38514107 0.5661945 -0.159278 -0.45223615
000190 a4 f9 f2 be 83 5e bc 3e 37 8c 01 3f 20 93 cc bc
       -0.47456086 0.36790857 0.50604576 -0.024972498
0001a0 2c d2 c3 bd 96 b2 8f 3e cd af a0 be 0e 76 97 3e
       -0.095615715 0.28065938 -0.31384125 0.29582256
0001b0 b8 df ed 3e 7b 58 0b bf f6 fd 69 3e 45 f8 4b 3e
       0.46459746 -0.54431885 0.22850785 0.19918926
0001c0 a0 69 6e 3d 5c 4a 99 be 48 9e 55 3f e0 48 aa 3d
       0.0582062 -0.29939544 0.83444643 0.08314681
0001d0 b0 a2 d0 3d a1 b9 09 3f 77 74 00 bf df 30 17 bf
       0.1018728 0.5379887 -0.5017771 -0.59058946
0001e0 36 ca 29 3e ff 64 82 3d d9 e2 da 3e 5b ed e6 3e
       0.16581044 0.0636692 0.42751196 0.45102963
0001f0 0b 20 99 be ef a1 bc be 5e 7a 23 be 44 8f fb 3d
       -0.2990726 -0.36842296 -0.15964648 0.12283185
000200 56 bf 48 be 80 1a 8f bd 59 63 31 be fe fe cd 3e
       -0.19604239 -0.06987476 -0.17323054 0.40233606
000210 9e 81 33 be da 10 a3 be f8 f9 c3 be 94 e7 d8 3e
       -0.17529914 -0.31848794 -0.3827665 0.4236418
000220 84 6a 3e 3e 2f 29 10 be 12 18 ac 3d 8c 70 36 bf
       0.1859532 -0.1407821 0.084030285 -0.7126548
000230 3c 7d a5 3e 63 6a bf be b1 8c 5a bc 89 24 82 3e
       0.3232211 -0.37385854 -0.0133392075 0.254185
000240 7d e1 3f bd c4 7c 20 3e 8a b4 33 be 05 30 bb 3d
       -0.0468459 0.15672594 -0.17549339 0.091400184
000250 ec f6 0c 3e 58 ab 16 3f 71 2e b9 3d 14 b2 12 3e
       0.13766068 0.588552 0.09042061 0.14325744
000260 c0 f2 06 bf dc fb b0 be 5e d8 a9 3e b8 32 0f 3e
       -0.5271416 -0.34567153 0.33172888 0.13984191
000270 96 ef bf 3e 01 03 3a 3f 76 8c 94 bc 70 b8 98 3e
       0.37487477 0.72660834 -0.018133383 0.29828215
000280 00 62 4e bb 3d 14 08 bc a2 67 87 be 2a f7 ea bd
       -0.0031491518 -0.008305606 -0.26446253 -0.11472924
000290 c3 5a ef 3e ac 66 71 be e2 06 10 3e 24 e5 b7 3e
       0.46748933 -0.23574322 0.14065126 0.35917008
0002a0 12 52 da bd 31 2a 99 be 41 c3 56 3f 7b af b4 3d
       -0.10660185 -0.29915002 0.83891684 0.08822533
0002b0 08 b8 b5 be 7a 73 d3 3e ee 66 30 3c f1 87 b0 3e
       -0.35491967 0.4129904 0.010766728 0.34478715
0002c0 b2 e3 4d bf 1f a7 a3 3e c5 51 c9 3d 74 98 f7 be
       -0.8042556 0.3196344 0.098300494 -0.483585
0002d0 93 42 c8 be 69 01 46 3e 40 a0 a4 3e a8 52 d1 be
       -0.39113292 0.19336475 0.3215351 -0.40883374
0002e0 77 9f a0 be f0 8a d9 3e 84 f8 7d 3e 7a 64 d9 3d
       -0.31371662 0.42488813 0.24801832 0.106148675
0002f0 4f cd 5c be 27 22 0f bf 5e 87 46 3d 21 d8 4f bf
       -0.21562694 -0.5591149 0.04846894 -0.8118916
000300 d4 e0 61 bf 75 69 62 bf 38 6a dc 3d 6a a5 43 be
       -0.88233685 -0.88442165 0.10762447 -0.19106069
000310 bf c4 d3 be b8 d7 f7 bd be e7 01 bf 5f d9 0d 3e
       -0.41361043 -0.12101692 -0.50744236 0.13852452
000320 c0 29 ea 3e 64 6a 15 3d 97 8f 5b 3d 3c 9b 4a 3e
       0.45734978 0.036478415 0.053603735 0.1978578
000330 1b 7a 09 bf 6f 8a 84 3f a4 49 9a be 08 7e 06 3f
       -0.53701943 1.0354747 -0.30134308 0.5253606
000340 0e b3 0c 3f 73 b0 02 bf 2d b8 73 bf f4 dc 74 bd
       0.54960716 -0.5105049 -0.95202905 -0.05978103
000350 7f c6 1b bf 61 65 43 bf a8 7b e2 3e 1b f6 6d be
       -0.60849756 -0.76326567 0.44234967 -0.23238413
000360 e4 06 d0 3e b0 53 fc be ac 42 12 bf c3 c7 e1 bd
       0.40630257 -0.49282598 -0.57132983 -0.1102443
000370 e9 c4 e7 be 5e 3d 8b 3d 12 23 c5 3e 9b 91 ae be
       -0.45267418 0.06798814 0.3850332 -0.34095463
000380 76 5e a8 bc 58 d1 99 3e 38 48 0b 3f 6a d4 7e be
       -0.020552855 0.3004253 0.5440707 -0.24885717
000390 88 2c 02 3d b8 2e 81 bf 60 d9 97 bd 87 3e f7 3e
       0.03178075 -1.0092382 -0.07414508 0.48289892
0003a0 28 ea 26 3e 65 29 ea 3e e0 3d b2 bd eb 83 4e 3e
       0.16300261 0.45734707 -0.08703208 0.2016751
0003b0 21 90 10 bf e2 e6 02 3f f6 4f 4d 3f f4 8d 01 3f
       -0.56469923 0.5113355 0.80200136 0.5060723
0003c0 3c b3 79 3e f2 00 06 be 8d 25 2d 3f 7f 12 82 be
       0.24384779 -0.13086298 0.6763542 -0.25404736
0003d0 9e 2a 3c be 60 bd a3 3d 91 f9 be be f2 09 9d 3e
       -0.18375632 0.07995105 -0.3729978 0.3067165
0003e0 10 81 d6 be 7a a8 85 be c4 ae d1 3e 24 b6 d5 bd
       -0.41895342 -0.261051 0.40953648 -0.10435131
0003f0 1e ee d4 be 69 b0 b4 be 00 2b 0d bc 28 a4 06 bf
       -0.4158792 -0.3529084 -0.008616209 -0.5259423

linear2.weight f4 [5, 256]
000000 40 91 c6 3a 43 c6 4f bd 06 e9 6e 3d 54 b9 8c bd
       0.0015149489 -0.050726186 0.058327697 -0.06871286
000010 7b 81 1a bd 0b 38 4c 3e 95 51 75 3d d3 8d 05 3c
       -0.03772114 0.19943254 0.059892256 0.008151489
000020 6a 40 3d 3d 50 51 d4 3d d2 78 1b 3e 33 8b 33 3e
       0.04620401 0.10367072 0.15182808 0.17533569
000030 fc ec 4c 3e 03 3e b6 3e ea 12 3a bd fe f4 1d 3d
       0.20012277 0.35594186 -0.045428194 0.03856372
000040 f7 5c 84 3a d0 3f 59 c0 94 d6 47 3c d9 d9 7b 3e
       0.0010098506 -3.3945198 0.0121971555 0.24594821
000050 1b 8c 0d 3e 57 f5 44 bc ec 31 94 bd 0a ed 53 3d
       0.13822977 -0.012021384 -0.07236084 0.05173973
000060 65 4d 1c 3d a8 d6 59 3d a8 52 6b bd 13 95 4c 3d
       0.038159747 0.053183228 -0.057451874 0.049946856
000070 f9 ca 2e 3e 33 34 79 3e 10 2e df bb e8 09 8c 3e
       0.17069615 0.24336319 -0.006810911 0.27351308
000080 d8 89 13 3e 2b 1a e0 be 2f 61 cf bc 0b 2b 3e 3e
       0.14408052 -0.43769965 -0.025314895 0.18571107
000090 44 83 28 3e 2f e6 6c bd 98 c5 21 3e 6a 6a 5f 3e
       0.16456324 -0.057836708 0.15798032 0.21817937
0000a0 a5 0e 06 3e 54 88 72 bd dc a8 95 bc cb 5a 98 be
       0.13091524 -0.059212044 -0.018268995 -0.2975677
0000b0 8d 83 09 3e 86 a9 18 3e 14 31 71 c0 4c f8 0b 3e
       0.13429089 0.14908418 -3.7686205 0.13668936
0000c0 b6 60 44 bd a5 dd 13 3c b8 40 83 bc e5 fc a5 bd
       -0.047943793 0.009025012 -0.016022071 -0.081048764
0000d0 28 66 09 3d b8 ec 5e 3d c0 8c fe 3c 96 b7 24 3d
       0.03354469 0.05442497 0.031072974 0.040214144
0000e0 c7 a7 f9 bc 35 95 a3 3d 43 b7 19 3e 28 b3 88 3e
       -0.03047551 0.07987443 0.15011315 0.26699185
0000f0 38 41 56 bd 48 c0 38 3e bb ec 02 bd 62 68 8f 3c
       -0.05230829 0.180421 -0.031964045 0.017505828
000100 34 93 27 bd c8 67 0b bd 92 1d ac bb 31 f3 84 3e
       -0.04091187 -0.03403452 -0.0052525485 0.2596679
000110 ea cf 60 3e 53 bd 2c 3e 31 c8 0a 3e 24 fc 5d 3e
       0.21954313 0.16869096 0.1355293 0.21678215
000120 7c 18 e1 3c e2 a5 45 3e dd 56 c4 3d 01 fb 39 bd
       0.027477495 0.1930156 0.0958688 -0.04540539
000130 20 ed 51 3e 0e a8 0c be bb a2 32 bd ce c9 57 3e
       0.20500612 -0.13735983 -0.043612223 0.21073076
000140 88 5f 11 3e c6 53 c2 3d ea 8f 45 3e 02 9a 34 3e
       0.14196599 0.09488635 0.1929318 0.17636874
000150 32 bd 29 bd e3 4b de bd d7 a9 a1 3b c0 cb dc 3d
       -0.041440196 -0.10854318 0.0049335766 0.1078105
000160 4c 69 47 3d 92 01 a0 3d 0b 8c 6a 3c 06 dc 4f 3e
       0.048684403 0.078127995 0.014315615 0.20298776
000170 b1 62 cb bd 90 66 4c bc c8 a4 20 3c 21 4e 2f 3e
       -0.09930933 -0.012475625 0.009804912 0.17119648
000180 06 ec b6 3d d2 c2 56 3e c1 b5 c7 3d 3c 0d 3a 3d
       0.08931737 0.20972756 0.09751464 0.045422778
000190 2f 9c 21 3e de e2 d7 3d 81 98 32 3e c6 ea 52 3e
       0.15782236 0.10541318 0.17440988 0.20597371
0001a0 a2 0b f1 3e 13 03 58 bb 00 85 de bb bc 22 5e 3d
       0.47079188 -0.0032960817 -0.006790757 0.054232344
0001b0 14 c8 1b c0 94 7b 20 3d e3 33 11 3e 39 ce 15 bd
       -2.4340868 0.039180353 0.1417995 -0.036573622
0001c0 5e 2f 21 3d 67 c1 14 3e 34 47 24 3d 20 e4 08 bd
       0.039351813 0.14526902 0.040106967 -0.033420682
0001d0 d8 5f 16 3c 86 51 10 3e 7d fb d9 bd 65 d5 da 3c
       0.009178124 0.14093599 -0.10643671 0.026713083
0001e0 06 a1 56 3e 7e 96 b5 39 82 77 80 be 82 fa 4b 3d
       0.20959863 0.00034635136 -0.25091177 0.04979945
0001f0 6a 7b 58 3e c5 14 86 be d2 5e 23 3e 04 97 b5 3d
       0.21140829 -0.2618772 0.1595414 0.088666946
000200 e8 95 e9 3c f4 72 5a 3e cf 19 1f bc ac 7e 4d 3e
       0.028513864 0.21332914 -0.009710743 0.20067853
000210 aa a5 32 3d 34 66 f4 bc 46 8f 77 3d 6d 11 08 3e
       0.04361502 -0.02983389 0.06043937 0.13287897
000220 a2 5f 5f 3e c0 3d a7 3d d1 31 9d 3b 2f 62 26 be
       0.21813825 0.08166075 0.0047971983 -0.16248392
000230 d6 b3 5e bf 72 65 19 bd ef c2 ca 3b cf cc 1e 3c
       -0.8699316 -0.03745026 0.0061877887 0.009692385
000240 6d 29 83 bc aa 58 4e 3e 20 a3 a3 3c 51 dd c7 3d
       -0.016010964 0.2015101 0.019975245 0.0975901
000250 16 56 02 3e 2c 4c dd 3d b5 8b 15 3c f0 61 bc 3b
       0.12728152 0.10805544 0.009127547 0.0057489797
000260 e2 3f f4 bc 5a a2 5e 3e 3f d2 52 3d ef 85 ba 3b
       -0.029815618 0.2174162 0.051470038 0.0056922357
000270 cc fa d9 3d b1 15 82 bb 61 46 23 bb 33 d1 66 3d
       0.10643539 -0.003969871 -0.0024913775 0.05635185
000280 49 4d 2f 3e b6 bf d6 3d 62 32 22 3d c9 08 2c 3e
       0.17119326 0.10485785 0.03959883 0.16800226
000290 ab 31 5d bd 01 3c e4 3d ee 4a 3b 3d ec 1f 29 3e
       -0.054002445 0.11144257 0.045725755 0.16516083
0002a0 34 00 bb bd 0c 11 77 3d d7 f6 12 3e a6 5d 25 bd
       -0.09130898 0.06031899 0.14351974 -0.040372513
0002b0 04 2b a7 bc f5 f9 0a 3e c9 8b c7 3d 16 10 5a 3e
       -0.020406254 0.13571914 0.09743459 0.21295199
0002c0 fb 9e 13 bd 72 00 13 3d b2 be 54 bd 28 86 20 3e
       -0.036040287 0.035889097 -0.051939674 0.15676177
0002d0 56 13 1b 3e 32 5f f7 bd f2 91 60 3e 76 6a 0c 3e
       0.15144095 -0.12078704 0.21930674 0.13712487
0002e0 a8 ef ca ba 3d fa 0f 3d 8c 7a 4a 3e 8a 7c 42 3e
       -0.00154828 0.035150755 0.1977331 0.1899282
0002f0 d1 e8 1f bd 47 c2 47 3d 49 84 3b 3e ef 26 4f bd
       -0.03904039 0.04876926 0.18312182 -0.05057424
000300 80 35 4b 3d 70 0e 19 be 1c 48 30 3e 44 7b 60 3e
       0.04961157 -0.14946914 0.17215008 0.21922022
000310 1e ff 58 3e b0 78 41 bd b5 89 31 3e 0d eb 1b bd
       0.2119107 -0.047234237 0.17337687 -0.03806596
000320 e7 e4 03 3e e1 86 ce bd 64 0a 96 be 3a 43 72 bd
       0.12880288 -0.1008432 -0.29304802 -0.059146143
000330 06 e3 38 bd ca 4e a7 3d c8 3d 14 3e 08 b0 58 bc
       -0.04513838 0.08169325 0.14476693 -0.013225563
000340 1c cf 34 3e 0b 06 0e be 14 1f 98 3c 5a a1 80 3e
       0.17657131 -0.13869493 0.018569507 0.251231
000350 4c aa 9a 3c 9b f7 89 bd ba 5c 11 bd 36 9f dd 3b
       0.018880032 -0.0673668 -0.03548882 0.006763364
000360 bc 84 9e 3c 7c ce db bc c9 24 2f 3e 3b aa 78 bc
       0.019350402 -0.026831858 0.17103876 -0.015177305
000370 a0 21 6d bc fe c9 8c be 6f 22 32 bd 9a f6 1f 3e
       -0.014473349 -0.27497858 -0.04348987 0.15621415
000380 69 d2 03 bd 5b 54 fa 3d c3 62 c7 3d 40 8a 59 bb
       -0.032183085 0.12223121 0.09735634 -0.0033193976
000390 42 4c d4 3c 52 09 61 bf 33 6c 0b 3e 16 ec 1b c0
       0.025915269 -0.87904847 0.13615493 -2.4362845
0003a0 72 84 cc bc 25 1c 11 3e 60 67 fc bb bf a8 e2 3e
       -0.024965499 0.14170893 -0.007702753 0.44269368
0003b0 26 ac 2e bc 3c 96 46 3e 88 4c 57 3e 04 33 fc 3d
       -0.010661161 0.19393247 0.21025288 0.12314418
0003c0 5e d4 49 3d 87 c2 02 3e e2 39 56 3e 9e 90 f3 3d
       0.049274795 0.12769519 0.20920518 0.11892818
0003d0 5d 19 26 3b e6 96 52 3e 68 5c dc 3d 8c a8 49 3e
       0.0025344708 0.20565376 0.107598126 0.19693202
0003e0 a6 ab 79 3c 78 d9 8c 3e 2e 86 31 3c c2 24 46 3d
       0.015238678 0.27509665 0.010835214 0.0483749
0003f0 bd 3b f6 3d 81 d3 2d 3e 38 01 11 3c 68 ff 69 3c
       0.12023113 0.16975214 0.008850388 0.014282085

linear2.bias f4 [5]
000000 23 96 ee 3d 18 89 be bc 15 0b 1b be 17 41 fc 3d
       0.1164973 -0.02325873 -0.15140946 0.123171024
000010 20 21 27 3e
       0.1632123
