model/model.pth (torch, 10643 bytes, 4 tensors)

linear1.weight f4 [256, 3]
00000000: 60d6 8c3d 0071 cfbe 9c64 1cbe f168 0dbe
00000010: 1cb9 2cbe 2704 2abf 0905 b5be 2e98 edbe
00000020: e669 80be 7af4 64be a7c2 16bf 22b8 43be
00000030: 004f 443d 347c 503e e49a 2e3e 9096 753e
00000040: b0e8 12bf 9bca 04bf 5f13 92be aadd 283f
00000050: e21b d73e 8438 a8bd 7891 ddbd 483b 17bf
00000060: fb7a 6cbf 07e1 83be f4c7 a4be 5e5a b03e
00000070: 5057 993e 22d1 b83e 119b c53e 17a3 a63d
00000080: 484f 3a3f 58d1 2a3e 32bf a9be 59e0 0ebf
00000090: 0c1e 2c3f 1c23 813d 3fc5 9a3e 6c0f 113f
000000a0: 8803 c93c a5ec 183f f490 a8be 1cab bfbd
000000b0: 37db c5be 7471 dcbe af96 d73e 533a 013f
000000c0: 4008 4e3f 40de b63e 93c8 963e 2469 733e
000000d0: fd2d 0fbf d4f0 0cbf 1662 8bbe f6f9 b53e
000000e0: 5c5e 483f 7c3a 1dbd 93ac ff3d e7af 523f
000000f0: e7ff e9be fd1e 8ebe e9a4 24bf 3c83 a9bd
00000100: f060 f23d a4f7 e63e 1854 003f 9cbd ce3c
00000110: d18d 213f 294e 0c3d 5118 523f 701c f7ba
00000120: 9a19 923e 91f2 1c3f 02ae d53d 040a c33e
00000130: ec07 9d3e 3a6a 923e 021c ab3e 1cd5 0d3e
00000140: 924b 873e 739a 6fbe 1adb d03e 3308 553f
00000150: f037 5ebd f468 553e 10de 8e3e 2ec3 cabe
00000160: 00c4 09bf d027 5fbd 3a8f 1dbe b4f4 053f
00000170: 32ea 813e 603a a3bd f894 df3e 643a 183e
00000180: 3016 b53c ed70 7d3c c2ef 043f 6bad 62be
00000190: 5e0b 673e e8b4 163f a40f 03bf 767b 06be
000001a0: 0f23 59bf 2c14 b3bf e3a4 7bbe 8a79 89bf
000001b0: 0134 23be add0 99be 420b 81be aed8 ea3e
000001c0: 4103 5a3c ca29 ad3e db45 853c bcfb 7f3e
000001d0: 46c5 d53e d0f7 5fbd d6bb 8e3e fc73 873e
000001e0: 5c8b 6bbe 14b8 d6bd d2e4 19bd 76fa 5fbe
000001f0: 5011 09bf 6ce5 da3c e8c4 d8be 6c35 87be
00000200: f305 83be 842e 1abe e6ab 40be 6ab4 8dbe
00000210: 1e06 56bf 725b 54be 592e c6bf 7ca1 5abf
00000220: 630b 6d3b 10c4 97bf a86e babe 0fcc fdbe
00000230: 7eba cbbe 2e93 103f 5054 6c3e e43e 963e
00000240: 4e92 fa3e a0a6 463f 5b74 b2bd 81b8 6d3f
00000250: 4412 9a3e f8db 553f b4eb 33bf 8d77 40bd
00000260: 8c6f 1fbf c9f6 433f 0931 313d dc7b 0e3f
00000270: dc57 02bf fcb9 2bbf 333a 2abe adaf a73e
00000280: 5113 a83d 2b4f b13e 03d7 4b3f 126c 463f
00000290: c05f 16be 80e6 c63d 8a8f 023f e02c 943d
000002a0: 387d 9bbd 024d 4cbe 1f8b 0cbf a64f 0ebf
000002b0: 1666 0ebf 288c a0be 2021 f63c e0f4 7d3d
000002c0: f045 053f 4e1c 9f3d a0df 0b3f c808 973e
000002d0: 3476 06bf 0bf8 84be 309a b2bd af7f 493f
000002e0: 08b8 333e 0a78 9d3f e4aa 293e 9b71 a93e
000002f0: 4506 363f d0f3 1cbf a76b b9be 0a4f 993c
00000300: 0e1c e5be 8e57 9dbc 4d82 28bf 01ed 2d3f
00000310: 653f 573d 0f71 f23e 2eaa 043f 804c d33d
00000320: 0e24 d83e 36a0 86be f052 603e c843 d53e
00000330: 379f e5be 848e 7dbe 60fb 99bd 1d5f 5fbd
00000340: 22e5 11bf 1b1d 3bbd 087f b13d 77b8 e6be
00000350: a6f4 fbbe eab5 033f f605 603e b451 823f
00000360: 21a7 cd3d 056b a63d 4d7c 213f b63b ecbd
00000370: 4562 9b3d 0ddd 073f 7573 78be f6c4 97be
00000380: ed6a 9dbe d2e0 cb3e da85 443f 747f 87bd
00000390: d844 133f 10f3 013e 8c5a 0c3e fb06 40bf
000003a0: e7ad 2dbf 2472 f9bd f80d 073f c4f8 ce3d
000003b0: da30 883f ef83 5abf 0645 41bf 660c 1f3b
000003c0: b16c 543f c42c e23b 138f 1f3f 84bc 49bf
000003d0: 5af9 5bbf 93d2 243e 2092 7c3d 70e8 4dbe
000003e0: 345f 00bf 07b5 493b fcb8 f43d 3fb5 fc3d
000003f0: 53bc 80bf 7531 dcbd 4672 93bf 802e e6bb
0.06876826 -0.405159 -0.15272754 -0.13809563 -0.16867489 -0.66412586 -0.35355404 -0.46405166
-0.25080794 -0.22358885 -0.58890766 -0.1911321 0.047926903 0.2035988 0.17051274 0.23983216
-0.573863 -0.5187165 -0.28530404 0.6596323 0.4201346 -0.082139045 -0.108187616 -0.5907483
-0.92375153 -0.2575762 -0.32183802 0.34443945 0.29949427 0.36097056 0.3859487 0.08136576
0.72777224 0.16681421 -0.33153683 -0.5581108 0.6723335 0.06305525 0.30228612 0.56664157
0.024537817 0.5973609 -0.3292309 -0.093588084 -0.3864381 -0.43055308 0.4210715 0.5047962
0.8048134 0.35716438 0.294499 0.23770577 -0.5592955 -0.55054975 -0.2722327 0.35542268
0.7826898 -0.038385853 0.12484088 0.82299656 -0.4570305 -0.27758017 -0.6431413 -0.08276984
0.118348956 0.4511081 0.50128317 0.025236897 0.6310702 0.034254227 0.82068354 -0.001885308
0.28535157 0.61307627 0.1043358 0.3809358 0.30670106 0.2859667 0.33419806 0.13850826
0.26424843 -0.23398761 0.4079216 0.83215636 -0.054252565 0.20840818 0.27903795 -0.39602035
-0.538147 -0.054481328 -0.15386668 0.5232651 0.2537399 -0.079701185 0.43668342 0.14866024
0.022105306 0.015468818 0.5192834 -0.22136466 0.2256293 0.5886979 -0.5119574 -0.13133034
-0.8481912 -1.3990531 -0.24574618 -1.0740216 -0.15937807 -0.3004202 -0.25203902 0.45868438
0.01330644 0.33820945 0.016268661 0.24998373 0.4175207 -0.05467969 0.27877682 0.26455677
-0.2300238 -0.10484329 -0.037571736 -0.21872887 -0.5354204 0.026720725 -0.42337728 -0.26407945
-0.25590476 -0.15056807 -0.18815574 -0.27676708 -0.83603084 -0.20738009 -1.5482894 -0.85402656
0.0036170117 -1.1856709 -0.3641255 -0.49569747 -0.3979072 0.5647458 0.23079038 0.29344857
0.48939747 0.77598 -0.08713599 0.92859656 0.3009206 0.8353877 -0.7028153 -0.046989013
-0.6227958 0.7654844 0.043259654 0.55657744 -0.5091531 -0.67080665 -0.16623764 0.32751217
0.08206809 0.34630713 0.79624957 0.7750865 -0.14684963 0.09711933 0.51000273 0.07235122
-0.07592243 -0.19951251 -0.5489978 -0.55590284 -0.5562452 -0.3135693 0.030045092 0.06200111
0.5205984 0.077690706 0.546381 0.29498887 -0.52524114 -0.25970492 -0.08720815 0.78710455
0.17550671 1.2302258 0.16569096 0.33094487 0.71103317 -0.6130953 -0.36214945 0.018714447
-0.44747967 -0.019206788 -0.65823823 0.67939764 0.052550692 0.47351882 0.51822174 0.103173256
0.42215008 -0.26294106 0.21906638 0.41653275 -0.44848034 -0.24761397 -0.07518649 -0.054534066
-0.56990254 -0.045682054 0.086668074 -0.4506261 -0.4921009 0.51449454 0.21877274 1.0181184
0.10041643 0.08125881 0.6308029 -0.115348265 0.07587103 0.5307167 -0.24262793 -0.29642457
-0.3074564 0.39819962 0.7676674 -0.06616107 0.5752692 0.12690377 0.13706416 -0.7501065
-0.6784348 -0.12179974 0.5275569 0.10106042 1.0639908 -0.85357565 -0.75495946 0.0024268865
0.8297835 0.006902309 0.6232769 -0.78803277 -0.85927355 0.16095953 0.061662793 -0.20108199
-0.5014527 0.0030778067 0.119493455 0.123392574 -1.0057472 -0.10751621 -1.1519248 -0.007024586

linear1.bias f4 [256]
00000000: 30af af3d cf39 50bf fb20 1abf f65f efbd
00000010: 5f69 0abf 2423 13be 578e 4fbe abec 243e
00000020: 0ed8 bbbe 0088 b3bb 13b2 f73e 4cee 11bf
00000030: 616f eb3e 4bd2 6f3e 7878 1ebf 8c58 81be
00000040: de0f af3e dc07 12be ce18 bf3e f304 c3be
00000050: 6bcd 72bf 4edd d2be 7992 aebd 9b0f cb3e
00000060: f6e6 823e 9e65 cc3e c04c 8bbe e4f6 803e
00000070: 3cc2 f03e 6bda fbbe 2acb 06be 4472 0dbf
00000080: 851a e7be 359b d83e 8b90 f6be 3689 05be
00000090: d42f 09be 2ad4 91bd 5192 0abe d61f 3cbe
000000a0: 0de8 183e 0719 b43e 2c61 ddbe ef9b 9ebe
000000b0: 1e85 54bf bf08 3abe 2013 c63c 00f4 4a3e
000000c0: eead 543e 42f1 d33c c111 dcbe 363a 9d3b
000000d0: 1abb fcbe 5611 80be ba44 2b3f 0c39 263e
000000e0: 8872 053f 0008 a73c 6005 b63c 22e3 423f
000000f0: a460 6c3e 7fcf f23e bd57 3d3d 46c9 cebe
00000100: f5bb 8ebe 6762 b8bb 1ce5 023f 48e5 50be
00000110: 40d8 72bc aef3 cd3e c8bc 20be 02ee e53e
00000120: ecdf 0abf 129c 003f 7c88 00bf f9e5 8d3c
00000130: 909c f03d 47d3 cf3d 7965 a6bd 05ff 24bf
00000140: c2dc 98be 027f d9be 4290 28be a0f6 98be
00000150: a229 853d 202e 3dbe a8bd 5f3e 4bee 42be
00000160: fe6f 103f f1c0 a8bf cec0 0a3c ba40 a4be
00000170: 7ffa c2be d477 74be 7477 b2bd ab4b b03e
00000180: b8c9 5d3f 9936 993e a4a9 0abf 8953 cf3e
00000190: 7091 b23d e9ee 24bd 2070 733d 793e 063f
000001a0: 9a3a 8abc c28f 13bf 0088 9fb9 463b d9be
000001b0: f098 a2bd b8cf d43a 8cbd 363e d5e7 a8bd
000001c0: bc7e 263e 4acf a53e 631c 9fbe a7e5 4e3e
000001d0: b72b 93be 7c7e 6bbe 32ff 69be 7813 2abd
000001e0: 432d 0e3f a838 483f c2b5 183f 0596 8bbe
000001f0: 3f08 d63d beaa 38be d8a2 c1be 13d9 bebe
00000200: cbce 19bf 81ce d0bb 2ee8 953f 3d29 7d3e
00000210: c8ce 8bbd ec30 79be 422c dabe 81be 41bf
00000220: f3ad c4be 3fcc bfbe 8006 4c3c 2446 613e
00000230: 400d 4dbc 1eb5 ba3d 2cf1 6c3e 9fc6 6bbe
00000240: 4b44 09bf f1dd ae3e e29e ffbe 0071 5ebc
00000250: d09f 1a3e 1fb2 aebe 709f c3bd 28ec 7b3e
00000260: 6515 863e 6ae4 713e 253a 7a3e dd73 dfbe
00000270: cc59 ff3e 6a9e 5cbe cb4d bfbe fe19 063f
00000280: efdf 363e 5c2a 003f 0967 01bf 1ed3 02be
00000290: b3c2 a93e 24f1 aa3e c0db 11bf 4641 e93e
000002a0: 8f62 123f 95c0 863e 0ea7 0bbf 007a c73c
000002b0: 02dd b0be b693 8cbe d762 aa3c 76f1 c73e
000002c0: f8c8 0f3f a968 b3bd 007a 173e 3014 ecbe
000002d0: e601 0abf 835b b4be 2c8c b0be d61f 993e
000002e0: 87b6 c73d 34d7 fe3e df08 fc3e 3a08 e3be
000002f0: f7b0 2bbd 106c 153f d00e 4c3c 7905 2a3f
00000300: f08f 243e aeca ccbe 0009 713c a667 a6be
00000310: c85e f53e 665e 98be c364 53bd b03e 67bd
00000320: a0dc 9c3e 2b5a acbe 5210 8f3e acbe eebe
00000330: 82eb 063f b19b f4be a4ed a2be 6e32 213f
00000340: a072 d13d 4ac1 8d3e 2dd1 49bd a4a6 e53e
00000350: 4a2f fe3e e585 71bf ae17 e8be d56f c03e
00000360: ad45 033e f030 01bf c739 53bf 1801 f93e
00000370: 6272 26be 3041 89bf dd2a a83c a603 003f
00000380: 0bca ce3e 66c4 083e a209 4a3d 2cf5 babe
00000390: 7cba c13e 74c4 033f aa91 dd3d a76e 14be
000003a0: aeb6 8d3d d4bc 04bf 38e2 6abe ac4f fabd
000003b0: c1c3 1cbc c8d8 333e cd95 1d3f 40e9 953d
000003c0: 7a3d 8dbe 2ada fabe b09b 7f3e 7cbe fbbd
000003d0: b519 dfbe 00c6 0cbf 641c 0e3f bce3 c4be
000003e0: 9958 d6be d376 4b3e 9f99 b83e 6e18 cfbe
000003f0: 3542 873e 5b2e 6c3e ed4c 6c3e 409e 083d
0.08578336 -0.8133821 -0.60206574 -0.11688225 -0.54067034 -0.14368874 -0.20269142 0.16105907
-0.36688274 -0.005478859 0.48378047 -0.5700424 0.45983413 0.23420064 -0.6190257 -0.25262868
0.34191793 -0.1426081 0.37323612 -0.38089713 -0.9484469 -0.41184467 -0.08524031 0.39660344
0.25566834 0.39921278 -0.27206993 0.25188363 0.4702319 -0.49190077 -0.13163438 -0.5525248
-0.4513742 0.42305914 -0.48157153 -0.13040623 -0.13397151 -0.07120545 -0.13532378 -0.1837152
0.1493227 0.35175344 -0.432382 -0.30978343 -0.8301562 -0.18167399 0.024179041 0.19819641
0.20769474 0.025871877 -0.42982295 0.004798199 -0.49361497 -0.25013226 0.66901743 0.16232699
0.52127886 0.020389557 0.02221936 0.7612783 0.2308374 0.47423932 0.046226252 -0.40387934
-0.27877775 -0.005626965 0.51130843 -0.20399964 -0.014822066 0.40224975 -0.15697014 0.44908148
-0.5424793 0.50238144 -0.5020826 0.017321574 0.11748612 0.1014772 -0.08124823 -0.6445163
-0.29855925 -0.42479712 -0.1646128 -0.2987566 0.065020815 -0.18474627 0.21849692 -0.19036214
0.56420887 -1.3183881 0.00846882 -0.32080632 -0.38081738 -0.23873836 -0.0871419 0.3443273
0.86635923 0.29924467 -0.541651 0.4049342 0.08719146 -0.040266905 0.059433103 0.52439076
-0.016873647 -0.5764123 -0.0003042817 -0.42428035 -0.07939327 0.0016236221 0.17845744 -0.082473435
0.16259283 0.32384712 -0.31076345 0.20204793 -0.2874429 -0.22997469 -0.22851256 -0.041522473
0.55537814 0.7821145 0.5965234 -0.27262893 0.104507916 -0.18033883 -0.37819552 -0.3727499
-0.60081166 -0.0063722734 1.1711481 0.24722762 -0.0682655 -0.24335068 -0.4261189 -0.7568131
-0.38413963 -0.37460515 0.012452722 0.21999413 -0.012515366 0.091165766 0.23138875 -0.23024987
-0.5361983 0.34153703 -0.49925905 -0.013576746 0.15100026 -0.3412027 -0.09551895 0.24601805
0.26188198 0.2362229 0.24436243 -0.43643084 0.49873197 -0.21544805 -0.3736404 0.5238341
0.17858861 0.50064635 -0.50547844 -0.12775847 0.33156356 0.333871 -0.56975937 0.45557612
0.5718164 0.26318803 -0.5455178 0.024350166 -0.34543616 -0.27456445 0.020799084 0.39051408
0.5616603 -0.08760197 0.14792633 -0.46109152 -0.53909147 -0.35226068 -0.34481943 0.299071
0.09751611 0.49773562 0.49225518 -0.44342214 -0.041916814 0.58368015 0.012454703 0.664146
0.16070533 -0.39998382 0.014711618 -0.32500952 0.47923875 -0.2975952 -0.051609766 -0.056456268
0.30637074 -0.33662543 0.2794214 -0.46629846 0.52703106 -0.47775033 -0.3182193 0.62967575
0.10226941 0.2768653 -0.04927175 0.448537 0.49645454 -0.9434493 -0.45330566 0.3758532
0.12819548 -0.504653 -0.82510036 0.48633647 -0.16254571 -1.0723019 0.020528251 0.5000557
0.40388522 0.1335617 0.049325593 -0.36515176 0.3783759 0.5147164 0.10818799 -0.14495336
0.06919609 -0.5185063 -0.22937858 -0.122222275 -0.009568156 0.17563164 0.615567 0.073198795
-0.27585965 -0.4899457 0.24961734 -0.122921914 -0.435743 -0.54989624 0.5551207 -0.38454998
-0.4186447 0.19869547 0.36054704 -0.40448326 0.264177 0.23064558 0.2307622 0.033354044

linear2.weight f4 [5, 256]
00000000: 18b7 1cbd 4fd0 96be 37ab e53d 5ddc 0a3d
00000010: f23c e2bb d8ee e2bc 3638 c93a 5b3b 94be
00000020: 13f1 aabe aedd b83d 5332 133c 10e7 733d
00000030: 5861 193e 6973 5c3e d2d0 a6be 234c 833d
00000040: 5082 1a3a 0662 21bd 3d8d 7b3e 443b 803e
00000050: 9182 cbbd 6b15 043d cffb 513e 0a86 bfbd
00000060: 22be 48be ff78 c43d c6e0 01bc b54a 263e
00000070: 34e1 4f3b 4a74 323d f35e b73d c31f 903d
00000080: 249d 3b3e db56 b43c 3f8f a5be a09b 54bd
00000090: e4a1 6f3d bcf1 3b3d c61f 533e 4328 c03d
000000a0: a2f6 66bd 796e a93c a2b1 143d e42b 7dbd
000000b0: 2aaf a23e c798 84bd 0882 bb3c 7db4 8b3d
000000c0: 7e3c d43c 516c 1a3e 1b2b 8fbe 94c0 233e
000000d0: 5c16 95be e797 0e3e 70ca 00be 83d7 7e3d
000000e0: 8a90 02bd b86d f9bc f10e b73d 6f4a 58be
000000f0: 3c61 bebb 9b61 773e d4fb 1d3e b254 6bbd
00000100: 609c d03c 8489 3a3e 4ce2 5a3d 3d74 6f3c
00000110: 8c5b 133d 0b99 683c 64a8 133d 7777 0c3e
00000120: 5394 07bc 0294 203e 21b9 e1bb aa3c 65bd
00000130: 6f29 7f3d 46a6 c2bb cc26 723e b641 8b3d
00000140: d09d b63b 3ba6 e13c c669 49bd 6900 41bc
00000150: dff2 fdbd a680 6f3d 7712 b53d f116 72bd
00000160: c538 5dbd 1b34 32bd 93fc 34bd 1ff7 b93c
00000170: b548 833d 58a1 3a3e a398 0abc 5e11 333d
00000180: ea76 0e3d 2676 333d f309 e63c 8973 c03d
00000190: 3a4d 6f3d a990 653e faf2 53bd e712 343e
000001a0: 00f5 b1be bc3f a3be 2471 703d 825d 7cbe
000001b0: b688 173d a60e 023e e206 6c3e 2cad 93be
000001c0: bc55 3b3d 9467 903c 3021 22bd 0508 19bd
000001d0: 4875 c63c 7451 b43c a2f7 263d adb2 7b3e
000001e0: ce6a 533e 84e1 4f3e 3375 7f3d 2d7f 273e
000001f0: 36a9 983b ea80 3dbf e844 8a3d 3596 e23d
00000200: f464 143e 061b 1c3d b4a4 593d 33b5 793d
00000210: a049 7d3d ca92 173e abf4 a0be c413 de3d
00000220: 6531 08bc 9536 683e 4bb4 e63c 3eac 1cbd
00000230: a029 8a3b c222 25be 8a8d 223d aa3b 313d
00000240: 56b6 b0be ccd7 ca3d 918e 7b3e 484a 43bd
00000250: 9371 623d 1758 4fbd 04d0 563d 22a5 85bb
00000260: 799f 65bb 5895 a9be d236 bfbd 9e56 063d
00000270: 0cdc 1c3d 29c8 843d 2c51 04bf d11b 373c
00000280: 3c4c 73be f8d4 d0bc 9692 d13c f857 af3c
00000290: 95ba 623e 24b3 dc3b b96e b73d 622e 813d
000002a0: 1e7f efbd 807b 803b 7512 6abe 6006 f53b
000002b0: 8ceb f3bc 0102 f13c 0082 ca3d b6e1 893d
000002c0: 2fdc 463e 549d 443e 00d5 20ba 9eee 4c3d
000002d0: c6d8 a93d 7a70 8a3d 9cc9 f63c 8e2a 463e
000002e0: d7ff 8ebe 77eb ba3c fb69 03bd ea90 3c3d
000002f0: 7a56 36bd 37b8 a83d a09e ab3c 85ec ef3c
00000300: f420 183e c955 563e 0af5 19bd fc8d 453d
00000310: 2250 7e3d e433 a1be c083 583c 9bfd 20bc
00000320: e0a1 73bb 30d3 ce3d a5a7 313c 6d99 433e
00000330: 9d44 19bc 7e67 87be 6663 533d 44c9 273e
00000340: d4d9 583d 5992 5c3e 0446 243e 1a37 3e3d
00000350: 6017 083e b59e 3e3d 2d35 9e3c 01c8 573d
00000360: 2aba 273d 6bf3 86bd 8529 743d 804f 3dbd
00000370: 4c8c 72bd 790f a2be a5f2 cbbf d3ce 883d
00000380: 7a9a 023e 2875 49bd ade3 d8bd d26d 463d
00000390: 41cd a13c aecd 193c 3f4b 863d 20c3 bd3d
000003a0: 82fe 3bbd 2484 7a3e 3307 993c 4879 e23c
000003b0: 1360 b3be 09fc 813d a1b7 c0bd a266 273d
000003c0: 1cd1 a2be 07d6 c23d 0d05 8f3d 3f12 56bb
000003d0: 083a 2a3c 6b76 663d bb94 903d fa4f 75bd
000003e0: 8f24 b13c e19e fd3d fe0e 283d 9c45 2f3d
000003f0: c3af 4fbc 1470 d93c 98dc ec3c 45c9 ab3d
-0.03826055 -0.29455802 0.11214297 0.03390156 -0.006904238 -0.02770178 0.0015351835 -0.28951535
-0.3338705 0.09026657 0.008984166 0.05954653 0.1497854 0.215284 -0.32581192 0.06411006
0.0005894052 -0.039400123 0.24565597 0.25045216 -0.09937013 0.03224699 0.20506214 -0.09351738
-0.1960378 0.09593391 -0.007927125 0.16239436 0.0031719925 0.043567933 0.08953657 0.07037308
0.18321663 0.022014072 -0.3233585 -0.051906228 0.058504 0.045884833 0.2061759 0.09382679
-0.05638755 0.02068256 0.036302216 -0.061809435 0.31774265 -0.064744525 0.022889152 0.06821535
0.025907751 0.15080382 -0.27962574 0.15991431 -0.2911862 0.13925134 -0.12577224 0.062217247
-0.031876124 -0.030447826 0.08938397 -0.21122144 -0.005809931 0.24158327 0.15428096 -0.05745382
0.02546519 0.1821652 0.05343847 0.014615116 0.035975978 0.014196645 0.03604926 0.13717447
-0.008275109 0.1568146 -0.006888524 -0.055966057 0.062295374 -0.0059402315 0.23647612 0.06799643
0.005573012 0.027545085 -0.04917314 -0.011779883 -0.123998396 0.058472298 0.088414125 -0.05910391
-0.054009218 -0.043506723 -0.044186186 0.022700844 0.06410352 0.1822561 -0.008459243 0.043717735
0.034781374 0.043813847 0.028080916 0.093970366 0.05842326 0.22418465 -0.051745392 0.17585336
-0.34757233 -0.31884563 0.05870165 -0.24645045 0.036995612 0.127009 0.230495 -0.28843057
0.04573606 0.017627515 -0.03958243 -0.037361164 0.024225846 0.022011496 0.040763505 0.24579878
0.20646212 0.20300871 0.06236763 0.16357107 0.0046588434 -0.7402483 0.06751424 0.11063806
0.14491636 0.03811171 0.05313559 0.06096382 0.061837792 0.1480209 -0.31436667 0.10843614
-0.008312558 0.22677071 0.028162142 -0.0382502 0.004216388 -0.1612654 0.039685763 0.04326979
-0.3451411 0.09904441 0.24566104 -0.047678262 0.055284094 -0.05062112 0.052444473 -0.0040785233
-0.003503768 -0.33121753 -0.09336628 0.03279745 0.03829579 0.0648349 -0.5168636 0.011176066
-0.2375955 -0.025492176 0.025582593 0.021404251 0.22141488 0.0067352224 0.089566655 0.06307675
-0.116941676 0.0039209723 -0.22858603 0.0074775666 -0.029775403 0.0294199 0.09888077 0.06732504
0.19419931 0.19200641 -0.0006135255 0.05003225 0.082932994 0.067597345 0.030125432 0.19352171
-0.27929565 0.022817357 -0.032083493 0.04603664 -0.044516064 0.08238261 0.020949662 0.029287586
0.1485632 0.20931162 -0.037587203 0.04823111 0.06208814 -0.31484902 0.013215005 -0.009826089
-0.0037175342 0.100988746 0.010843192 0.19101496 -0.009354738 -0.26446146 0.051608466 0.1638537
0.052942112 0.21540202 0.16042334 0.046439268 0.13290167 0.046538074 0.019312466 0.052680973
0.040949024 -0.06589397 0.05960991 -0.046218395 -0.05921583 -0.3165243 -1.5933424 0.066800736
0.1275424 -0.049183995 -0.10590301 0.048444577 0.019751193 0.009387417 0.06557321 0.09265733
-0.045897014 0.2446447 0.01868019 0.027645722 -0.35034236 0.063469 -0.094100244 0.040869363
-0.31800163 0.09513479 0.06983385 -0.0032664684 0.010389812 0.056265276 0.07059618 -0.059890725
0.021623878 0.12383819 0.041029923 0.042790994 -0.012676182 0.0265427 0.028913781 0.083879985

linear2.bias f4 [5]
00000000: 0501 34bc be29 103d 263e 043e cf97 1c3d
00000010: b6bd a43d
-0.010986571 0.03519606 0.12914333 0.038230713 0.08043997
