model/model_entire.pth (torch, 144831 bytes, 6 tensors)

weight f4 [128, 8]
0	0xbf22dbb6	-0.636165
1	0xbf25f3bb	-0.6482503
2	0xbf0ce572	-0.55037606
3	0xbef98eb2	-0.4874168
4	0xbee5c910	-0.4487996
5	0x3b03df63	0.0020122163
6	0x3db7d8e0	0.089769125
7	0x3dcec4fc	0.100961655
8	0xbe7f00b2	-0.24902609
9	0xbd5a57c8	-0.05330637
10	0xbdf358b4	-0.11882153
11	0xbeaad577	-0.33365986
12	0xbea4b5ee	-0.3217005
13	0xbe582ed7	-0.21111618
14	0x3e8eda69	0.2790101
15	0x3e805d01	0.25070956
16	0xbe8c50ab	-0.27405295
17	0xbdf005c9	-0.117198534
18	0x3e8104b7	0.2519891
19	0x3d0101bc	0.031495795
20	0xbe214053	-0.15747194
21	0x3da75d78	0.081721246
22	0xbed82ef1	-0.42223313
23	0xbd19f80e	-0.03759008
24	0xbe39f30b	-0.1815912
25	0xbf53c096	-0.8271574
26	0xbda643c5	-0.08118395
27	0xbe33a753	-0.17544298
28	0xbf957729	-1.167699
29	0x3e455de9	0.19274105
30	0xbc948158	-0.018128082
31	0xbe21af3a	-0.157895
32	0xbe37ffdd	-0.17968698
33	0x3d79f7c8	0.06102732
34	0x3e87aab5	0.26497427
35	0xbe1bafe8	-0.15203822
36	0xbe79e708	-0.24404538
37	0xbea37860	-0.31927776
38	0xbdab4f4c	-0.08364734
39	0xbe89207b	-0.26782593
40	0xbe3edf6c	-0.18639916
41	0xbeb3cc72	-0.35116917
42	0xbe27b898	-0.1637901
43	0xbe8fd04b	-0.28088602
44	0xbe1172c0	-0.1420393
45	0x3e9eaab9	0.30989626
46	0xbe8c98e5	-0.274604
47	0xbe7e5185	-0.24835785
48	0xbed30b8e	-0.41219753
49	0xbe7b4d5c	-0.24541229
50	0xbf1ef41e	-0.62091243
51	0x3e3e303e	0.1857309
52	0xbf0a84eb	-0.54109067
53	0x3cf41a44	0.02979768
54	0xbd4eb4d0	-0.050465405
55	0x3e36e237	0.17859732
56	0xbf779fac	-0.96728015
57	0xbf2dd7ab	-0.6790721
58	0x3cd11c69	0.025526242
59	0x3c951b44	0.018201478
60	0xbef71418	-0.48257518
61	0x3e280b83	0.16410641
62	0xbec6bc25	-0.38815418
63	0x3e45e780	0.19326591
64	0xbef2fb5c	-0.47457397
65	0xbe9d83f0	-0.30764723
66	0xbf174e50	-0.5910387
67	0xbe3a1e23	-0.18175559
68	0xbea09643	-0.3136464
69	0x3d8e6e59	0.06954641
70	0x3e23e9ee	0.16007206
71	0xbd156860	-0.036476493
72	0xbe6db3d4	-0.2321313
73	0xbe9b92cd	-0.30385438
74	0xbeaee8e1	-0.34162048
75	0xbe181015	-0.14849885
76	0x3cf1af10	0.029502422
77	0x3dc46240	0.09589052
78	0x3e2c9686	0.16854295
79	0xbe45b71f	-0.19308136
80	0xbf6ef722	-0.93345845
81	0xbe9159f8	-0.28388953
82	0xbee08ff8	-0.4385984
83	0x3e338e4d	0.17534752
84	0xbee7adf2	-0.45249897
85	0x3d9682ca	0.07349165
86	0x3d0ff65d	0.03514706
87	0x3e9bebf8	0.30453467
88	0xbe82ff20	-0.2558527
89	0xbe594ac4	-0.21219927
90	0xbe8b667b	-0.27226624
91	0xbea391f8	-0.31947303
92	0xbd9bddcc	-0.07610664
93	0xbe923748	-0.285578
94	0xbe8473bc	-0.25869548
95	0xbe3a7941	-0.18210317
96	0x3e3e705a	0.18597546
97	0xbee4fe13	-0.44725093
98	0x3c2f5748	0.010701962
99	0xbe9e91a6	-0.30970496
100	0xbec8d059	-0.39221457
101	0xbe47622e	-0.19471046
102	0xbd9b1267	-0.07571869
103	0xbe794ee4	-0.243465
104	0xbe57062c	-0.20998448
105	0xbf2393f4	-0.63897634
106	0x3e5f55c5	0.21810062
107	0xbe773820	-0.24142504
108	0xbf56a9e9	-0.8385301
109	0xbe7ccc97	-0.2468742
110	0x3d68c460	0.056827903
111	0xbdb864e3	-0.090036176
112	0xbe4ae766	-0.19814834
113	0x3e152928	0.14566481
114	0x3e4f989e	0.20273063
115	0xbe0db2f1	-0.13837792
116	0x3dd491c0	0.10379362
117	0x3deaa900	0.114580154
118	0xbe77f978	-0.24216259
119	0xbdaefde8	-0.085445225
120	0xbe42ca1d	-0.19022413
121	0xbfde90b3	-1.7387909
122	0xbd74ec8f	-0.059795912
123	0xbc2ca8d2	-0.010538297
124	0xbf9a7d8c	-1.2069564
125	0x3e7beab6	0.24601254
126	0x3e9a5f44	0.30150807
127	0xbe1b21a4	-0.15149552
128	0xbf1860ac	-0.5952251
129	0xc0346c60	-2.8191147
130	0xbf59e0b1	-0.85108477
131	0xbdbc9ada	-0.09209223
132	0x3feaaf85	1.8334814
133	0x3f60d918	0.8783126
134	0x3ea2de90	0.31810427
135	0x3e9b9804	0.30389416
136	0xbf5a0259	-0.8515983
137	0xbf16a701	-0.5884858
138	0xbe05306f	-0.13006757
139	0x3e17907b	0.14801209
140	0xbf813c0d	-1.0096451
141	0xbe5c94da	-0.21541157
142	0x3deabf4d	0.11462269
143	0xbe033876	-0.12814507
144	0xbda2bb48	-0.07945877
145	0xbdcd4d70	-0.10024536
146	0xbe429e99	-0.19005813
147	0xbd8367d4	-0.06416288
148	0x3d987178	0.074435174
149	0xbe19a616	-0.15004763
150	0xbd428f48	-0.047499925
151	0x3de9f424	0.11423519
152	0xbdc4ed59	-0.09615583
153	0x3d8581f8	0.0651893
154	0xbe851225	-0.25990406
155	0xbe20fefa	-0.15722266
156	0x3c7287fa	0.014802927
157	0xbf0212e6	-0.50810087
158	0xbf12933b	-0.57255906
159	0xbd4d0eb0	-0.050062835
160	0xbf864461	-1.0489618
161	0xbf003962	-0.5008756
162	0x3d511abe	0.051050894
163	0x3e78e0bb	0.24304478
164	0xbf8dda61	-1.1082269
165	0x3d592bb5	0.053020198
166	0xbeb73fdb	-0.35790905
167	0xbd4856a2	-0.048910744
168	0xbe2724fc	-0.16322702
169	0x3d887d3c	0.066645116
170	0xbe581acc	-0.21103972
171	0xbe299bbf	-0.16563319
172	0x3e9385db	0.2881306
173	0xbe3571b6	-0.17719159
174	0xbdf31fea	-0.118713215
175	0xbdc6b620	-0.09702706
176	0xbf24a3c7	-0.64312404
177	0xbf1379b4	-0.5760758
178	0xbeb67916	-0.35639256
179	0xbd60b4bb	-0.054859858
180	0xbf7493f1	-0.9553824
181	0xbe6964d1	-0.22792365
182	0x3ce3d561	0.027811708
183	0x3e3f93dd	0.18708749
184	0xbe6cdb72	-0.23130587
185	0xbe2814c0	-0.16414165
186	0xbdc25c4c	-0.094902605
187	0x3e1543be	0.14576623
188	0x3e3b9442	0.18318275
189	0xbdba577c	-0.090987176
190	0xbe8ecbab	-0.2788976
191	0xbe560740	-0.20901203
192	0xbee62ce9	-0.4495614
193	0xbf2d1bdc	-0.67620635
194	0xbea69085	-0.32532135
195	0xbc4d3b10	-0.012526289
196	0xbe8cd0fc	-0.27503192
197	0x3dce05e1	0.10059715
198	0xbebc447b	-0.36770996
199	0x3e4eb9a6	0.20188007
200	0xbfb84d5b	-1.4398607
201	0xbe9b2025	-0.30297962
202	0xbf206a42	-0.62662137
203	0xbebccbe0	-0.36874294
204	0xbf7952fd	-0.97392255
205	0x3d381aed	0.044947553
206	0xbda06088	-0.07830912
207	0xbf10c96a	-0.56557333
208	0xbe6b9b36	-0.23008427
209	0xbe657817	-0.22409092
210	0x3decfc10	0.115715146
211	0x3d99dd84	0.07512954
212	0x3a8bef00	0.0010676086
213	0xbe8e8253	-0.27833804
214	0x3e8ef1cf	0.2791886
215	0xbe9396ad	-0.28825894
216	0xbe0eb10e	-0.13934729
217	0xbe9ec5c9	-0.31010273
218	0xbe7eabd3	-0.24870233
219	0x3e198852	0.14993408
220	0x3d8214c1	0.06351615
221	0x3e18778e	0.14889356
222	0xbea671a7	-0.32508585
223	0xbdfc3766	-0.12315254
224	0xbda0f511	-0.07859243
225	0x3df7cab4	0.120992094
226	0x3bd5bdda	0.006522876
227	0xbdc15cc5	-0.094415225
228	0xbddad248	-0.10684639
229	0x3e1b425a	0.1516203
230	0xbc7d1ad7	-0.015448294
231	0xbd10b3b3	-0.035327625
232	0xbd975546	-0.073893115
233	0x3e1d1f31	0.1534393
234	0xbea6269f	-0.3245134
235	0x3e54f605	0.20796974
236	0x3ce46882	0.027881864
237	0xbda5774b	-0.08079394
238	0xbe251e36	-0.16124806
239	0x3e10d72c	0.14144582
240	0xbf34083a	-0.7032505
241	0xbd885265	-0.066563405
242	0xbda671a6	-0.081271455
243	0xbdc9c14a	-0.0985132
244	0xbf015033	-0.50513
245	0xbe07dc5d	-0.13267656
246	0x3e439a99	0.19101943
247	0xbdd8f448	-0.10593468
248	0xbf27beaf	-0.65525335
249	0xbf21e717	-0.6324324
250	0xbe4f2684	-0.20229536
251	0x3dc14e78	0.09438795
252	0xbdcec2b7	-0.10095733
253	0x3e82a179	0.2551382
254	0xbe86723d	-0.26259032
255	0x3e0cd4f7	0.13753115

bias f4 [128]
0	0xbe33a0b9	-0.1754178
1	0xbe51071f	-0.20412873
2	0xbec1cd9b	-0.37852177
3	0x3e488b78	0.19584453
4	0x3d132ed8	0.035933346
5	0xbe809a72	-0.25117832
6	0x3d8cab71	0.06868637
7	0x3e1be30e	0.15223333
8	0xbe9f6c09	-0.31137112
9	0xbdb024dc	-0.0860078
10	0xbe312c57	-0.1730207
11	0x3e85d415	0.26138368
12	0xbeb49355	-0.35268655
13	0x3e4ff918	0.20309865
14	0xbea320f4	-0.3186108
15	0x3d87e6cc	0.06635818
16	0x3f27d1dc	0.65554595
17	0xbba4c3ea	-0.0050282376
18	0xbdfbb0f6	-0.12289612
19	0xbda25e4e	-0.079281434
20	0x3e255577	0.16145884
21	0xbe0ba88b	-0.13638513
22	0x3e715647	0.23568068
23	0xbe97cfc7	-0.2965071
24	0xbda7b34f	-0.08188497
25	0x3d5e63db	0.05429445
26	0xbc2a6ec0	-0.010402381
27	0xbce4d955	-0.027935663
28	0xbe812e1d	-0.25230494
29	0xbed2b691	-0.41154912
30	0xbe74aeee	-0.23894855
31	0xbe8e68cf	-0.27814338
32	0x3e89fa82	0.26948935
33	0xbeae01eb	-0.33985838
34	0xbe8ab38f	-0.27090117
35	0x3e13145e	0.14363238
36	0xbd8eecfa	-0.069787934
37	0xbe207c84	-0.15672499
38	0x3e4c84c0	0.19972515
39	0x3e3b63c2	0.18299773
40	0x3d98cb94	0.074607044
41	0x3dea9274	0.11453715
42	0x3dd6a693	0.1048099
43	0x3e32d851	0.1746533
44	0xbdf54748	-0.119764864
45	0xbc7f29ed	-0.015573961
46	0xbd767fa0	-0.060180306
47	0x3d6bf688	0.057608157
48	0xbe5ddeb2	-0.21666983
49	0xbe9202e5	-0.28517833
50	0xbe82f4b3	-0.25577316
51	0xbdb366ac	-0.087598175
52	0xbebc0d1a	-0.36728746
53	0xbe65a2d3	-0.22425394
54	0xbe6be28a	-0.23035637
55	0xbef07db8	-0.46970916
56	0x3e73d4a0	0.23811579
57	0xbe3500e4	-0.17676121
58	0xbde506b0	-0.11182916
59	0x3e3a1b38	0.18174446
60	0xbe056b7d	-0.13029285
61	0x3e82d327	0.2555172
62	0xbdae7bd8	-0.08519715
63	0xbdbb9c68	-0.091606915
64	0xbcacf280	-0.021111727
65	0x3e68a9c8	0.22721016
66	0xbe81aa92	-0.25325447
67	0x3e3a3a05	0.18186195
68	0xbea67c29	-0.32516602
69	0x3ddb374a	0.10703905
70	0xbe26df52	-0.16296127
71	0xbe3bbf01	-0.18334581
72	0x3db553e4	0.088538915
73	0xbea18cca	-0.31552726
74	0x3d5fdf51	0.05465633
75	0xbd9899a7	-0.07451182
76	0xbe916f1f	-0.2840509
77	0x3dd4b195	0.103854336
78	0xbea9fae7	-0.33199236
79	0x3d6147bf	0.055000063
80	0xbd92f20a	-0.071750715
81	0xbe9b398e	-0.30317348
82	0x3d34bce8	0.044125468
83	0xbe9b3f80	-0.30321884
84	0xbd8584bd	-0.065194584
85	0xbd5ef8e5	-0.054436583
86	0xbd3dfdeb	-0.046384733
87	0x3e501f54	0.2032445
88	0xbe735c45	-0.23765667
89	0xbe9ffbc5	-0.31246772
90	0xbdc1896c	-0.09450039
91	0xbd2b6ac0	-0.04184985
92	0xbdfb03cf	-0.12256586
93	0x3e42b059	0.19012584
94	0xbe08ff72	-0.13378695
95	0x3f3415e4	0.703459
96	0x3e77a58c	0.24184245
97	0x3e8d457f	0.27592084
98	0x3e76158c	0.24031657
99	0x3e52ec7e	0.20598027
100	0xbdb6f52a	-0.0893348
101	0xbe07cfbc	-0.13262838
102	0x3e16b6bf	0.1471815
103	0x3ed0fcc5	0.40817848
104	0xbe70a7ac	-0.23501462
105	0xbd8596a6	-0.065228745
106	0xbe1bc396	-0.15211329
107	0x3e9e27c8	0.30889726
108	0x3dd4a51e	0.10383056
109	0xbee86586	-0.45389956
110	0xbe2551a8	-0.1614443
111	0x3e8fc6f6	0.28081483
112	0x3ed4a98b	0.415356
113	0x3e76f7e4	0.24118
114	0xbe1fed91	-0.15617968
115	0xbf1ef69e	-0.6209506
116	0x3de3ac99	0.11116905
117	0xbe13e4e0	-0.14442778
118	0xbe93dca9	-0.28879288
119	0xbee08575	-0.4385182
120	0xbe5cfb18	-0.2158016
121	0xbe58b9d5	-0.2116464
122	0xbfb57ab9	-1.4178077
123	0x3d0ab478	0.033863515
124	0xbeae7ac4	-0.34078038
125	0x3d853028	0.06503326
126	0xbe9f8754	-0.31157935
127	0xbee6332c	-0.44960916

weight f4 [256, 128]
0	0x3dc828f8	0.09773439
1	0x3d5257de	0.051353328
2	0x3e8f3618	0.27970958
3	0x3ce79b26	0.028272223
4	0x3d998fdf	0.07498144
5	0x3d7c651a	0.061619855
6	0x3dab0c8e	0.08352004
7	0x3e060111	0.13086344
8	0x3da17d5d	0.07885239
9	0x3cf156f4	0.029460408
10	0x3dadf277	0.08493512
11	0x3c7e8310	0.015534177
12	0xbc3477b8	-0.011014871
13	0xbb7f64fb	-0.00389701
14	0x3d87a711	0.06623662
15	0x3daaaa11	0.08333219
16	0xbe28105d	-0.16412492
17	0x3e0293cb	0.12751691
18	0xbc8837b4	-0.016628124
19	0xbcfb0516	-0.030642074
20	0x3d5b53b0	0.053546607
21	0x3d222042	0.039581545
22	0xbc8f02a8	-0.017457321
23	0xbb41d560	-0.0029576644
24	0x3d5184fc	0.051152214
25	0x3db491ba	0.08816858
26	0xbd034afc	-0.032053933
27	0xbdd9ab6b	-0.106283985
28	0x3defe49b	0.11713525
29	0xbd371d9a	-0.044705965
30	0x3de9898c	0.11403188
31	0xbe4aadbf	-0.19792841
32	0xbe5ceae8	-0.21573985
33	0x3d34db40	0.044154406
34	0x3d54ca21	0.051950578
35	0xbd80a722	-0.06281878
36	0x3dc4f355	0.096167244
37	0xbc6305e8	-0.013856389
38	0xbeb681b7	-0.3564584
39	0x3db092e5	0.08621768
40	0x3daa707c	0.08322236
41	0x3d7703ae	0.060306244
42	0x3d7c9fa9	0.0616757
43	0xbc97372d	-0.018458927
44	0x3d1a50d5	0.037674744
45	0x3dfcad57	0.123377495
46	0xbd66642c	-0.056247875
47	0x3d2f4d5e	0.042798392
48	0xbac1e95b	-0.0014794277
49	0x3b8d3fc1	0.0043105786
50	0xbc4351e8	-0.011921383
51	0xbdb2f2ae	-0.08737694
52	0x3cc77690	0.024348527
53	0x3de5615f	0.11200213
54	0xbd06dc10	-0.03292471
55	0xbc2430c8	-0.010021396
56	0x3d784f9a	0.06062279
57	0x3d2ae624	0.041723385
58	0x3dece578	0.11567205
59	0x3d7b894e	0.06141024
60	0x3d725056	0.059158646
61	0xbb76530b	-0.0037586119
62	0x3dcaac47	0.098961405
63	0xbbc3f98f	-0.0059806774
64	0x3c2ae308	0.010430105
65	0x3d9da545	0.07697538
66	0xbb588949	-0.0033040813
67	0xbea44290	-0.32082033
68	0xbd50d9ec	-0.050989076
69	0x3dfbd611	0.12296689
70	0x3d364da7	0.04450765
71	0xbb977325	-0.0046218806
72	0x3df263dc	0.11835453
73	0xbd55d027	-0.052200463
74	0xbb76b8e4	-0.0037646824
75	0x3df23533	0.11826553
76	0x3b06f840	0.0020594746
77	0x3cc8aff9	0.024497973
78	0x3d612ae6	0.05497255
79	0x3dd6185d	0.10453866
80	0x3d7f4de6	0.06233015
81	0x3ccbc060	0.024872005
82	0xbc08c6b0	-0.008348152
83	0x3b859650	0.0040767565
84	0x3e0dc602	0.13845065
85	0x3ddfb671	0.1092347
86	0x3dbbf866	0.091782376
87	0x3e022e0c	0.12712878
88	0x3da25ca9	0.0792783
89	0x3cc331aa	0.023827393
90	0xbc9c214c	-0.019058846
91	0x3d312926	0.043252133
92	0x3da7a3aa	0.08185513
93	0xbb930455	-0.0044866004
94	0xbba758c0	-0.0051070154
95	0xbe926a87	-0.285969
96	0xbe10c504	-0.14137655
97	0x3d2cac1c	0.042156324
98	0x3e0632bd	0.13105293
99	0xbd9ceae2	-0.07661988
100	0x3d50efa6	0.051009797
101	0x3c980bdc	0.018560342
102	0xbdafda75	-0.08586589
103	0xbe9b26b1	-0.30302957
104	0x3d74adf3	0.059736203
105	0xbb7420a0	-0.0037250891
106	0xbb8a7696	-0.0042255623
107	0x3d870664	0.06593016
108	0xba2dc085	-0.0006628114
109	0xbd8d0c66	-0.068871304
110	0xbd139748	-0.036032945
111	0xbeb8a5c0	-0.36063957
112	0xbd9b3c4c	-0.0757986
113	0xbc871256	-0.016488235
114	0x3d54de86	0.051970027
115	0xbd574852	-0.052559204
116	0x3e0d1057	0.13775764
117	0x3cd53d34	0.02603016
118	0x3ce95f17	0.028487725
119	0xbcfe1575	-0.03101609
120	0xbc1bad48	-0.009501763
121	0xbcf3c504	-0.02975703
122	0xbe8123bb	-0.25222573
123	0xbd114508	-0.035466224
124	0x3dc897bf	0.09794568
125	0x3c04c468	0.0081034675
126	0x3cfe96f0	0.031077832
127	0x3d9c6b6a	0.07637675
128	0x3e084549	0.1330768
129	0x3d0f62dc	0.03500639
130	0x3d5f6b2a	0.05454556
131	0xbd8b9d37	-0.06817096
132	0x3cecbbb0	0.02889809
133	0x3daff10f	0.085909
134	0x3dce85dd	0.10084126
135	0x3de0e965	0.109820165
136	0x3c8083c1	0.015687825
137	0xbc8831dc	-0.016625337
138	0x3db78a98	0.089619815
139	0x3b933160	0.00449197
140	0xbd86a1c0	-0.0657382
141	0x3de44f12	0.11147894
142	0x3da4229b	0.08014413
143	0xbe05133d	-0.1299562
144	0xbf3851d1	-0.7199984
145	0x3e073ad5	0.13206036
146	0x3c078e28	0.008273639
147	0x3cb12666	0.021624755
148	0xbbc86590	-0.006115623
149	0xbd14a1c5	-0.036287088
150	0x3d264929	0.040597115
151	0xbd8f8046	-0.07006888
152	0x3b45c657	0.0030178034
153	0x3d8fe009	0.07025153
154	0xbcbc5e90	-0.02299431
155	0x3c7b396f	0.015333517
156	0xbc815672	-0.01578829
157	0xbb92f37d	-0.0044845925
158	0x3d832ac1	0.06404639
159	0xbe8cd8f1	-0.27509263
160	0xbe32846f	-0.17433332
161	0xbc6c64bd	-0.014428315
162	0x3dad4e6f	0.08462226
163	0x3aa0fa40	0.0012281612
164	0xbc5a0ec4	-0.013309184
165	0xbcebe5ae	-0.028796043
166	0xbf0fb411	-0.56134135
167	0xbd87ef1b	-0.066374026
168	0x3d4b52a0	0.049639344
169	0x3dae5ac5	0.08513407
170	0x3d020897	0.031746473
171	0xbc845ccc	-0.01615753
172	0x3ddcbc9b	0.10778161
173	0x3e009f39	0.12560739
174	0x3dae6533	0.08515396
175	0xbb7e7880	-0.0038829148
176	0x3d0a78c4	0.033806577
177	0xbe012534	-0.12611848
178	0xbd1bf4fe	-0.03807544
179	0x3d57d3ea	0.05269233
180	0xbd12cc81	-0.03583956
181	0x3db3be54	0.087765366
182	0xbe32319f	-0.17401741
183	0x3c300c78	0.01074516
184	0x3d8f4edf	0.06997465
185	0x3e145e16	0.14489016
186	0xbda7b876	-0.0818948
187	0xbd111e03	-0.035429012
188	0x3db3969f	0.08768963
189	0x3cf7fadd	0.030270988
190	0x3dc39623	0.09550121
191	0x3c416544	0.011803929
192	0x3d01c262	0.03167952
193	0x3c43796a	0.011930803
194	0x3ddf43cb	0.10901602
195	0xbedfde6b	-0.4372438
196	0xbcfc2322	-0.030778471
197	0x3d91c2ac	0.07117209
198	0x3b3f2205	0.0029164564
199	0xbd976fbc	-0.073943585
200	0xbcb0ae46	-0.021567475
201	0x3d95c91d	0.0731375
202	0x3e00bb06	0.12571344
203	0x3d9cd997	0.076586895
204	0x3d3fe29e	0.04684698
205	0x3dd46ef2	0.10372724
206	0x3cbca30c	0.023026966
207	0xbae97a7f	-0.0017812996
208	0xbd83798c	-0.064196676
209	0x3d4c344a	0.049854554
210	0x3d7c4f52	0.061599083
211	0x3b6d1400	0.003617525
212	0x3e0c6c90	0.13713288
213	0x3d42c944	0.047555223
214	0xbc7fbee7	-0.0156094795
215	0x3da390c4	0.07986596
216	0xbd04bb54	-0.032405213
217	0x3daeb97f	0.08531474
218	0xbdb12817	-0.08650225
219	0x3d10de42	0.03536821
220	0xbc02bd36	-0.007979682
221	0xbcc9e433	-0.024644947
222	0x3da2b3f3	0.07944479
223	0xbeda6d7e	-0.4266166
224	0x3c3421a3	0.010994348
225	0x3d3f941e	0.046772115
226	0xbc237e92	-0.009978907
227	0xbcf77f76	-0.030212145
228	0xbc6bde05	-0.014396195
229	0x3dfb55f9	0.12272257
230	0xbd82d4d2	-0.063882485
231	0xbd9a5cb3	-0.07537212
232	0x3d970bc1	0.07375289
233	0x3cdbfa00	0.026852608
234	0xbcede5eb	-0.029040297
235	0x3dba6b59	0.09102506
236	0xbd9d59a2	-0.07683112
237	0x3c1e4688	0.009660371
238	0x3df292f6	0.11844437
239	0xbcc5152b	-0.024057945
240	0x3d867969	0.06566126
241	0x3d95463b	0.07288786
242	0xbd9aa70f	-0.07551395
243	0x3cc9e5d8	0.02464573
244	0x3ce7892a	0.028263647
245	0x3d13ed26	0.036114834
246	0x3df4522a	0.11929734
247	0x3d393e91	0.045225684
248	0xbda56eee	-0.08077799
249	0xbc835953	-0.016033804
250	0xbd0e78fb	-0.034783345
251	0x3c7163c0	0.014733255
252	0x3e00d163	0.12579875
253	0xbc374058	-0.011184774
254	0xbce32832	-0.027729128
255	0xbe80728a	-0.25087386

bias f4 [256]
0	0xbe2534e0	-0.16133451
1	0xbe5e847b	-0.21730225
2	0xbea3cb01	-0.31990817
3	0x3da5782b	0.08079561
4	0xbf75199c	-0.957422
5	0xbc7818c5	-0.015142624
6	0xbe3f791b	-0.18698542
7	0xbd89dee1	-0.06731964
8	0xbe878f9e	-0.2647676
9	0xbe23b9a4	-0.15988785
10	0xbd10dd0b	-0.035367053
11	0xbe091899	-0.1338829
12	0xbcc1a9d7	-0.023640556
13	0xbe4d890a	-0.20071808
14	0xbe1b04e5	-0.15138586
15	0xbf8c5765	-1.0964171
16	0xbedd7502	-0.43253332
17	0xbecde3cd	-0.4021286
18	0xbdc75366	-0.09732704
19	0xbe20d0c6	-0.15704641
20	0xbd37aeab	-0.04484431
21	0xbed5dfb2	-0.41772228
22	0xbdc1c8df	-0.09462141
23	0xbe0c0fd5	-0.13677914
24	0xbe2247ec	-0.15847749
25	0xbe2e3d82	-0.17015651
26	0xbe303818	-0.17208898
27	0xbe58969a	-0.211512
28	0x3fd7d141	1.6860734
29	0xbe8c2996	-0.27375478
30	0xbe9ffbb7	-0.3124673
31	0xbe56badd	-0.2096972
32	0xbe3c9ab1	-0.18418385
33	0x3f03a36a	0.51421225
34	0xbe3d8692	-0.18508366
35	0xbe58b35b	-0.21162169
36	0xbf582a77	-0.84439796
37	0xbea267d1	-0.3171983
38	0xbea81955	-0.32831827
39	0xbe02a99f	-0.12760018
40	0xbe41a07d	-0.18908878
41	0xbe55c75c	-0.20876831
42	0xbc5cf5ed	-0.013486368
43	0xbe0eb7dd	-0.13937326
44	0xbea3cf40	-0.31994057
45	0xbe104b91	-0.14091326
46	0xbd6c151a	-0.05763731
47	0xbfbfa9e0	-1.4973717
48	0xbe82376a	-0.25432903
49	0xbe4701c5	-0.19434269
50	0xbd145b15	-0.036219675
51	0xbe40b3ce	-0.1881859
52	0xbe94b794	-0.2904631
53	0xbe25ad2c	-0.16179341
54	0xbdf31233	-0.118687056
55	0x40227675	2.53848
56	0xbe9d235c	-0.3069104
57	0xbe45a4da	-0.19301167
58	0xbe205ef6	-0.15661225
59	0xbe0cca21	-0.13748981
60	0xbdfb0158	-0.12256116
61	0xbe25fed7	-0.16210495
62	0x3fcfeee7	1.6244782
63	0xbe3bc4d6	-0.18336806
64	0xbe152617	-0.14565311
65	0xbe8607e7	-0.26177904
66	0xbf56189b	-0.83631295
67	0xbe801580	-0.25016403
68	0xbd84c48c	-0.06482801
69	0x3fed50be	1.8540266
70	0xbe9497bf	-0.29022023
71	0xbe63979e	-0.22225806
72	0xbe924f65	-0.28576198
73	0xbd8552d4	-0.06509939
74	0xbfd00746	-1.625222
75	0xbe6ef39e	-0.2333512
76	0x407497d4	3.8217669
77	0xbf7842f9	-0.9697719
78	0xbf5bab01	-0.85807806
79	0xbec3a4d1	-0.38211682
80	0xbe790d2a	-0.24321428
81	0xbe00e5db	-0.12587683
82	0xbeb5bfca	-0.35497886
83	0xbf0452a4	-0.516886
84	0xbe607f4d	-0.21923561
85	0xbdcb5238	-0.09927791
86	0xbdc2789f	-0.09495663
87	0x3d0bc4e6	0.034123324
88	0xbdc7983b	-0.097458325
89	0xbe227a52	-0.15866974
90	0xbe158565	-0.14601667
91	0xbe2b1bc6	-0.16709813
92	0xbcce5b0a	-0.025189895
93	0xbe3a91a7	-0.18219624
94	0xbdb09026	-0.08621244
95	0xbde94a2e	-0.11391102
96	0xbe8a4f97	-0.27013847
97	0xbe42e292	-0.19031742
98	0xbe69a901	-0.22818376
99	0xba2f90e2	-0.00066973094
100	0xbe49a856	-0.19693121
101	0xbe961a74	-0.29317057
102	0xbe6288ed	-0.22122546
103	0xbbeb179a	-0.0071744444
104	0xbe4c114a	-0.1992847
105	0xbe75c14b	-0.23999517
106	0xbe3be03e	-0.1834726
107	0x4074b38c	3.8234587
108	0xbe2ba986	-0.16763887
109	0xbb32d85b	-0.0027289602
110	0x3fd9e748	1.7023706
111	0xbe3b9c28	-0.18321288
112	0xbf96382d	-1.1735893
113	0xbd33d67b	-0.043905716
114	0xbe482b35	-0.19547732
115	0xbdc6123e	-0.09671448
116	0xba382838	-0.0007025036
117	0xbe7ccfc9	-0.24688639
118	0xbe250d32	-0.16118315
119	0xbd801f8c	-0.06256017
120	0xbe45aa24	-0.19303185
121	0xbe45fb3e	-0.19334123
122	0xbeb5c32a	-0.3550046
123	0xbd753818	-0.05986795
124	0x401da04d	2.462909
125	0xbe6fcf1a	-0.23418847
126	0xbf84018b	-1.0312971
127	0x4089daea	4.307973
128	0x3d007a19	0.03136644
129	0xbea0c8bc	-0.31403148
130	0xbec4ade7	-0.38413927
131	0x3fad2c5b	1.3529161
132	0xbedc0d14	-0.42978728
133	0x40564671	3.3480494
134	0xbd6f4bed	-0.058422018
135	0xbe5d6374	-0.2161997
136	0xbea83c34	-0.3285843
137	0xbed180c2	-0.40918547
138	0xbde995cf	-0.11405527
139	0xbe36706d	-0.17816325
140	0x4095f2f2	4.6859064
141	0xbf7d57e5	-0.9896224
142	0xbe6517bc	-0.22372335
143	0xbe446c04	-0.1918183
144	0xbdd40059	-0.10351629
145	0x3f9bc5f9	1.2169791
146	0xbe197a6f	-0.14988111
147	0xbf5766df	-0.84141344
148	0xbf7b9241	-0.9827004
149	0xbe46ae2a	-0.19402376
150	0xbf9122bc	-1.1338725
151	0xbf495564	-0.7864592
152	0xbc71a0b5	-0.014747788
153	0xbdba9b34	-0.09111634
154	0xbe60904b	-0.21930043
155	0x406ba043	3.6816566
156	0xbe208a33	-0.15677719
157	0x3e8333a8	0.25625348
158	0xbefa63a8	-0.48904157
159	0xbd526ad7	-0.05137142
160	0xbe24c21c	-0.16089672
161	0xbe1e338a	-0.15449348
162	0xbe152f59	-0.14568843
163	0xbe7f88d6	-0.24954543
164	0xbe4be617	-0.19911991
165	0x3fcb9959	1.5906173
166	0xbda71cd9	-0.08159799
167	0x3fc6a7a0	1.5519905
168	0xbdfcb035	-0.12338296
169	0xbe2a7ac4	-0.16648394
170	0xbdc8c241	-0.09802676
171	0xbea49af6	-0.32149476
172	0xbe4556d5	-0.19271405
173	0xbdc99e56	-0.09844653
174	0xbda4361a	-0.080181316
175	0xbe660424	-0.22462517
176	0xbb35c6f8	-0.0027737003
177	0xbe24f186	-0.16107759
178	0xbe9a50c2	-0.30139738
179	0xbf30cd67	-0.6906342
180	0xbd14f860	-0.03636968
181	0xbdbffe3b	-0.093746625
182	0xbdb4f3a9	-0.08835537
183	0xbd064316	-0.032778822
184	0xbe134c59	-0.14384593
185	0xbe41cef2	-0.189266
186	0xbe0ec6e6	-0.13943061
187	0xbc4df083	-0.0125695495
188	0xbea4340b	-0.32070956
189	0x3f7b46a3	0.9815466
190	0xbdde55cd	-0.10856209
191	0xbea1f4db	-0.31632122
192	0xbdf2c890	-0.118546605
193	0xbe0e9635	-0.13924487
194	0xbcc9b58b	-0.0246227
195	0xbd8e99c7	-0.069629245
196	0xbe119206	-0.1421586
197	0xbf15e85d	-0.58557683
198	0xbe92eec0	-0.28697777
199	0xbe8e87f4	-0.278381
200	0xbe0dd7db	-0.13851874
201	0xbe9821dc	-0.29713333
202	0xbead2cc9	-0.3382323
203	0xbdc5a0e8	-0.09649831
204	0xbeb12e9b	-0.3460587
205	0xbe219f01	-0.15783311
206	0x3ea78366	0.32717437
207	0x3fcbc6b0	1.592001
208	0xbe0f9eb4	-0.14025384
209	0x40959e4c	4.6755733
210	0xbf6b2b82	-0.9186326
211	0xbe332638	-0.17495048
212	0xbe21ce64	-0.15801388
213	0xbeb168ef	-0.3465037
214	0xbd7511e9	-0.059831534
215	0xbe81c509	-0.25345638
216	0xbeaa0355	-0.33205667
217	0xbec3f7a2	-0.38274866
218	0xbe1f8bd5	-0.15580685
219	0xbcab6dc6	-0.020926367
220	0xbcfd4f86	-0.030921709
221	0xbd895921	-0.06706453
222	0x3f160cf8	0.5861354
223	0xbe4c37e1	-0.19943191
224	0xbf1a1535	-0.6018861
225	0xbe9d9c20	-0.30783176
226	0x4010f0ab	2.2646892
227	0xbee8cdb7	-0.45469448
228	0xbe998fa4	-0.29992402
229	0xbdf30d19	-0.118677326
230	0x3f3f7437	0.74786705
231	0xbd1fe06a	-0.039032377
232	0xbe3875cf	-0.1801369
233	0xbdd037fc	-0.10166928
234	0xbdac5fa1	-0.08416677
235	0xbd77cb58	-0.060496658
236	0xbdbea74c	-0.09309253
237	0xbe438a22	-0.19095662
238	0xbd063946	-0.032769464
239	0x403e312e	2.9717517
240	0xbe7aedda	-0.24504796
241	0x40011bae	2.0173144
242	0xbe45279f	-0.19253395
243	0xbe12a056	-0.14318976
244	0x403bd4ab	2.9348552
245	0xbe163ab3	-0.1467083
246	0xbe3016b3	-0.17196159
247	0xbe49fd3e	-0.1972551
248	0xbee66998	-0.45002437
249	0xbe214aef	-0.15751241
250	0xbe58e939	-0.21182717
251	0xbe9616f4	-0.29314387
252	0xbe47d7ba	-0.19515887
253	0xbe98aae5	-0.29817882
254	0xbf97be14	-1.1854882
255	0xbf83bc70	-1.0291882

weight f4 [5, 256]
0	0x3e35f63d	0.17769714
1	0xbde0d544	-0.10978177
2	0x3f4937d4	0.7860081
3	0x3f2c439f	0.6729068
4	0x3fab4e45	1.3383261
5	0x3e5e7c25	0.21727045
6	0x3deeba79	0.116566606
7	0x3fc9b416	1.5758083
8	0xbe0170db	-0.12640707
9	0xbe178709	-0.14797606
10	0x3c914149	0.017731326
11	0xbdce79e1	-0.1008184
12	0xbc2c8f88	-0.010532267
13	0xbdac6bf8	-0.08419031
14	0x3e05d78f	0.1307051
15	0x3fb88f12	1.4418662
16	0xbe05e31e	-0.1307492
17	0xbb52d667	-0.003217125
18	0xbd179f98	-0.037017435
19	0xbd551131	-0.052018348
20	0x3a32ef57	0.00068258255
21	0x3e1a0665	0.15041502
22	0x3d00f112	0.031479903
23	0x3cc1bd70	0.023649901
24	0x3c68d945	0.014211957
25	0x3e771c48	0.24131882
26	0xbdf11f3f	-0.11773538
27	0xbd554066	-0.05206337
28	0xbf10518b	-0.56374425
29	0x3e144b3e	0.14481828
30	0x3e1acae5	0.1511646
31	0xbe14d1b7	-0.14533125
32	0x3e1c0d83	0.1523953
33	0xbf3dc73e	-0.74132144
34	0x3e8fbba1	0.28072837
35	0xbd8710de	-0.06595014
36	0xbc02a6d7	-0.007974348
37	0xbe1a64d3	-0.15077524
38	0x3d9eab4f	0.07747518
39	0x3d03af0b	0.032149356
40	0x3bc74ed0	0.006082393
41	0x3bf15a4d	0.007365501
42	0xbd8e1e91	-0.06939424
43	0x3deadb72	0.11467637
44	0x3f35b766	0.7098297
45	0xbbe5cea6	-0.00701316
46	0x3dd473a4	0.10373619
47	0x4077ef86	3.8739944
48	0x3b9d09fd	0.0047924505
49	0xbe0d8997	-0.13822018
50	0x3eac3454	0.33633673
51	0x3e7ba4c0	0.24574566
52	0x3e73360f	0.2375109
53	0xbd90db03	-0.07073023
54	0x3f25a520	0.64705086
55	0xbfe4ef45	-1.7885519
56	0xbdcad0cb	-0.09903105
57	0xbd3a75d4	-0.045522526
58	0x3dc2b01b	0.09506246
59	0x3d907fbb	0.07055613
60	0x3cc1a502	0.023638252
61	0x3cea44db	0.028597286
62	0xbf292681	-0.6607438
63	0x3e5e869f	0.21731041
64	0x3e1c4435	0.15260394
65	0x3de15a4f	0.11003553
66	0x3dc2fc60	0.09520793
67	0x3c9d506c	0.019203387
68	0xbdf344e4	-0.11878374
69	0xbeefe08f	-0.46851012
70	0x3e4ec981	0.20194055
71	0x3e2df8b9	0.16989411
72	0xbe0d226c	-0.13782662
73	0x3dd35088	0.103180945
74	0x402689c6	2.602159
75	0x3e4f0c16	0.20219454
76	0xbfac8388	-1.347764
77	0x3fcb8cd5	1.5902354
78	0xbdeec831	-0.11659277
79	0xbe16b5cc	-0.14717788
80	0xbe299dc3	-0.16564088
81	0x3d7b4b6f	0.061351236
82	0x3e14b9c5	0.1452399
83	0x3e22c5e1	0.15895797
84	0x3d62839e	0.0553013
85	0x3cf40dd8	0.029791757
86	0x3e7a60db	0.2445101
87	0x3f92bd1a	1.1463959
88	0xbe1842f2	-0.14869288
89	0x3e6ceeab	0.2313792
90	0x3dc5d87f	0.09660434
91	0xbdd9e288	-0.106389105
92	0x3e5fa18c	0.21838969
93	0x3dec9969	0.11552698
94	0x3ea1c9e7	0.31599352
95	0x3d74b90e	0.059746794
96	0x3c051071	0.008121596
97	0x3c959350	0.01825872
98	0x3ddd4c6f	0.10805594
99	0x3f07c88a	0.53040373
100	0xbe098dac	-0.1343295
101	0xbcaafe1b	-0.02087312
102	0xbe141e2d	-0.14464636
103	0xbda4b0e4	-0.08041552
104	0xbe1489f6	-0.14505753
105	0x3dd91f0f	0.10601627
106	0x3e5282c8	0.20557702
107	0xbfb5fef3	-1.4218429
108	0x39fc296a	0.0004809604
109	0x3e5e1d7c	0.21690935
110	0xbd2dedf5	-0.04246326
111	0x3e0ce54a	0.13759342
112	0x3e5922a8	0.21204627
113	0x3c2e1993	0.010626215
114	0xbe106ffc	-0.14105219
115	0x3c771442	0.015080513
116	0xbaa0a657	-0.0012256604
117	0xbe080b5b	-0.13285582
118	0x3dc24db3	0.09487476
119	0x3dd68740	0.10475016
120	0x3e89867e	0.26860422
121	0x3dd59809	0.10429389
122	0xbbfbc1eb	-0.007683029
123	0x3e443d2e	0.19163963
124	0xbfcbf8d5	-1.5935313
125	0x3d16b47b	0.036793213
126	0x3fbb7cd5	1.4647471
127	0xbe862490	-0.2619977
128	0xbf03d2b4	-0.5149338
129	0x3d74e8c3	0.05979229
130	0x3f3aee6f	0.7302007
131	0x3f15da85	0.5853656
132	0x3cbf7d85	0.023375282
133	0xbf5ca8df	-0.86195177
134	0x3c5ca135	0.013466169
135	0x3dfe3590	0.1241256
136	0x3c9f497b	0.019444218
137	0x3e3acf0f	0.18243049
138	0x3e043c45	0.12913616
139	0xbe1aa546	-0.1510211
140	0xbf8952d9	-1.0728408
141	0x3ec0941d	0.37613
142	0x3def33c9	0.11679799
143	0xbe16b6d7	-0.14718185
144	0x3e07ad6a	0.13249746
145	0x4013b4c6	2.3079085
146	0x3e6973e4	0.22798115
147	0x40191898	2.392126
148	0x3eb156ef	0.34636638
149	0xbe11b92b	-0.14230792
150	0x401440fd	2.3164666
151	0x3ee78010	0.4521489
152	0x3e646a14	0.2230609
153	0x3e0c2d2c	0.13689107
154	0xbd13989e	-0.03603422
155	0xbfa3cc61	-1.2796746
156	0xbe1c6438	-0.15272605
157	0xbdfb5dbb	-0.12273737
158	0x3e42377a	0.18966475
159	0x3e62bfca	0.22143474
160	0xbdd26b0b	-0.10274323
161	0x3cf043cf	0.029329209
162	0xbd534af8	-0.051585168
163	0x3d9ef6c7	0.07761913
164	0xbe0a48d6	-0.13504347
165	0xbf0577e1	-0.52136046
166	0xbd33d0e9	-0.043900404
167	0x3fd276c5	1.6442496
168	0xbdf440c0	-0.119264126
169	0xbd17bfc9	-0.037048135
170	0x3de149b3	0.11000385
171	0x3e3feee7	0.18743478
172	0x3e75484c	0.2395336
173	0xbe5464ea	-0.2074162
174	0x3c74654b	0.014916728
175	0x3e6125f8	0.2198714
176	0x3e42296e	0.18961117
177	0x3e548c85	0.20756729
178	0x3e795d6f	0.24352048
179	0x3ed400a1	0.4140673
180	0x3db32f6a	0.08749278
181	0x3d145993	0.036218237
182	0x3d73c0f0	0.05951017
183	0x3f0a01fa	0.53909266
184	0x3c16e6cd	0.009210301
185	0xbe07fac0	-0.13279247
186	0x3e1fc6eb	0.15603225
187	0xbc7ceb3b	-0.015436943
188	0x3e2fd13a	0.17169657
189	0x3fb2a5c7	1.3956841
190	0x3e1c7fb2	0.15283087
191	0x3d4f73c6	0.05064752
192	0x3c34a470	0.011025533
193	0xbd036a8a	-0.032084025
194	0xbe222014	-0.1583255
195	0x3e1eac09	0.15495314
196	0x3da665d5	0.08124892
197	0x3d9822eb	0.07428535
198	0xbdac6611	-0.08417905
199	0x3d3fef3a	0.046859004
200	0xbdeaea48	-0.11470467
201	0x3d63dea2	0.05563224
202	0x3d9c73d3	0.07639279
203	0x3d3ba1c1	0.045808557
204	0x3eb68658	0.3564937
205	0x3e005447	0.1253215
206	0xbd6ed3d4	-0.058307484
207	0xbf96694b	-1.1750883
208	0xbd9b6abb	-0.075887166
209	0xbf6bad00	-0.9206085
210	0x401a3469	2.4094489
211	0x3e0e9e0e	0.1392748
212	0x3e5a039a	0.21290436
213	0x3cf8dd60	0.030378997
214	0x3bc756f2	0.0060833627
215	0xbdad081d	-0.08448813
216	0x3f09f693	0.5389187
217	0xbdedef72	-0.11617936
218	0xbe3f3100	-0.18671036
219	0x3bb7589d	0.0055952803
220	0x3edac244	0.42726338
221	0xbc8b6c42	-0.017019395
222	0x3fcc55e6	1.5963714
223	0xbe149eda	-0.14513722
224	0x3ea5ed6d	0.32407704
225	0xbdebef35	-0.115202345
226	0xbfc56c94	-1.542376
227	0xbe37540d	-0.17903157
228	0x3f8ade86	1.0849159
229	0x3e3c3314	0.1837886
230	0x3f4c2c19	0.7975479
231	0xbd629f64	-0.055327788
232	0xbd28eaa6	-0.041239403
233	0x3dd45563	0.10367849
234	0xbd64565f	-0.055746432
235	0x3c0f4f28	0.0087469
236	0xbde6c76e	-0.11268507
237	0x3c224504	0.00990415
238	0xbc771a3e	-0.01508194
239	0xbf65471b	-0.89561623
240	0xbde1a8a9	-0.110184975
241	0xbe35bf34	-0.1774872
242	0xbe8991d5	-0.26869074
243	0xbdcbcf65	-0.09951667
244	0xc037d67d	-2.8724663
245	0x3d1df406	0.038562797
246	0xbe196779	-0.14980878
247	0xbe1f2906	-0.15542993
248	0x3e4df3e8	0.20112574
249	0xbe1b0c08	-0.15141308
250	0x3dbf8bcb	0.09352835
251	0xbdb32177	-0.08746617
252	0xbcedf354	-0.029046692
253	0xbe46909a	-0.19391099
254	0x3fdcb14d	1.7241608
255	0x3f29284b	0.6607711

bias f4 [5]
0	0xc0cf66a0	-6.4812775
1	0xbd79d44a	-0.06099347
2	0x4085fe2d	4.1872773
3	0x40bfbb78	5.9916344
4	0xbdacf4a1	-0.08445097
