model/model_entire.pth (torch, 143807 bytes, 6 tensors)

weight f4 [128, 6]
-0.29372248 -0.46106023 -0.054985642 0.045742422 -0.03822446 -0.007023979 -0.6283951 -0.5248677
0.10448008 -0.1154947 0.07445765 -0.058077876 0.0179664 0.2953454 -0.39201128 0.15568316
-0.2950508 0.17175604 0.16900438 -0.12873106 -0.29430073 0.07646314 -0.23432916 -0.10815148
-0.6261958 -0.5021095 0.12770946 -0.08483565 -0.17415161 -0.0865672 0.32863325 -0.10993625
0.0826413 0.03377019 -0.23624916 -0.44339412 -0.6290377 -1.1908317 -0.31602198 0.05679016
-0.31092215 0.01745863 -0.084042996 -0.34561637 0.19887055 -0.4976117 -0.32076615 0.08511225
-0.12766767 -0.08290577 0.23358506 0.10087943 -0.2896392 -0.06222889 -0.36916623 0.14579737
-0.39032888 -0.24394198 -0.019347697 0.3507763 -0.2065692 -0.5801718 0.15528964 -0.067857556
-0.014857384 -0.39692336 -0.28958878 -0.43301436 -0.4391489 0.09579887 0.18519376 0.13823935
-0.6114934 -1.696238 -0.3102241 -0.4146605 0.38075644 0.21964754 0.18908247 -0.39149624
-0.38615894 -0.3355568 -0.07861182 -0.020198422 0.03855283 0.03370105 -0.037447646 0.13105041
0.023710527 -0.024821319 -0.18206254 0.098494835 -0.27176696 -0.0547539 0.15306343 -0.13845854
-0.37674204 -0.39773977 0.08017779 0.1287334 -0.3050146 0.25971317 -0.0025256723 0.09139652
0.07976546 0.15981841 -0.20069721 -0.44593444 -0.14572823 -0.36433423 0.12493378 -0.12765986
-0.3672745 0.3423342 -0.28830653 -0.22279936 0.039391197 -0.12555598 0.08953962 -0.14058419
0.13795637 -0.10895337 -0.54721165 -0.0951515 -0.08590317 -0.091305956 -0.07054032 0.18502702
-0.123490915 -0.27938274 -0.44351736 0.17886813 -0.47811872 -1.4938025 0.15615134 -0.53137434
0.08494602 -0.20406671 -0.09453417 -0.25148448 -0.64178544 0.16128571 -0.4979318 0.0070596067
0.014077157 -0.23965524 0.32296723 -0.27962464 -0.2722398 -0.07761437 -0.16831179 0.004699562
-0.4503454 -0.2786683 -0.042840492 -0.14759804 -0.6996502 -0.75818247 0.0076952097 -0.2676208
0.06276213 0.02572977 0.31558764 0.20866038 -0.48640937 0.04937444 -0.21281993 -0.075609
-0.51383007 -0.09993472 0.14643912 0.170216 -0.5063259 0.24095632 -0.30944625 -0.24910943
0.37121314 -0.38527676 -0.2455715 0.060620427 0.22764648 -0.44088653 -0.34074056 -0.05476219
0.17203537 -0.28970852 -1.6400836 -1.2181666 0.42443737 -0.0393397 -0.10055176 0.055397287
-0.40016097 -0.05849865 -0.28413785 -0.15968457 -0.24190594 0.031202555 -0.05544224 0.21450946
-0.04626685 -0.37007272 -0.1357066 -0.21115728 -0.35504532 -0.28003 -0.23949654 -0.22228347
0.15057528 0.3175133 -0.13746145 -0.09349489 -0.29248407 0.27889246 -0.1544495 0.06368984
-0.28609836 0.012094417 -0.37881655 -0.11192483 -0.14251383 0.13552202 -0.32478008 -0.79233456
-0.6393505 -0.14862409 -0.028911423 0.073820285 -0.50836676 -0.32640004 -0.37121978 0.18219972
-0.48505905 0.23061754 -0.1553295 -0.3826349 -0.3878357 0.22867818 -0.03959615 -0.12418624
-0.30789852 -0.21531595 -0.054492235 0.10264331 0.20465553 -0.28101838 -0.72984433 -0.39713773
0.22051951 0.23065914 -0.51623917 0.05147815 -0.26839235 -0.25212464 -0.06417002 -0.07402625
00000000: cb62 96be 1610 ecbe a038 61bd 685c 3b3d
00000010: 4091 1cbd 6829 e6bb 80de 20bf bb5d 06bf
00000020: a7f9 d53d 7c88 ecbd 417d 983d 11e3 6dbd
00000030: 462e 933c 8337 973e b4b5 c8be 686b 1f3e
00000040: e610 97be d1e0 2f3e 7c0f 2d3e 13d2 03be
00000050: 96ae 96be b598 9c3d fcf3 6fbe 867e ddbd
00000060: 5e4e 20bf 408a 00bf 45c6 023e 50be adbd
00000070: cd54 32be 254a b1bd 9e42 a83e 4226 e1bd
00000080: d83f a93d 9c52 0a3d 4deb 71be 8e04 e3be
00000090: 9d08 21bf 2c6d 98bf a2cd a1be cc9c 683d
000000a0: 3031 9fbe 6705 8f3c bc1e acbd a1f4 b0be
000000b0: b9a4 4b3e f6c6 febe 763b a4be 554f ae3d
000000c0: 50bb 02be 80ca a9bd ec30 6f3e e099 ce3d
000000d0: 974b 94be b8e3 7ebd 5b03 bdbe e84b 153e
000000e0: 30d9 c7be edcb 79be 107f 9ebc f498 b33e
000000f0: e086 53be 2486 14bf 3f04 1f3e e7f8 8abd
00000100: 636c 73bc 8a39 cbbe fb44 94be 0fb4 ddbe
00000110: 20d8 e0be 3332 c43d 6fa3 3d3e 9e8e 0d3e
00000120: d58a 1cbf 541e d9bf b1d5 9ebe 624e d4be
00000130: 82f2 c23e 49eb 603e d69e 413e 3272 c8be
00000140: a0b6 c5be 1ace abbe 3cff a0bd 2977 a5bc
00000150: 93e9 1d3d 1d0a 0a3d b462 19bd 1432 063e
00000160: 943c c23c 1456 cbbc 9a6e 3abe a9b7 c93d
00000170: 0a25 8bbe a045 60bd a9bc 1c3e 13c8 0dbe
00000180: 55e4 c0be 8ca4 cbbe 4134 a43d b0d2 033e
00000190: e02a 9cbe 20f9 843e c085 25bb 192e bb3d
000001a0: 135c a33d 70a7 233e 9283 4dbe 8551 e4be
000001b0: c839 15be 048a babe 48dd ff3d 44b9 02be
000001c0: 670b bcbe 6e46 af3e ea9c 93be 8425 64be
000001d0: aa58 213d bf91 00be 8c60 b73d 4df5 0fbe
000001e0: 6f44 0d3e f222 dfbd 1016 0cbf cade c2bd
000001f0: 00ee afbd 9efe babd 7177 90bd b977 3d3e
00000200: cee8 fcbd 410b 8fbe b514 e3be 3529 373e
00000210: facb f4be ec34 bfbf 23e6 1f3e 2608 08bf
00000220: 2ef8 ad3d ddf6 50be 229b c1bd 93c2 80be
00000230: 0d4c 24bf 1528 253e ebf0 febe 4654 e73b
00000240: e0a3 663c 2f68 75be f65b a53e f62a 8fbe
00000250: 0463 8bbe 48f4 9ebd ed59 2cbe c9fe 993b
00000260: ac93 e6be 9dad 8ebe 8379 2fbd f123 17be
00000270: 471c 33bf 3f18 42bf 1928 fc3b 9805 89be
00000280: 6e89 803d 3dc7 d23c b494 a13e 11ab 553e
00000290: a60a f9be da3c 4a3d 78ed 59be e4d8 9abd
000002a0: 5e8a 03bf 93aa ccbd 23f4 153e 1a4d 2e3e
000002b0: 939e 01bf 41bd 763e bd6f 9ebe 8b16 7fbe
000002c0: a60f be3e ff42 c5be 1877 7bbe 204d 783d
000002d0: 291c 693e e1bb e1be 8c75 aebe 514e 60bd
000002e0: 0a2a 303e ad54 94be 42ee d1bf e2ec 9bbf
000002f0: db4f d93e aa22 21bd 15ee cdbd 44e8 623d
00000300: e6e1 ccbe 489c 6fbd 847a 91be 5a84 23be
00000310: 31b6 77be 809c ff3c 6717 63bd 5ea8 5b3e
00000320: 4f82 3dbd 2c7a bdbe acf6 0abe 9d39 58be
00000330: 80c8 b5be 1860 8fbe 953e 75be 479e 63be
00000340: 6830 1a3e 1a91 a23e b2c2 0cbe 407a bfbd
00000350: 79c0 95be feca 8e3e 0228 1ebe d26f 823d
00000360: 7c7b 92be a927 463c 3ef4 c1be d838 e5bd
00000370: 25ef 11be 49c6 0a3e 9349 a6be 70d6 4abf
00000380: 79ac 23bf ea30 18be a6d7 ecbc 172f 973d
00000390: 5324 02bf e81d a7be 8510 bebe 9092 3a3e
000003a0: a959 f8be 0127 6c3e b20e 1fbe b9e8 c3be
000003b0: 6792 c6be 9d2a 6a3e 932f 22bd 5b55 febd
000003c0: e0a4 9dbe c97b 5cbe 4033 5fbd a836 d23d
000003d0: 3891 513e a4e1 8fbe 14d7 3abf a355 cbbe
000003e0: decf 613e e931 6c3e 4028 04bf c1da 523d
000003f0: b96a 89be 7b16 81be 926b 83bd 139b 97bd

bias f4 [128]
-0.49137077 -0.03258082 -0.29870018 -0.36976108 0.10399813 -0.20936616 0.1174754 -0.29407457
-0.21946053 -0.40177843 0.106476486 -0.113247305 -0.08234379 -0.42690617 -0.24267797 -0.06312616
-0.052074008 0.020814452 -0.04173729 -0.0055607827 -0.10790919 -0.4142396 0.060704973 -0.47640494
-0.001555264 0.1505372 0.0067919525 -0.33040813 -0.55531585 -0.24616455 -0.39599943 -0.08625576
-0.36937732 -0.04137815 -0.31577724 -0.40336955 -0.08875531 0.06442661 -0.37580672 0.026762731
-0.11085528 0.07557951 0.05839883 0.17761941 -0.35282335 0.10094213 1.2920617 -0.0062336754
-0.05994462 -0.13061531 0.13021015 -0.22412214 0.045934588 0.008574533 0.22687036 0.26412243
-0.3153847 -0.3672944 -0.47769672 -0.09821369 -0.11820582 -0.51210093 -0.26649547 -0.3064611
-0.29098544 -0.37648696 0.009072926 -0.32841697 -0.08325076 -0.12719205 0.9388321 -0.3803625
0.18010274 -0.31946844 -0.070050865 -0.09074986 0.17277418 0.111719385 -0.018279374 -0.18393855
-0.22212288 -0.2705742 -0.037040576 0.17808238 0.16841099 -0.078823835 -0.2401242 -0.28716877
-0.046442434 -0.1663713 0.0059537874 -0.26091248 -0.38191825 -0.07854399 -0.2510863 -0.18288805
0.010618078 -0.2330718 -0.19958608 -0.22674105 0.16494685 -0.44029713 -0.03620696 -0.2129409
0.11349999 -0.030068386 -0.24222332 -0.49544486 -0.35825145 -0.014373351 -0.21310918 -0.3784713
0.015068423 0.16440108 0.37363034 0.012420595 -0.4442417 -0.38937363 0.15148908 -0.10431099
-0.030813416 -0.23169461 -0.005978991 -0.4048495 0.01707908 -0.13187382 -0.3495364 -0.49390176
00000000: f394 fbbe 7773 05bd 3bef 98be 5351 bdbe
00000010: f9fc d43d 1564 56be f196 f03d f190 96be
00000020: 43ba 60be e7b5 cdbe 5810 da3d 34ee e7bd
00000030: dca3 a8bd 7293 dabe 9380 78be 4a48 81bd
00000040: 8e4b 55bd 1283 aa3c b8f4 2abd 3a37 b6bb
00000050: 7eff dcbd 3617 d4be c7a5 783d 59eb f3be
00000060: 00da cbba 6c26 1a3e 078f de3b 412b a9be
00000070: 2e29 0ebf 8f12 7cbe 70c0 cabe dca6 b0bd
00000080: 061f bdbe 237c 29bd 8ead a1be 7486 cebe
00000090: 58c5 b5bd 19f2 833d bd69 c0be 843d db3c
000000a0: 1808 e3bd 6ec9 9a3d 9d33 6f3d dde1 353e
000000b0: 43a5 b4be bfba ce3d 4762 a53f dc43 ccbb
000000c0: 7d88 75bd 05c0 05be cf55 053e 4680 65be
000000d0: e825 3c3d 337c 0c3c b450 683e 0e3b 873e
000000e0: 1a7a a1be 030e bcbe aa94 f4be 4224 c9bd
000000f0: e515 f2bd 0c19 03bf 1872 88be 78e8 9cbe
00000100: 0bfc 94be e6c2 c0be 9ca6 143c 4526 a8be
00000110: 607f aabd a23e 02be 4d57 703f e0be c2be
00000120: da6c 383e 5e91 a3be d476 8fbd 10db b9bd
00000130: b7eb 303e 22cd e43d a0be 95bc 635a 3cbe
00000140: 2e74 63be b488 8abe dcb7 17bd 3a5b 363e
00000150: ee73 2c3e 646e a1bd 1ee3 75be c907 93be
00000160: 6c3a 3ebd 3d5d 2abe fd17 c33b 5296 85be
00000170: ca8a c3be acdb a0bd 628e 80be 0147 3bbe
00000180: 72f7 2d3c 60aa 6ebe 4b60 4cbe ce2e 68be
00000190: d4e7 283e a06e e1be c04d 14bd 2e0d 5abe
000001a0: af72 e83d fa51 f6bc 6409 78be f3aa fdbe
000001b0: bc6c b7be 347e 6bbc 4b39 5abe fdc6 c1be
000001c0: 8ce1 763c c258 283e 7a4c bf3e c07f 4b3c
000001d0: a673 e3be fb5b c7be f41f 1b3e 00a1 d5bd
000001e0: 6b6c fcbc 5a41 6dbe 69eb c3bb 6f48 cfbe
000001f0: 6de9 8b3c ee09 07be 6ff6 b2be b1e0 fcbe

weight f4 [256, 128]
-0.10644664 0.040944032 0.06260463 -0.061827622 -0.03183795 -0.11498208 0.028874403 -0.009529822
-0.06716347 0.06635264 -0.018269002 -0.08076755 0.06992051 0.023153275 -0.082409814 -0.07607676
-0.027376186 -0.025395006 -0.03188429 -0.09341155 0.047718115 -0.055662226 0.10716873 -0.034171
0.044840984 -0.054332968 -0.12237273 -0.017441073 -0.007708229 -0.020061783 -0.08160587 -0.1256427
0.020399682 0.0075408816 0.0170068 -0.057478838 -0.037967656 -0.04270889 0.063663684 -0.029454332
0.07564523 0.023115672 0.008453009 -0.031444225 -0.050932106 -0.07299798 -0.010777756 0.009319603
-0.04353077 -0.071683 -0.06529856 -0.041771457 -0.0212879 -0.10449178 -0.0439497 -0.03557803
0.025525106 -0.018565163 0.03432846 -0.0792264 0.028880509 -0.01671905 0.059476353 -0.07734455
-0.0847637 -0.020598173 0.017734762 0.014729099 -0.019100402 -0.0041791652 0.010210557 -0.017489359
-0.03372491 0.0691135 0.06415225 -0.026212996 -0.15520708 -0.054973744 -0.11407497 0.06198094
0.05942657 -0.025490705 -0.05219192 -0.07826982 -0.017324641 0.01856611 0.048866354 -0.07204917
-0.07204318 -0.009881079 -0.05019583 -0.027922276 -0.023740515 -0.085215785 -0.01680202 -0.038944393
-0.08708875 0.039346322 -0.0017900616 -0.1115101 0.009655904 -0.05864383 -0.07437225 0.04040972
-0.1109637 -0.1149098 -0.11287378 0.031134255 0.06540125 -0.09921714 -0.050487857 0.012139589
-0.17009886 -0.09029829 0.07084838 0.069333486 0.018486688 0.049028106 -0.07522105 0.07427793
0.014667591 0.015602626 -0.15137373 -0.033140626 0.026512647 0.048476778 -0.006007917 0.004848458
-0.23386998 -0.06943964 0.06169609 -0.035082743 0.029868238 -0.0014754948 0.10076782 0.009135075
0.045867227 0.066941224 -0.13680181 -0.37296525 -0.02416204 -0.1553862 0.11672435 -0.059990466
-0.14541183 -0.0062213093 0.05315941 0.11365384 -0.15821788 -0.0113368705 -0.015388687 -0.099159256
-0.020876914 -0.728681 0.003358234 -0.013470615 -0.045168314 0.03898754 -0.09440629 -0.19374785
0.063718654 0.06063106 0.047373988 0.027964137 -0.08495103 -0.14374474 -0.030601952 -0.097806886
-0.01858063 -0.21984702 -0.061611183 0.030068628 -0.0594638 0.06313619 -0.10105594 -0.46212435
-0.060424317 0.003297098 0.09144646 -0.15451975 0.07850729 -0.33139858 0.0037816167 -0.21716918
-0.23240194 -0.06562902 -0.36021933 -0.07325041 -0.2126952 -0.07738215 -0.07599491 0.0012607798
0.052848034 -0.030194804 -0.063457824 0.00466568 0.02913708 -0.25697872 -0.1202934 -0.03750237
-0.102528036 0.085637815 0.044969134 0.014744878 0.007876958 -0.032378893 -0.01094798 0.10180438
-0.033462953 -0.17197125 -0.03481122 -0.24606644 -0.2420407 -0.07061136 -0.045115367 0.01626978
0.08780325 -0.10963696 -0.085501045 -0.025665715 0.04249271 -0.045027573 -0.15683453 0.05846215
0.10318146 0.16780876 0.07127478 -0.15407355 0.059094805 -0.0844704 -0.047208663 -0.06974143
-0.6351362 0.008861716 -0.13895242 -0.21894245 0.022927962 -0.11520652 -0.10258449 0.04013722
-0.26907426 -0.035230618 0.04774157 0.07117506 -0.0804995 -0.0063252077 -0.12733084 -0.042730846
-0.043421637 0.0002104491 -0.015376568 -0.23161769 -0.055550344 0.021779448 -0.027720392 0.03257694
00000000: b200 dabd eeb4 273d db36 803d f63e 7dbd
00000010: 8368 02bd ba7b ebbd 038a ec3c f822 1cbc
00000020: 008d 89bd e5e3 873d e0a8 95bc 7569 a5bd
00000030: 7c32 8f3d f0ab bd3c 7ac6 a8bd 22ce 9bbd
00000040: 0644 e0bc 3009 d0bc 1a99 02bd 8e4e bfbd
00000050: 1274 433d 13fe 63bd 477b db3d e4f6 0bbd
00000060: 2eab 373d 3f8c 5ebd 8e9e fabd 95e0 8ebc
00000070: 5095 fcbb 9c58 a4bc fa20 a7bd 7ba8 00be
00000080: 3c1d a73c 8019 f73b d851 8b3c ee6e 6bbd
00000090: f983 1bbd 84ef 2ebd 1b62 823d 364a f1bc
000000a0: e3eb 9a3d 145d bd3c 7d7e 0a3c a9cb 00bd
000000b0: 2f9e 50bd f77f 95bd 2f95 30bc 40b1 183c
000000c0: 524d 32bd 89ce 92bd 40bb 85bd 8c18 2bbd
000000d0: f663 aebc c9ff d5bd 9a04 34bd 45ba 11bd
000000e0: 071a d13c f815 98bc 009c 0c3d 7341 a2bd
000000f0: d196 ec3c 64f6 88bc 7a9d 733d d266 9ebd
00000100: 9798 adbd 80bd a8bc 7e48 913c 5252 713c
00000110: 7278 9cbc 61f1 88bb 2e4a 273c d845 8fbc
00000120: 2223 0abd 618b 8d3d 4162 833d a3bc d6bc
00000130: 9bee 1ebe 262c 61bd 23a0 e9bd badf 7d3d
00000140: 4669 733d e2d1 d0bc 32c7 55bd ed4b a0bd
00000150: 68ec 8dbc f417 983c 1628 483d 848e 93bd
00000160: 608b 93bd 40e4 21bc 259a 4dbd 42bd e4bc
00000170: 787b c2bc 9d85 aebd 64a4 89bc 2884 1fbd
00000180: 965b b2bd 9c29 213d 80a0 eaba 685f e4bd
00000190: cc33 1e3c 8334 70bd 7a50 98bd aa84 253d
000001a0: f040 e3bd d455 ebbd 5e2a e7bd 440d ff3c
000001b0: 17f1 853d 5b32 cbbd 5bcc 4ebd 20e5 463c
000001c0: 652e 2ebe 4fee b8bd f518 913d b7fe 8d3d
000001d0: 6571 973c b2d1 483d 7e0d 9abd 071f 983d
000001e0: 5650 703c 28a2 7f3c b701 1bbe 77be 07bd
000001f0: 0d31 d93c 968f 463d 10de c4bb d0df 9e3b
00000200: 9d7b 6fbe 5f36 8ebd 0ab5 7c3d ecb2 0fbd
00000210: 3cae f43c 6465 c1ba 5c5f ce3d 48ab 153c
00000220: 46df 3b3d 7b18 893d c615 0cbe 4df5 bebe
00000230: 78ef c5bc 8f1d 1fbe 2d0d ef3d 90b8 75bd
00000240: d7e6 14be 20dc cbbb aebd 593d 58c3 e83d
00000250: de03 22be 48be 39bc d520 7cbc 0214 cbbd
00000260: 1006 abbc d78a 3abf d115 5c3b dbb3 5cbc
00000270: 6902 39bd 66b1 1f3d 1658 c1bd d665 46be
00000280: ed7e 823d 4658 783d 3a0b 423d 0c15 e53c
00000290: cefa adbd d231 13be f2b0 fabc fa4e c8bd
000002a0: 6836 98bc 941f 61be 025c 7cbd 7c52 f63c
000002b0: 5090 73bd 8c4d 813d 6bf6 cebd 909b ecbe
000002c0: 7d7f 77bd 2014 583b 4848 bb3d 6d3a 1ebe
000002d0: 6ec8 a03d 13ad a9be 00d5 773b 9961 5ebe
000002e0: c6fa 6dbe 8268 86bd ab6e b8be 5004 96bd
000002f0: c5cc 59be 887a 9ebd 38a3 9bbd c040 a53a
00000300: 2e77 583d 185b f7bc 2df6 81bd 90e2 983b
00000310: e3b0 ee3c b792 83be 635c f6bd 169c 19bd
00000320: 38fa d1bd e162 af3d 8e31 383d 8094 713c
00000330: 5b0e 013c bb9f 04bd 285f 33bc d17e d03d
00000340: 7310 09bd 3b19 30be 3696 0ebd d7f8 7bbe
00000350: 84d9 77be b09c 90bd e4ca 38bd 3448 853c
00000360: 31d2 b33d 5889 e0bd 2c1b afbd e840 d2bc
00000370: d60c 2e3d d56e 38bd 3b99 20be 0276 6f3d
00000380: cd50 d33d 0fd6 2b3e 83f8 913d 75c5 1dbe
00000390: 650d 723d d1fe acbd df5d 41bd 98d4 8ebd
000003a0: 4998 22bf bb30 113c 8b49 0ebe 7332 60be
000003b0: 6cd3 bb3c 65f1 ebbd d117 d2bd ed66 243d
000003c0: 1ac4 89be fb4d 10bd aa8c 433d 3bc4 913d
000003d0: ecdc a4bd b043 cfbb 0463 02be 8a06 2fbd
000003e0: e3da 31bd 00ac 5c39 00ee 7bbc 302d 6dbe
000003f0: c288 63bd d06a b23c e015 e3bc 666f 053d

bias f4 [256]
-0.16891842 -0.36279273 -0.32077336 -0.35351372 -0.20964319 -0.11050156 2.4785905 -0.26236597
2.049004 -0.28456345 2.0887043 -0.16000043 -0.1949804 -0.11299698 -0.25109994 -0.15415566
1.9154162 -0.18242486 -0.3174408 -0.15100361 0.9758749 -0.082452424 -0.03610901 1.4992965
-0.41642424 -0.22724085 -0.10517952 -0.1182203 1.5473579 2.1124983 -0.35600436 -0.2623741
-0.23244107 -0.0386217 0.6879579 -0.22017476 -0.081952244 -0.064910285 -0.3010658 -0.1638761
-0.1958572 -0.17158668 -0.27079862 1.9174374 -0.17547509 -0.3167255 -0.3252011 -0.7179789
0.96844393 -0.23278365 -0.15884599 -0.2394136 -0.2122196 -0.06584068 -0.3005345 -0.093344025
-0.1554288 -0.17852621 -0.2892553 -0.12022144 0.34654084 0.6840762 0.83114344 -0.34842157
-0.07396468 -0.1978872 -0.4153626 -0.18121421 -0.22132865 0.494648 -0.121607184 -0.258982
-0.13843429 -0.21616499 0.3300051 -0.26098862 -0.105126455 -0.26973101 -0.27786615 1.1677729
-0.4426684 -0.07934447 -0.12884188 -0.07874634 -0.3403336 -0.101427704 -0.03942014 -0.2470475
-0.22505274 1.0851352 -0.04486827 -0.06359562 -0.1120316 -0.20477973 -0.124758296 -0.1705294
0.59564155 -0.206603 -0.3881466 -0.100825965 -0.13998634 -0.255335 -0.090792134 -0.17891209
-0.21949789 -0.16717581 -0.16463359 -0.29411152 -0.634214 -0.24970336 -0.23457733 -0.24123612
-0.16062407 -0.32238513 -0.29338968 -0.3165894 -0.276605 1.2652197 -0.26782662 -0.12833537
-0.12053811 -0.49545568 -0.10648456 -0.38818678 -0.3730068 -0.19496855 -0.12077739 2.399039
-0.21393543 -0.12594682 -0.18381377 -0.20471969 -0.19919552 -0.09937954 -0.13373296 -0.055219866
-0.20968781 -0.35737425 -0.089083016 -0.15491094 1.0105753 -0.20922688 1.2295352 -0.14647695
-0.30362296 -0.19894831 -0.3297479 -0.15681887 -0.13327384 -0.1373886 -0.16408055 -0.7712595
-0.064221114 -0.35383457 -0.2514898 -0.14154129 -0.39437908 1.0918782 -0.19649225 -0.03849728
-0.22132708 -0.761701 -0.09519311 1.5826563 -0.1628643 -0.3212808 -0.173309 -0.2521528
-0.23540334 -0.23621358 -0.047988042 -0.19579701 -0.054549284 -0.095834896 -0.0695445 -0.52435726
1.5341412 0.9783015 -0.26776704 -0.23450394 -0.15745296 -0.3571996 -0.043919142 -0.06490043
-0.2121164 -0.17019728 -0.15138748 -0.11692896 1.6514354 -0.07876986 -0.10272514 -0.22100188
1.4053634 -0.13921979 -0.100181445 -0.18494 -0.29662824 1.8789293 -0.31048056 -0.16657431
-0.14216815 -0.46591997 -0.24618153 -0.27421194 0.33460912 -0.13228425 -0.06649693 -0.32032394
-0.08504867 -0.22681253 -0.20736824 -0.17046791 -0.19457676 -0.12426496 1.7444506 -0.20958716
-0.1926726 -0.18404989 -0.1305523 -0.25761783 -0.0031379908 -0.31395003 -0.30768022 -0.2147422
0.61098194 -0.10649929 -0.19685847 -0.11225779 -0.1975021 1.8300946 -0.04457945 -0.18461634
-0.2642726 -0.2967635 -0.13303061 -0.19757031 -0.21799026 1.5525417 -0.10408877 -0.21783893
-0.26609635 -0.20810965 1.8690547 1.9292976 -0.24740514 -0.14886205 -0.17480236 -0.28806064
-0.31239033 -0.18754323 -0.16324025 1.7088536 -0.12843588 -0.0581903 1.3628503 -0.14899608
00000000: f3f8 2cbe f8bf b9be 683c a4be c0ff b4be
00000010: b4ac 56be a44e e2bd 3aa1 1e40 d554 86be
00000020: e222 0340 4db2 91be 55ad 0540 27d7 23be
00000030: f1a8 47be f66a e7bd 2c90 80be fbda 1dbe
00000040: 5c2c f53f 95cd 3abe 9a87 a2be b1a0 1abe
00000050: f0d2 793f d1dc a8bd 0be7 13bd f3e8 bf3f
00000060: 8f35 d5be d3b1 68be 5c68 d7bd 7c1d f2bd
00000070: d30f c63f 2c33 0740 3446 b6be e655 86be
00000080: 0805 6ebe ca31 1ebd 021e 303f 7e75 61be
00000090: 94d6 a7bd afef 84bd 4c25 9abe 23cf 27be
000000a0: ca8e 48be 6bb4 2fbe 1ea6 8abe 976e f53f
000000b0: beaf 33be d829 a2be c280 a6be 77cd 37bf
000000c0: f1eb 773f d65e 6ebe 86a8 22be d728 75be
000000d0: 1850 59be 7ad7 86bd a8df 99be 272b bfbd
000000e0: ba28 1fbe 93cf 36be 4519 94be a936 f6bd
000000f0: cd6d b13e 9e1f 2f3f d1c5 543f 5064 b2be
00000100: cb7a 97bd f1a2 4abe 68aa d4be 3890 39be
00000110: faa3 62be 8142 fd3e 300d f9bd 4a99 84be
00000120: b8c1 0dbe 5b5a 5dbe 6ef6 a83e 4da0 85be
00000130: 8a4c d7bd 2f1a 8abe 7944 8ebe 9579 953f
00000140: 6fa5 e2be 5a7f a2bd 20ef 03be c345 a1bd
00000150: 3540 aebe 54b9 cfbd 0377 21bd 05fa 7cbe
00000160: 3a74 66be b6e5 8a3f cbc7 37bd 6c3e 82bd
00000170: d370 e5bd c7b1 51be 4781 ffbd 429f 2ebe
00000180: f77b 183f bd8f 53be 27bb c6be d87d cebd
00000190: 9458 0fbe 45bb 82be 3af1 b9bd bb34 37be
000001a0: 0ec4 60be 2330 2bbe b595 28be c995 96be
000001b0: d95b 22bf 3db2 7fbe 0a35 70be 9a06 77be
000001c0: a37a 24be aa0f a5be 2c37 96be 0118 a2be
000001d0: 2c9f 8dbe b8f2 a13f 9220 89be 596a 03be
000001e0: afdc f6bd 5eac fdbe 9414 dabd 6bc0 c6be
000001f0: bffa bebe d6a5 47be 235a f7bd db89 1940
00000200: e411 5bbe 34f8 00be ad39 3cbe 0aa2 51be
00000210: e9f9 4bbe 8087 cbbd 4bf1 08be 3a2e 62bd
00000220: 67b8 56be c2f9 b6be 2871 b6bd f9a0 1ebe
00000230: 885a 813f 923f 56be 6961 9d3f 0efe 15be
00000240: 7874 9bbe 1bb9 4bbe b7d4 a8be 2095 20be
00000250: f078 08be 99af 0cbe bb04 28be 4371 45bf
00000260: 5c86 83bd ce29 b5be 45c3 80be 33f0 10be
00000270: 0eec c9be aac2 8b3f 4435 49be 53af 1dbd
00000280: 91a3 62be d6fe 42bf 9bf4 c2bd 7b94 ca3f
00000290: e6c5 26be eb7e a4be ea77 31be 2c1a 81be
000002a0: 930d 71be f9e1 71be 1c8f 44bd 037f 48be
000002b0: 126f 5fbd 1645 c4bd 596d 8ebd 473c 06bf
000002c0: bd5e c43f f871 7a3f c318 89be cd21 70be
000002d0: 593b 21be dee2 b6be 8fe4 33bd 84ea 84bd
000002e0: 0b35 59be 3248 2ebe 5205 1bbe 7378 efbd
000002f0: 3c62 d33f 1852 a1bd 8f61 d2bd 514e 62be
00000300: f3e2 b33f a28f 0ebe ee2b cdbd e960 3dbe
00000310: a8df 97be c180 f03f 4ff7 9ebe 7592 2abe
00000320: 8794 11be 108d eebe 0317 7cbe 8265 8cbe
00000330: e351 ab3e 8675 07be 8b2f 88bd 8001 a4be
00000340: ff2d aebd 8b41 68be 5758 54be 248f 2ebe
00000350: 213f 47be a17e febd 284a df3f 049e 56be
00000360: f74b 45be 9377 3cbe 81af 05be 7ce6 83be
00000370: c0a6 4dbb 0fbe a0be 4388 9dbe 61e5 5bbe
00000380: 5069 1c3f 4d1c dabd 4495 49be 6ae7 e5bd
00000390: fe3d 4abe 8a40 ea3f f198 36bd 110c 3dbe
000003a0: bd4e 87be 63f1 97be 2d39 08be df4f 4abe
000003b0: d738 5fbe b0b9 c63f 7e2c d5bd 2b11 5fbe
000003c0: c83d 88be b21a 55be 2f3d ef3f 39f3 f63f
000003d0: c657 7dbe 4b6f 18be 64ff 32be af7c 93be
000003e0: a0f1 9fbe 550b 40be 7428 27be b7bb da3f
000003f0: b284 03be f458 6ebd e171 ae3f 6e92 18be

weight f4 [5, 256]
-0.049285196 -0.14720705 0.23921865 0.036396366 0.16373046 0.5558398 3.0540214 0.10652398
-2.229629 -0.24950229 -0.94529 0.05226347 0.22009405 0.13319783 0.28626275 0.1601033
1.9586406 -0.13603134 -0.01783463 -0.138809 -0.83187 -0.015712785 0.86264545 -0.47062075
-0.08833293 -0.09725535 -0.3058227 0.061992157 -1.1621337 -2.3559866 0.2026395 -0.22717421
0.11673995 0.1655996 -0.730509 0.15305871 0.16242498 0.10855813 0.030078305 -0.05625681
0.051310778 0.2676886 0.18868788 -0.3790897 0.05966477 -0.2210463 -0.5371801 0.24381039
1.3480912 -0.12015732 0.24402638 -0.16345035 -0.03353397 0.035974354 -0.055787355 -0.04153881
0.19323818 0.011443495 -0.27280447 -0.045999862 0.7064276 -1.0927107 -1.524668 -0.17954686
-0.047589764 0.07294374 0.386593 0.12991731 0.0058313394 0.78515166 0.104789615 0.15561272
-0.15217718 0.023145936 -0.23117329 -0.11773354 -0.003273589 -0.19385311 0.07273329 -0.91728795
-0.18178912 0.012607814 -0.009284374 0.33030605 -0.01836683 -0.09852719 0.024938304 0.019396715
0.19516636 -0.7951278 0.073716596 0.013234999 0.016345456 0.09372946 -0.07657051 -0.16075647
-0.89346784 -0.15760049 0.16294129 -0.10486977 -0.05959547 -0.056926593 -0.008487782 -0.29408714
0.22030336 -0.029688656 0.042205594 0.12525463 0.31230187 0.2530184 -0.15972489 -0.102541834
-0.18171339 -0.018336993 -0.021873707 -0.20608358 -0.20502572 -0.92975795 -0.025957847 0.029630652
0.0823781 0.09797819 -0.0025966987 0.02732644 -0.018896557 0.26238713 0.04272766 -1.2973707
-0.020881781 0.04826265 0.09273315 0.079207726 0.2929775 0.018608607 -0.04981552 0.013740513
0.18801337 0.1681042 -0.01193605 0.118920684 1.2342108 0.024028584 -0.8727549 0.09933085
0.09368223 -0.20054689 0.23007718 -0.03641523 -0.097144626 -0.108616725 0.22743009 0.31487143
0.4201257 0.056357387 0.16871679 0.18628809 0.097575955 1.1843296 0.17847356 0.07528622
0.10704483 -0.47917086 -0.0022216372 2.0288665 -0.12779005 0.164202 -0.007379204 -0.17129065
0.1858528 0.25717878 0.7161548 0.20027167 0.10290933 0.066579565 -0.14211611 0.20687783
-1.074604 1.2160743 0.059383452 -0.17688341 0.09010733 0.019280119 0.0029528216 0.009718666
-0.118158855 0.005679764 0.026493443 -0.22357488 -1.5022033 0.0003416748 -0.0553303 -0.12719963
1.5335017 0.003452938 0.001439508 -0.04767526 0.10987145 -1.7183063 -0.109992586 -0.12425919
0.017418649 0.17771083 0.1382473 -0.12288968 0.8123216 0.16184354 0.14285176 -0.0059286575
0.04162807 0.14449477 -0.26555786 -0.03021957 -0.13957873 -0.005688043 -1.6125344 0.22096097
-0.14475946 0.12817696 0.09572982 0.31529644 0.3081965 0.054062072 0.07160765 0.09566798
-0.54241055 -0.08986647 0.20512216 -0.042337533 -0.04740438 -0.76824373 0.028469253 0.02166336
-0.21743016 0.30201676 0.109094314 -0.035913378 0.11287254 -0.3677337 -0.019488232 -0.04638555
0.29501975 -0.032153443 -1.6292185 -0.88377726 -0.06759692 0.1202018 0.033385478 0.002502486
-0.04699914 -0.10204827 -0.045148097 -1.6343497 -0.15088959 0.028330564 -0.24628945 -0.0036742026
00000000: 46df 49bd 72bd 16be bcf5 743e 5b14 153d
00000010: f5a8 273e 844b 0e3f 1675 4340 3f29 da3d
00000020: 3eb2 0ec0 877d 7fbe 87fe 71bf 3812 563d
00000030: 5660 613e 0365 083e 0891 923e 1ff2 233e
00000040: bcb4 fa3f cd4b 0bbe ee19 92bc f223 0ebe
00000050: 6ff5 54bf 19b8 80bc 55d6 5c3f 34f5 f0be
00000060: e5e7 b4bd d02d c7bd cb94 9cbe 7deb 7d3d
00000070: ccc0 94bf 7cc8 16c0 bb80 4f3e 5ba0 68be
00000080: 5b15 ef3d f192 293e a302 3bbf 6cbb 1c3e
00000090: bc52 263e ba53 de3d c766 f63c 8a6d 66bd
000000a0: 402b 523d 7b0e 893e 6537 413e 0c18 c2be
000000b0: 0c63 743d f659 62be a384 09bf 6ea9 793e
000000c0: 418e ac3f 0a15 f6bd 0de2 793e 875f 27be
000000d0: eb5a 09bd d859 133d 4881 64bd 9924 2abd
000000e0: 3be0 453e 7f7d 3b3c 07ad 8bbe 5a6a 3cbd
000000f0: 70d8 343f f2dd 8bbf 5228 c3bf 22db 37be
00000100: 7ced 42bd 8763 953d 85ef c53e 0b09 053e
00000110: d214 bf3b b3ff 483f f09b d63d f158 1f3e
00000120: 56d4 1bbe 8c9c bd3c b1b8 6cbe 481e f1bd
00000130: b689 56bb 6e81 46be 31f5 943d 62d3 6abf
00000140: ed26 3abe 0191 4e3c 7d1d 18bc e01d a93e
00000150: 0976 96bc a0c8 c9bd 6a4b cc3c dce5 9e3c
00000160: b1d9 473e 7f8d 4bbf baf8 963d 9cd7 583c
00000170: e8e6 853c 3bf5 bf3d 00d1 9cbd 589d 24be
00000180: 4fba 64bf 0662 21be 15da 263e f6c5 d6bd
00000190: 611a 74bd dc2b 69bd 5710 0bbc 9792 96be
000001a0: 3497 613e a035 f3bc c6df 2c3d c042 003e
000001b0: 08e6 9f3e a18b 813e ec8e 23be 7401 d2bd
000001c0: 1313 3abe 7637 96bc 7d30 b3bc 9307 53be
000001d0: 43f2 51be 9e04 6ebf 8da5 d4bc fbbb f23c
000001e0: d9b5 a83d caa8 c83d 602d 2abb b3db df3c
000001f0: f4cc 9abc 9b57 863e 3303 2f3d 3e10 a6bf
00000200: 4510 abbc 0eaf 453d e1ea bd3d a937 a23d
00000210: 2601 963e 1471 983c 5c0b 4cbd e31f 613c
00000220: 9486 403e 8223 2c3e 6c8f 43bc b08c f33d
00000230: 9ffa 9d3f 98d7 c43c dd6c 5fbf f96d cb3d
00000240: 78dc bf3d 2a5c 4dbe 5a99 6b3e 2328 15bd
00000250: c3f3 c6bd 7272 debd 6fe3 683e d436 a13e
00000260: b71a d73e 01d7 663d 18c4 2c3e 4ec2 3e3e
00000270: e7d5 c73d 1d98 973f c6c1 363e a92f 9a3d
00000280: 523a db3d e255 f5be e398 11bb f3d8 0140
00000290: 65db 02be 9224 283e 40cd f1bb d166 2fbe
000002a0: 3250 3e3e f0ac 833e ec55 373f 0414 4d3e
000002b0: 20c2 d23d de5a 883d e386 11be c8d7 533e
000002c0: a08c 89bf 53a8 9b3f 103c 733d ed20 35be
000002d0: 318a b83d 57f1 9d3c 2084 413b 0a3b 1f3c
000002e0: 45fd f1bd 501d ba3b c708 d93c d0f0 64be
000002f0: 3348 c0bf d122 b339 06a2 62bd 9f40 02be
00000300: c949 c43f b04a 623b e0ad bc3a 2247 43bd
00000310: 4804 e13d 76f1 dbbf cb43 e1bd 9a7b febd
00000320: 8eb1 8e3c d4f9 353e b390 0d3e 96ad fbbd
00000330: 4ff4 4f3f 50ba 253e bb47 123e 2f45 c2bb
00000340: 3282 2a3d 70f6 133e 33f7 87be 088f f7bc
00000350: baed 0ebe c362 babb 8767 cebf 9843 623e
00000360: d33b 14be d240 033e ff0d c43d 896e a13e
00000370: efcb 9d3e 3170 5d3d 08a7 923d 93ed c33d
00000380: 6bdb 0abf e90b b8bd 8b0b 523e 1f6a 2dbd
00000390: 182b 42bd 9fab 44bf 5a38 e93c 5c77 b13c
000003a0: 03a6 5ebe f1a1 9a3e d76c df3d e819 13bd
000003b0: b829 e73d 9747 bcbe c9a5 9fbc c6fe 3dbd
000003c0: d40c 973e 54b3 03bd 3b8a d0bf 3a3f 62bf
000003d0: 4170 8abd 5c2c f63d 36bf 083d c000 243b
000003e0: 2c82 40bd affe d0bd 36ed 38bd 5f32 d1bf
000003f0: cd82 1abe 8015 e83c 4d33 7cbe e4ca 70bb

bias f4 [5]
-1.7297632 -0.047593735 3.0636797 0.12085823 0.024406508
00000000: e168 ddbf a6f1 42bd 5413 4440 8584 f73d
00000010: 28f0 c73c
