model/model_entire.pth (torch, 11581 bytes, 4 tensors)

weight f4 [256, 3]
00000000: 05f5 813e 03cb f93b a737 1c3f 1271 34be
00000010: 1c33 7b3e 6cab 773e 7cc9 d33d a460 3cbf
00000020: 6005 f0be f1e5 44bf 2b3c a5bd 7995 aabc
00000030: 23bc 3d3f 3bf6 8e3e c90f 193f 4cfe 5f3e
00000040: 7d9f 8d3f 83f4 593d 2677 23bf a0d6 8abe
00000050: a379 90be ea57 b4be c43c f1be 355e f53e
00000060: 0836 903e d6ff d73e d8fa c83d e81c 623b
00000070: de63 a5be 4b6c 27bf 689f bd3d 88ef 913e
00000080: 0ab5 943e 2c08 cc3e fa94 d1be 5721 01bf
00000090: d882 693a c5ef 24bf 8f90 e8be 27ec babe
000000a0: 1b10 0fbf fe05 7bbe 118c 3a3f 04f6 853d
000000b0: cc86 ae3e b07f ba3e e8ea a63d 007c dbbc
000000c0: 00a8 2bba d74a a7be 3e81 39be 9de1 98bd
000000d0: adec 35bf db18 423e 083c 083e 8cca 0a3f
000000e0: 58ab cb3e fa24 e1be f57e 583e 1f61 ef3e
000000f0: 2a35 05bf dab0 06be 9e71 0abf 1b6b 50bf
00000100: a5ee f5bc 77ad edbe 3599 da3d 3494 213f
00000110: 0b8a bd3e 14a9 0e3f cfa9 0f3f a303 9a3d
00000120: a841 0dbf ae4c 1abf a1b1 c83c ea2a 2e3f
00000130: c350 533e badc 833f a16f 58bf 5487 2ebd
00000140: c034 d5be 1b53 f4be 4cdf acbe b0e6 8cbd
00000150: 002a f63e ace5 b73e 64c3 153e 0a95 a43e
00000160: 6344 1a3f 2922 2ebd 8614 51bf baf1 e8bd
00000170: b18e bbbe 9c35 6bbe e454 b7be e83a 79be
00000180: 60d7 e7bc a68b e6be 689f e7be 7e42 123f
00000190: a8d8 c23d 38da a23d b84b 133e 70d2 0e3e
000001a0: f0db 523e 7d12 143e 0571 e03e 8af2 053d
000001b0: 36e4 4f3f 6983 663e b2bc 093f 9600 d3be
000001c0: 9353 223b df60 72bf 615d 583f f237 6e3e
000001d0: 1232 1a3f d75c 423e 0d27 48bf 10c0 c3be
000001e0: 9655 d3be a174 99bd 5c1d 12bf 00c7 643c
000001f0: d47c e43e 88d8 673e fe0a 123f d690 933e
00000200: f085 a3bd 1a36 b73e 72b3 613e c517 963e
00000210: 9028 0a3f 0271 0f3f 7484 e33e e6f7 fa3e
00000220: 46b9 b2be 2a06 193f d3d3 ae3d f091 663e
00000230: 73c5 7e3e 0077 933c 6091 bf3e a8f7 023f
00000240: 709e a3bd 98c4 713e 9013 a63e 8056 b53b
00000250: 287f 843e 16fe 103f 1e78 bbbd b1bf 343e
00000260: 589c 323f 65e9 3a3f 8362 283f 8445 e8bd
00000270: 6914 3ebf 2167 02bf 3c0e 02be 944f 9d3d
00000280: 8fe1 0d3f e502 973d e63f f7bd 7274 d83e
00000290: aab4 993e cad4 0c3f b8fd dc3e c013 a33d
000002a0: a07f 06bf 9899 18be c0c6 15be 2a72 f0be
000002b0: f6d4 8dbd 587a 48be 966f a1bd 6c3d 523f
000002c0: 2b63 be3e d9be 81be dbe4 0abe 3bd5 3dbf
000002d0: dd1e 4cbf d896 9dbd 278a 15be 0994 98be
000002e0: 5a2d a9be aee8 fcbe 5ccb d43e 3439 a43e
000002f0: ed56 983d 245d 0b3f 4e01 0c3f 7010 c33d
00000300: 29fc 153f aab8 fd3e b8c1 873d 4209 67be
00000310: f673 4bbe 363c 6cbe d175 80bd 985c f3be
00000320: 0830 6fbe 2256 3ebf 9f21 6bbd 76c4 60bf
00000330: 0054 a9be 2657 90be 805b 9fbb fc20 ab3d
00000340: 608b 3b3d fad7 e03e 89c1 f4bd dfad 6a3c
00000350: c5d7 103f 37fc 413e 735c d4be a4ff 9abe
00000360: 5a8d 0d3e 5c6e 013f 636d 1c3e 3ec6 0a3c
00000370: e545 dcbe 5da4 59bd d0a0 35be 12fc 63be
00000380: 0e1b 8cbe 1cae f23e 4086 eb3e 7a2e 0d3f
00000390: 45fc 34bf f090 d4be a44d 51be 2a6a 333f
000003a0: 18f0 113e 8d3f 123f 223c 953d b1e0 fa3e
000003b0: 8d03 213f 53f0 7abf e7d7 54be 8057 93bf
000003c0: 8065 a3bc 60d3 033e 166c 873e 240e c6be
000003d0: 98a5 c3be 90bf c9be 481d fc3e 06bd c63e
000003e0: 8a97 0c3f 0046 51bf 4aae 2bbe e109 8ebf
000003f0: ebc1 963d d8c1 cf3d 090e 763f 85cf f7be
0.25382248 0.007623078 0.6102242 -0.17621258 0.24531215 0.24186486 0.103411645 -0.7358496
-0.468791 -0.7691336 -0.08068117 -0.020823227 0.741152 0.27922234 0.5978971 0.2187435
1.1064297 0.0532117 -0.6385368 -0.2711687 -0.282178 -0.35223323 -0.47116673 0.47923437
0.28166223 0.42187375 0.0981347 0.0034502093 -0.32302755 -0.65399617 0.0925892 0.2850306
0.29044372 0.39849985 -0.40933973 -0.504415 0.0008907742 -0.6442836 -0.4542279 -0.36508295
-0.5588395 -0.24514005 0.72869974 0.065410644 0.34087217 0.36425543 0.081502736 -0.026792526
-0.0006548166 -0.32674286 -0.18115708 -0.07464907 -0.71064264 0.18954794 0.1330415 0.5421531
0.39779162 -0.43973523 0.2114218 0.46753785 -0.52034247 -0.13153401 -0.54079616 -0.8141343
-0.030021021 -0.46421406 0.10673753 0.63116765 0.3701938 0.5572674 0.5611848 0.07520225
-0.5517831 -0.60273254 0.024498763 0.6803423 0.20636277 1.0301735 -0.8454533 -0.042609528
-0.41641808 -0.47719654 -0.33764112 -0.06879938 0.48078918 0.35917413 0.14625317 0.32144958
0.602606 -0.042513046 -0.8167194 -0.11374231 -0.36632302 -0.22969669 -0.35806954 -0.24338877
-0.028300941 -0.45028418 -0.45238805 0.5713271 0.0951398 0.07951778 0.14384353 0.13947463
0.20591712 0.14460178 0.43836227 0.032702006 0.812076 0.22511066 0.5380355 -0.41211385
0.0024769052 -0.94679064 0.84517485 0.23263529 0.6023265 0.18980728 -0.78184587 -0.3823247
-0.41276234 -0.07492948 -0.5707605 0.013963461 0.44626486 0.22641194 0.5704802 0.2882144
-0.07984531 0.35783464 0.22041109 0.2931501 0.53968143 0.5603181 0.4443699 0.49017256
-0.34906977 0.5977503 0.08536496 0.22516608 0.24880008 0.01800108 0.374156 0.51159143
-0.07989204 0.23610151 0.324368 0.0055339932 0.25878263 0.56637704 -0.0915377 0.1765125
0.6976981 0.7301238 0.65775317 -0.11341384 -0.74249893 -0.5093861 -0.12700742 0.07681194
0.554223 0.07373599 -0.120727345 0.4227634 0.30020648 0.5501219 0.43162322 0.079627514
-0.5253849 -0.14902341 -0.14626598 -0.469621 -0.06925385 -0.1957792 -0.078826115 0.8212497
0.37185034 -0.25340918 -0.13563864 -0.7415349 -0.79734594 -0.07694787 -0.14603482 -0.29800442
-0.33042413 -0.4939627 0.415614 0.32074893 0.07438455 0.54438996 0.5468949 0.095246196
0.5858789 0.4955495 0.06628746 -0.22562125 -0.19868454 -0.23069844 -0.06272472 -0.4753158
-0.23358166 -0.7435018 -0.05740511 -0.87799776 -0.330719 -0.2819149 -0.0048632026 0.08355901
0.045787215 0.43914777 -0.119509764 0.014323681 0.5657924 0.18943869 -0.41476783 -0.30273163
0.13823453 0.5055902 0.15276103 0.008470116 -0.43022075 -0.053135265 -0.17737126 -0.22264126
-0.2736439 0.4739846 0.46000862 0.5514904 -0.7069743 -0.4151683 -0.20439774 0.7008387
0.14251745 0.5712822 0.0728686 0.4899955 0.62896043 -0.98022956 -0.20785485 -1.1511078
-0.01994586 0.12873602 0.2644965 -0.38682663 -0.38212276 -0.39403963 0.4924109 0.38816088
0.5491873 -0.81747437 -0.16765705 -1.1096765 0.07361206 0.10144395 0.96115166 -0.48400512

bias f4 [256]
00000000: 305b 7a3e 6082 b7be 01d0 1cbf 5515 47bf
00000010: 22a6 a23e b093 39be 3ebe c53b 8fdd 8f3e
00000020: 1c46 433e c8f7 a0be 083f f33e 8893 33be
00000030: 5315 053f dc4b e93e faf5 bb3e 00bb 86bb
00000040: 61c6 d1be c5b8 77be a05a 80bc 5e2a 603e
00000050: 363a 03bf d66e 2b3e dfa1 573f b11e 5f3e
00000060: 1964 203d 7c6a 12bc c2e5 84be 78ec 0cbf
00000070: 406e cb3e c55f e2be 6f2b cdbe 009c a2bc
00000080: 0be7 0ebf ffec b4be 8816 c23e 2c43 3b3f
00000090: 891c 8d3d 8492 4ebf ec01 173f e6d9 ffbe
000000a0: 1ab9 f9be ccef 5e3e 284e 5cbe ab92 1dbc
000000b0: b8a7 4d3e aa77 42be ee84 f3be d002 d93d
000000c0: c004 28bd 9cac f43e dc38 153f 82d0 96be
000000d0: 18d9 04be 5025 f2bd 76b1 393e c300 d0be
000000e0: b485 44be ac9c fd3e ccea fe3e b6f2 5b3e
000000f0: 86c4 be3e d6d5 80be fd7d f2be d6d3 023f
00000100: 3659 7bbe 8427 ee3e 2f45 6d3e 30c3 27bf
00000110: 3cdf 96be caa7 443e d42e e33e aa7c 10bf
00000120: d294 fd3e 0a17 163d e47c 043f 5ad6 0ebe
00000130: 0c5c 17be 9dce a23d cb32 3a3f 7339 45bf
00000140: cd3f a7be 5ac8 0c3f 4d46 a1be 4d9b aabe
00000150: eb2f 973e 054d dbbd f410 5fbf 7deb 56bd
00000160: fc07 d43e 3cac f93e 134b 873e 8ac8 d63e
00000170: 5e06 843e 2384 01bf 6596 12be ce2c da3e
00000180: 2b30 06bf 74ed e8bd a611 3cbf 1ed0 1abe
00000190: 0689 1c3d 58d2 c03e ce06 193f 96be acbe
000001a0: 5305 e33e 306a 22be 7af3 e63d 1977 ccbe
000001b0: 6e5c 373f 0452 2d3e 7b38 c9be f301 ab3e
000001c0: c756 d0bb 4c57 7dbf 3989 69bf 964c 193f
000001d0: e690 e2be 1050 c33e e61a 4abe c255 52be
000001e0: 8009 e9bd 7383 acbe 6029 89bc d888 5b3f
000001f0: a425 eabe 6115 d6be 96d6 af3e bc60 c8be
00000200: ded7 2fbf 887d 4bbd 0147 343e b9b9 88be
00000210: d460 c2be 56c2 77be 3e5f c2bc 1077 d9be
00000220: 50d2 ae3e e927 a43d 2aa1 8c3e 20b1 93bd
00000230: 4044 dcbe c9c3 f43e 9a33 40be 717b 0bbf
00000240: ddfe 03bf f36e a6be 8289 173f 6979 563f
00000250: 346d 53bf 5c5b be3e 4471 503e 904c 6abf
00000260: 04bf c9be a815 813e d1c5 56bf d422 0bbe
00000270: a516 8ebe 22f3 84bf ac99 303f acdc 8f3d
00000280: df50 103f 6861 bbbe 0c58 f3be 3c61 24be
00000290: de57 16be 55be 68be a564 bbbe fa83 d7be
000002a0: 50b3 15bd 2f7a c23e a6b6 aebd 5021 29bd
000002b0: 3af2 9dbe 6424 003e 41bc 8dbe 5646 1a3f
000002c0: 68d0 ddbe d67b 2cbe 63d6 35bf cb26 2abe
000002d0: 9800 d63d 1a7c 38bd 4286 b73e c7d3 0d3f
000002e0: ed1e ebbe 6757 da3e 1d79 96be e0ed 0b3f
000002f0: cc1b b3be ee8a cd3e 0006 df3e f006 9dbd
00000300: 681e 9fbe dcb6 243e 9bd7 87bf c0f9 84be
00000310: ed53 513e 1939 afbe c2b6 3cbf 4604 10be
00000320: a492 2c3e 0ae2 c03e ef0a dfbe 8a6d 053f
00000330: 96b9 19bf 9ba3 893e 5598 b4be 1f25 44be
00000340: df1e 0abf 548b ec3e a000 66bd 0784 d1bd
00000350: 726c b4bc b831 debe 31a7 8abe 8a65 c7be
00000360: 1900 e53e 54ff e8be 90f5 0fbf 55f8 ac3e
00000370: e308 893e 2891 843e 188d 1e3e 002f eabb
00000380: b457 8fbd 9001 ffbd 90b6 533e 3cf1 453e
00000390: 87de 833e ed8f 0ebf 16a3 b13e a68e 33bf
000003a0: 44c4 6e3e 4114 a5be 82eb 55bd 287b 82bd
000003b0: 93a4 10bf 2dbb c23e 4980 f2be 54a8 9dbe
000003c0: 2535 b13d e613 51be 7b81 0f3f 5121 84bd
000003d0: 24d9 493e 3024 523e e0a8 ab3c 4cda 8dbe
000003e0: 7266 23bf d8a2 46be 7b77 3f3e 9422 f9bd
000003f0: 806d a93d b569 9cbc cdf6 d33c d95f 25bd
0.24448848 -0.35841656 -0.6125489 -0.77766925 0.31767374 -0.18122745 0.0060346415 0.28098723
0.19069713 -0.31439042 0.47509027 -0.17536747 0.51985663 0.4556569 0.36711103 -0.0041116476
-0.40971664 -0.24191578 -0.015668213 0.21891162 -0.512607 0.167415 0.8423137 0.21789052
0.03915796 -0.008936521 -0.2595654 -0.5504832 0.39732552 -0.4421369 -0.400722 -0.019849777
-0.55821294 -0.35337064 0.37907815 0.7314937 0.06890208 -0.80692315 0.5898731 -0.4997093
-0.48774034 0.21771163 -0.21514189 -0.009617488 0.20083511 -0.1899096 -0.47562355 0.105962396
-0.041020155 0.4778794 0.58289886 -0.29455954 -0.1297344 -0.11823523 0.18134102 -0.4062558
-0.19191629 0.49533594 0.4978851 0.21479306 0.3725931 -0.25163144 -0.47361746 0.51104486
-0.2454575 0.46514523 0.23170923 -0.6553221 -0.2946719 0.19204631 0.44371665 -0.5644022
0.49527603 0.036643066 0.5175307 -0.13948956 -0.14781207 0.079495646 0.72733754 -0.77040786
-0.32665864 0.5499321 -0.31498948 -0.3332161 0.29528746 -0.1070805 -0.87135243 -0.052470673
0.41412342 0.48764217 0.26424465 0.41949874 0.25786108 -0.5059225 -0.14315183 0.42612308
-0.5241725 -0.113734156 -0.7346443 -0.15118453 0.038216613 0.3766048 0.5977601 -0.33739156
0.4434 -0.1586082 0.11276908 -0.39934614 0.7162541 0.16925818 -0.39300904 0.33399925
-0.006358001 -0.9896133 -0.9122501 0.59882486 -0.44251174 0.3814702 -0.19736823 -0.20540527
-0.11378765 -0.33694038 -0.016743362 0.8575568 -0.45731843 -0.41813186 0.34343404 -0.39136302
-0.6868876 -0.049680263 0.17605211 -0.26704195 -0.379645 -0.24195227 -0.023727056 -0.4247365
0.3414483 0.08015425 0.27466708 -0.07211518 -0.4302082 0.47805622 -0.18769684 -0.5448523
-0.51560766 -0.32506523 0.59194195 0.8377901 -0.82588506 0.37179077 0.20355707 -0.91523075
-0.39403546 0.25211835 -0.83895594 -0.13587505 -0.2775165 -1.0386698 0.68984485 0.07024512
0.563734 -0.36597753 -0.47528112 -0.16052717 -0.14681956 -0.22728856 -0.36600223 -0.42092878
-0.03654796 0.37983844 -0.08530931 -0.041291535 -0.30848867 0.12513882 -0.2768269 0.60263574
-0.43323064 -0.16844115 -0.71030253 -0.16616361 0.10449332 -0.045040227 0.35844618 0.5540127
-0.45922032 0.42644808 -0.29389277 0.54659843 -0.34982145 0.40145057 0.43559265 -0.07667339
-0.31077886 0.1608538 -1.0612673 -0.25971794 0.20442171 -0.3422325 -0.73716366 -0.1406413
0.16852814 0.37672454 -0.4356303 0.5212027 -0.60048807 0.26882634 -0.3527247 -0.19154786
-0.53953356 0.4620005 -0.05615294 -0.1023026 -0.022024367 -0.43397307 -0.27080682 -0.38944656
0.44726637 -0.455073 -0.56234074 0.33783212 0.26764593 0.25891995 0.1548351 -0.007146716
-0.0699915 -0.1245147 0.20675111 0.19330305 0.25755712 -0.55688363 0.34694737 -0.7013954
0.23317057 -0.32242015 -0.05222655 -0.063711464 -0.5650112 0.3803343 -0.473635 -0.30792487
0.08652715 -0.20417747 0.56056947 -0.06451667 0.19711739 0.20521617 0.02095455 -0.2770561
-0.63828194 -0.19398057 0.18697922 -0.121647984 0.082728386 -0.019093374 0.02587452 -0.04037461

weight f4 [5, 256]
00000000: 0682 0b3f d29a 473d 7370 1a3c 1164 693e
00000010: ca0f b03b 8593 48bc c90d 97bb 0e85 e63e
00000020: 88e0 0b3b d1c4 4b3d 5a5a e8bb 700c 43bc
00000030: be98 4e3b 308e 4fbd 6a45 d63b ae92 7d3d
00000040: fcf0 ab3c 4f06 82be ea12 753d 3663 f63d
00000050: 3e8c 673d 0751 abbe 457e 5cbc c665 22bd
00000060: b544 8a3e 9eb2 443d 09c8 a1bd 88cc 6bbd
00000070: f321 c13d b5d2 64bc 1062 cabc 346f d7bc
00000080: 6448 ffbc 4103 c93d 7d57 14bc 9fe6 23be
00000090: 6ad6 9a3c d676 11be d303 d43d 8f1b 14bd
000000a0: de3c 76bd 0fc5 c13d a724 37bb da69 ba3c
000000b0: c3ed b53d bd88 493f ce81 4b3d 676d d03c
000000c0: 23a8 ec3c 71bb 3b3c 6dff 823e ea3e a73b
000000d0: 54fb f83b e6ae 7fbd 8439 193d 0005 663c
000000e0: 404b 7a3b d22d 0a3d 8ca2 193d 8819 283c
000000f0: 039e 3a3d f4e5 25bd 25be 823d 1f35 a93d
00000100: 951e 4ebc 2802 67bd 36d4 3f3e d145 843d
00000110: 0c3f a1bc 59e3 a03d 3d45 b63e 94a1 163d
00000120: 677f a03d a648 223d e616 693d f056 8bbc
00000130: 4deb a93c 2039 243a eaa0 0c3d 47d9 f8bd
00000140: 21c1 3e3c d83e 4c3c 4861 2f3d c609 b3be
00000150: 0ad7 853e 5e93 a2be 9c2c 573d 1560 f9bc
00000160: cea3 de3c d974 923d 0ab6 603d 2774 c03d
00000170: 6042 07bd ecbd 0bbe 22e6 34bd 6d3a 913d
00000180: a78c bc3d 39ee cb3d a26c 3fbd db23 813e
00000190: ee0b 4a3e 4e79 413d ba56 543d f757 c5bc
000001a0: 0169 203d c91c a03c 55ae 26bc 0a90 69bd
000001b0: 4d9e b73d 441e 8b3c 508b 163d f2e1 a93e
000001c0: 170e 893d 6a4b 70bd 6cbc 2a3f 2f13 dfbd
000001d0: 8b1d cc3d 32e2 86bb 5da3 8a3d 5408 223d
000001e0: 289c 533d 3b4c 91bd 5023 5a3c 37f0 d4bd
000001f0: 62d3 c33c c6f0 053d 0657 78bd 29c1 a2be
00000200: 4113 053d b6f5 e03c bde7 09bc e2d2 e83b
00000210: 348b 133d 5a29 fcbb d169 303a 208f 30bd
00000220: 65a2 a03b d37f 3b3e c963 2abd 2aab d43b
00000230: b0d7 503c b0a8 333c 7249 7abd 57ba 02bd
00000240: 3f83 943d d111 4f3e 2bee bcbe 5f46 91bd
00000250: df34 873c a10c 63be fade 373d 66b4 23be
00000260: 9b7d 783c fdcc b03d ddb3 02be db27 9a3d
00000270: 86e5 4b3d df9a 183d 900a ad3a ca9f 19bd
00000280: c2ed 853e 7a50 043d 4ab2 303d 40ce 9fbc
00000290: 40e7 293c 2578 183d 3c1e 6abd 249b 0d3d
000002a0: 4421 0e3d 5565 5cbc 5cae 41bd 39d0 16bb
000002b0: 33e3 fdbb 98a1 88bc e06a 543c 5084 26be
000002c0: 84cb f23e ced0 7e3d e80a 38be fa44 7b3d
000002d0: 0a39 4c3d 49be f9bc dd3f b43d 2d4a 713e
000002e0: ca3e 993c 71a6 8f3e dc4f 3d3e 5fdf d13d
000002f0: ba39 383e 6029 78bb 32f6 923c 8305 803d
00000300: 2e2a 70bd f026 223b bfe6 be3b 40e4 2b3c
00000310: 4a9a 61bc 2396 433e 1904 61bd 604e 603c
00000320: 14af 03bd 5945 a13e 3e4f 923d 35b3 8d3d
00000330: f830 163d dc2c 523b 7cc4 4dbd 9feb 97be
00000340: 6dfc 023d a84c 8d3e 467d 11bd af21 aebd
00000350: f497 8a3d faf8 a33e c182 813d d158 803d
00000360: 844b 023f f85e 74bd 924f 383d 7cfc 3c3e
00000370: cac2 933b 6036 153d 05ae c03d 7039 b83b
00000380: ca2c 8e3c 8843 dcbc 5f4c 8cbd 14a3 813c
00000390: 8377 5f3e cae6 953b 12b4 693d bc16 89bc
000003a0: a800 5fbd 1354 c93d 56ab 61bd a4a6 273d
000003b0: a8f2 7dbd aa8b d73b 7031 823e 8dc1 a73d
000003c0: c3ae c63d af8a 96bd 61cd 953e 9773 95bd
000003d0: 6084 2b3d 00be 133c 0f6e 953d 6071 3bbd
000003e0: c649 48bc 2aff 933c a2da 753d 708e d8bb
000003f0: c916 363e f750 31bd 69dc 2d3f 4810 dbbc
0.54495275 0.048731633 0.009426224 0.22792079 0.005372976 -0.012242203 -0.0046097976 0.45023388
0.0021343548 0.049748246 -0.007090849 -0.011904821 0.0031524147 -0.05067271 0.0065390365 0.061907463
0.020988934 -0.25395438 0.05983249 0.12030642 0.05653023 -0.33460256 -0.013457839 -0.03964784
0.27005544 0.048021905 -0.07899482 -0.057568103 0.094303034 -0.013966252 -0.024704963 -0.026298143
-0.031162448 0.09815074 -0.009054062 -0.16005944 0.018901069 -0.14205489 0.10352292 -0.036159094
-0.06011664 0.09461414 -0.002794543 0.022755552 0.0888324 0.7872427 0.04968434 0.025442792
0.028888768 0.011458264 0.255855 0.0051039355 0.00759832 -0.062422656 0.037408367 0.014039278
0.0038191825 0.033735104 0.037508532 0.010259993 0.045560848 -0.040502504 0.063839234 0.08262085
-0.0125805335 -0.05639854 0.18733296 0.06458629 -0.019683383 0.07855863 0.355997 0.036775187
0.078368 0.039620064 0.056906603 -0.017009228 0.020742083 0.0006264616 0.034333147 -0.12150817
0.011642725 0.012466155 0.042817384 -0.34968394 0.26140624 -0.31753057 0.052532777 -0.030441323
0.027177718 0.07151193 0.054861106 0.09397154 -0.033022285 -0.13646668 -0.044164784 0.07091222
0.09206515 0.09957547 -0.04673446 0.25222668 0.19731113 0.047234826 0.05184052 -0.024089796
0.03916264 0.019544976 -0.0101734 -0.057022132 0.0896574 0.016982205 0.036753953 0.33180195
0.066921405 -0.05866567 0.6669376 -0.10892331 0.099665724 -0.00411632 0.0676944 0.039558724
0.051662594 -0.07094618 0.013314083 -0.1039738 0.023904506 0.032700323 -0.060629867 -0.31787995
0.032489065 0.027460914 -0.008417067 0.0071052173 0.036021426 -0.007695359 0.0006729635 -0.043105245
0.0049021714 0.1831048 -0.04159907 0.006490131 0.012746736 0.010965511 -0.0611052 -0.03191599
0.07251596 0.2022164 -0.36900458 -0.070935 0.016504703 -0.22172786 0.04489038 -0.15986785
0.015166665 0.086328484 -0.12763925 0.07527133 0.049779437 0.03725707 0.0013202 -0.037505902
0.26157957 0.03230331 0.04313878 -0.019507527 0.010370076 0.037223954 -0.05715774 0.03457178
0.034699693 -0.013451894 -0.047285423 -0.0023012294 -0.0077480315 -0.016678616 0.012964934 -0.1626141
0.47420895 0.06221085 -0.1797291 0.061345078 0.049859084 -0.030486243 0.088012435 0.23563452
0.018706698 0.28056672 0.18487495 0.10247683 0.17990771 -0.0037866458 0.01793966 0.06251051
-0.058633976 0.0024742447 0.005825847 0.010491431 -0.013769696 0.19100241 -0.05493555 0.013690561
-0.03214939 0.3149822 0.071440205 0.06918947 0.036667794 0.0032070195 -0.05023621 -0.29671952
0.031979013 0.27597547 -0.03551986 -0.085025184 0.06767264 0.32025892 0.063237675 0.062669404
0.5089648 -0.05966088 0.04499776 0.1845569 0.0045093047 0.03642881 0.094081916 0.0056220815
0.017355341 -0.02688767 -0.06850504 0.015824832 0.21822934 0.0045746313 0.057056494 -0.016734473
-0.054443985 0.09830489 -0.05509504 0.040930405 -0.061998993 0.0065779286 0.25428343 0.08191214
0.09701302 -0.073506705 0.29258254 -0.07297438 0.04187429 0.0090174675 0.07296383 -0.04576242
-0.01222462 0.018066008 0.060022958 -0.0066087767 0.1778213 -0.043290105 0.67914444 -0.026741162

bias f4 [5]
00000000: 527f 073d 7d30 a4bc 010b 003e f3a0 85bd
00000010: 3d05 983d
0.033080406 -0.020042652 0.12504198 -0.06524839 0.07422874
